checkpoints/checkpoint_epoch_60.pt (torch, 213003 bytes, 18 tensors)

fc1.weight f4 [64, 128]
-0.026844006 0.085342154 0.13959038 0.0044561387 -0.14927779 -0.08932597 -0.05774393 0.022248492
0.06986798 -0.0018721878 -0.005841851 -0.028010253 0.006102588 0.054547288 0.015300369 -0.05755548
0.038728517 0.029901382 0.12333719 -0.060303994 -0.04496632 -0.09867252 -0.03140732 -0.14512515
-0.10358341 0.045063686 0.13326381 0.12812932 -0.08805438 -0.08796744 0.01096911 -0.1055043
-0.097237475 0.058100376 -0.020345233 -0.041796654 0.017056542 -0.101199105 0.0702853 0.036968865
-0.06492447 -0.024091542 0.10684307 0.010219746 0.008853945 0.030063039 0.11708272 0.035768233
0.019727431 -0.049297817 -0.07737577 -0.03641583 0.005047414 -0.07675807 0.020120645 0.01876778
-0.09547582 -0.06294635 0.055123996 -0.08402379 0.018708011 0.085697986 -0.030596342 0.070217
0.022487553 -0.061582237 0.063791305 -0.045941878 -0.04263499 -0.04795364 -0.044631165 0.06738066
-0.13854 0.07153662 0.10161346 -0.07588685 -0.07992558 -0.124516405 0.017105242 -0.080201626
-0.028769022 -0.03999089 -0.066635996 -0.046488974 0.06710203 -0.018047817 -0.14124419 0.13909997
-0.028986879 0.11229721 0.075606756 0.060883865 0.0838325 -0.06761538 -0.08765934 0.073538974
-0.014047738 0.117884755 0.07240792 -0.043308657 -0.102382004 -0.060944926 0.10887848 -0.10294615
0.1538767 -0.08695143 -0.10431902 -0.005018384 0.03308107 0.033739332 -0.093500845 0.07223383
-0.12691669 -0.06717439 -0.054345407 0.022525234 0.05481069 0.004058865 -0.017400937 -0.004833241
0.05201055 0.04091901 -0.0607602 -0.13105097 0.104094714 -0.010637894 -0.012097195 0.051780045
0.00347631 0.06286007 -0.020676125 0.07551395 0.005910391 0.09184285 0.04817774 -0.018611092
0.06742056 0.14725263 -0.1199069 -0.024705023 -0.09866572 0.03482872 -0.02055411 -0.037646934
-0.033832446 0.12719527 0.08483286 0.056385063 -0.04891473 0.06559845 0.09828017 -0.01644794
0.09283669 -0.021562217 -0.052530427 -0.081820995 -0.0304068 0.0026960876 -0.06934751 0.034718037
0.08140569 0.10256852 -0.004309372 0.07644826 0.12928326 -0.019368127 0.019403795 -0.0054281917
0.120667055 0.031352017 0.13725343 0.004510794 0.15461642 0.12501355 -0.0017920125 -0.118576124
0.036909286 0.12723385 0.016031861 0.0062047667 -0.005661319 0.07670872 -0.06726015 0.034604166
0.019084416 -0.11250744 -0.08512787 -0.0136588 0.01629915 0.029421553 -0.0040997565 -0.12694909
-0.010242989 -0.015151552 0.018559916 0.08791272 -0.11470631 -0.015873786 0.10066899 0.09473404
0.066335365 0.08728246 0.049680497 0.082626596 0.124163404 0.056151137 0.09075917 0.0903871
-0.042288084 -0.0099839205 0.103245884 0.09876531 -0.04209641 0.03901255 0.07195018 -0.115907334
-0.069439694 0.07202127 0.068935245 0.018376004 -0.02161001 -0.15756446 0.019150391 -0.004938078
-0.007640855 0.057376508 -0.0019341189 0.03626733 -0.10107791 0.11346272 -0.03034207 0.01620412
0.05072437 0.0023317435 0.11935512 -0.06628519 -0.07418223 0.12854706 -0.07925159 0.07553441
0.054336816 -0.1322913 0.016623858 -0.10676654 -0.09540996 0.071044624 -0.07097962 -0.12812169
0.01903598 -0.13065232 0.10741191 0.1081407 0.08768393 0.10175728 -0.12066633 0.06856622
00000000: f6e7 dbbc dec7 ae3d c8f0 0e3e cd04 923b
00000010: 47dc 18be 89f0 b6bd e684 6cbd 7842 b63c
00000020: f216 8f3d 3364 f5ba ff6c bfbb c275 e5bc
00000030: 38f8 c73b fa6c 5f3d 66ae 7a3c 4cbf 6bbd
00000040: cba1 1e3d bef3 f43c 3598 fc3d 5201 77bd
00000050: 9b2e 38bd d114 cabd f6a4 00bd b09b 14be
00000060: 8a23 d4bd b394 383d 4f76 083e 5534 033e
00000070: db55 b4bd 4628 b4bd c8b7 333c a312 d8bd
00000080: 7124 c7bd a9fa 6d3d 0cab a6bc f832 2bbd
00000090: 29ba 8b3c 7a41 cfbd bdf1 8f3d aa6c 173d
000000a0: 1ff7 84bd a05b c5bc 8ad0 da3d b970 273c
000000b0: 2310 113c c346 f63c 11c9 ef3d b681 123d
000000c0: 6c9b a13c 82ec 49bd 3077 9ebd c428 15bd
000000d0: c764 a53b 5633 9dbd 0dd4 a43c e3be 993c
000000e0: d488 c3bd 04ea 80bd b3c9 613d aa14 acbd
000000f0: 8b41 993c 6d82 af3d 2ea5 fabc eecd 8f3d
00000100: d137 b83c a83d 7cbd 04a5 823d 8d2d 3cbd
00000110: 07a2 2ebd 096b 44bd 2bcf 36bd dffe 893d
00000120: 6edd 0dbe cb81 923d b81a d03d 916a 9bbd
00000130: 06b0 a3bd 7502 ffbd 4b20 8c3c c040 a4bd
00000140: 03ad ebbc 7dcd 23bd 7478 88bd 396b 3ebd
00000150: ca6c 893d 04d9 93bc 51a2 10be 3970 0e3e
00000160: e475 edbc 14fc e53d b7d7 9a3d 5c61 793d
00000170: 60b0 ab3d ef79 8abd bd86 b3bd 9a9b 963d
00000180: 7c28 66bc 906d f13d 9b4a 943d 6b64 31bd
00000190: a8ad d1bd 63a1 79bd aefb de3d 6ed5 d2bd
000001a0: db91 1d3e 9713 b2bd 36a5 d5bd 4271 a4bb
000001b0: 0480 073d 4132 0a3d 5f7d bfbd 55ef 933d
000001c0: 73f6 01be ba92 89bd 4a99 5ebd d786 b83c
000001d0: 2d81 603d 3a00 853b 698c 8ebc 2a60 9ebb
000001e0: 0409 553d b19a 273d b0df 78bd 3a32 06be
000001f0: 9c2f d53d 904a 2ebc 5033 46bc 5017 543d
00000200: ced2 633b c8bc 803d fa60 a9bc 0fa7 9a3d
00000210: f4ab c13b 1b18 bc3d 0656 453d 4a76 98bc
00000220: ca13 8a3d 65c9 163e c091 f5bd 3062 cabc
00000230: 4111 cabd 8fa8 0e3d 1861 a8bc ac33 1abd
00000240: e493 0abd 7a3f 023e dabc ad3d 06f4 663d
00000250: d05a 48bd 7b58 863d 1d47 c93d d5bd 86bc
00000260: 2a21 be3d 3fa3 b0bc 252a 57bd c491 a7bd
00000270: ae17 f9bc d8b0 303b 1106 8ebd 8034 0e3d
00000280: 07b8 a63d 720f d23d a235 8dbb e890 9c3d
00000290: d562 043e e8a9 9ebc b5f4 9e3c f9de b1bb
000002a0: 4a20 f73d f96a 003d 2a8c 0c3e 48cf 933b
000002b0: c453 1e3e 8d03 003e f6e1 eaba 0ad8 f2bd
000002c0: 312e 173d 9749 023e 4055 833c 5b51 cb3b
000002d0: 9682 b9bb 7619 9d3d b1bf 89bd 19bd 0d3d
000002e0: ec56 9c3c 4d6a e6bd 8557 aebd 29c9 5fbc
000002f0: cc85 853c 7805 f13c 4057 86bb f1fe 01be
00000300: 36d2 27bc 373e 78bc f70a 983c 960b b43d
00000310: 24eb eabd be09 82bc 8b2b ce3d ec03 c23d
00000320: d6da 873d 25c1 b23d c77d 4b3d 2238 a93d
00000330: 6249 fe3d bcfe 653d f2df b93d df1c b93d
00000340: 4536 2dbd 9993 23bc 9472 d33d 7845 ca3d
00000350: 496d 2cbd a0cb 1f3d 9e5a 933d d360 edbd
00000360: 6636 8ebd e37f 933d ec2d 8d3d 4689 963c
00000370: 7a07 b1bc 9458 21be 48e1 9c3c 9acf a1bb
00000380: 2360 fabb a103 6b3d 4382 fdba 0d8d 143d
00000390: ef01 cfbd 245f e83d ef8f f8bc 81be 843c
000003a0: 5bc4 4f3d 2ad0 183b 7570 f43d 88c0 87bd
000003b0: daec 97bd d7a1 033e a84e a2bd c9b1 9a3d
000003c0: 4890 5e3d 5f77 07be c22e 883c 6aa8 dabd
000003d0: 4c66 c3bd d87f 913d c35d 91bd 5532 03be
000003e0: 58f1 9b3c b9c9 05be c7fa db3d df78 dd3d
000003f0: a293 b33d 1f66 d03d e91f f7bd 726c 8c3d

fc1.bias f4 [64]
0.06647554 0.0603444 0.042707562 -0.01697339 0.10848671 -0.017159963 0.03155921 0.0005531431
0.01466473 0.11079521 0.092837796 0.087024994 0.011172358 0.11506992 0.027198235 0.09149209
-0.0009930042 0.09512938 0.10699802 0.017511968 0.06540952 -0.011633404 -0.016735602 0.106331296
-0.006555411 0.1441874 0.09340551 0.013879238 0.02111135 -0.0053127785 0.0796276 0.073980235
0.074355885 0.10714874 0.11914971 -0.002440074 0.08741217 0.08201863 0.08694085 0.08133537
0.12837361 0.028232694 0.001094553 0.025873188 -0.0021457523 0.11657881 0.099606745 -0.003276763
0.0905835 0.06218288 -0.022914322 0.011989872 -0.0106286025 0.13046618 0.08449017 0.045460574
-0.01979478 0.015589923 0.07245277 0.099562846 0.09804907 0.09591196 -0.019797057 0.093252346
00000000: 5424 883d b12b 773d 20ee 2e3d c70b 8bbc
00000010: 482e de3d 0d93 8cbc 3b44 013d ce00 113a
00000020: 5644 703c 99e8 e23d be21 be3d 293a b23d
00000030: 440c 373c c7a9 eb3d d5ce de3c 3460 bb3d
00000040: b127 82ba 31d3 c23d c721 db3d 4275 8f3c
00000050: 6df5 853d 089a 3ebc 1a19 89bc 39c4 d93d
00000060: c6ce d6bb dda5 133e 634b bf3d be65 633c
00000070: b6f1 ac3c d116 aebb cc13 a33d f382 973d
00000080: e647 983d cc70 db3d c304 f43d a6e9 1fbb
00000090: 2705 b33d 62f9 a73d 0b0e b23d 2993 a63d
000000a0: 5f74 033e 4048 e73c 1b77 8f3a 02f4 d33c
000000b0: c09f 0cbb dfc0 ee3d 9ffe cb3d f6be 56bb
000000c0: d883 b93d 7ab3 7e3d d1b6 bbbc 2b71 443c
000000d0: 9723 2ebc ed98 053e 2f09 ad3d de34 3a3d
000000e0: aa28 a2bc e06c 7f3c 1e62 943d 9be7 cb3d
000000f0: f3cd c83d 7d6d c43d 702d a2bc 16fb be3d

fc2.weight f4 [1, 64]
-0.14106654 0.16689308 -0.101460606 -0.10610527 0.1670346 0.18929657 0.17539872 -0.112160325
-0.10258039 0.097652264 0.11040035 0.121816695 0.18743584 0.08983482 -0.08795818 -0.03557363
0.14241113 -0.076867744 0.12489708 -0.04671619 0.15660758 0.15882145 -0.08034806 -0.16696605
0.17040136 0.120020315 -0.045350544 0.1243601 -0.05871634 -0.033385344 -0.062024977 -0.10760403
-0.12710042 0.13660221 0.1460447 0.13571952 0.17437032 0.15240927 -0.14696714 -0.107262604
-0.05904661 0.11320336 0.08512964 0.1268439 -0.0808414 -0.16150574 0.107956454 0.117977664
-0.088901326 -0.15107971 -0.13770638 0.14369807 -0.051485397 0.099650554 0.099968195 0.06670936
-0.05690263 -0.13341248 -0.08805601 -0.08732677 0.1299479 -0.07319529 -0.097519994 0.0856615
00000000: bf73 10be 05e6 2a3e 94ca cfbd b84d d9bd
00000010: 1e0b 2b3e f6d6 413e b99b 333e 50b4 e5bd
00000020: ab15 d2bd e9fd c73d 9419 e23d 087b f93d
00000030: 2eef 3f3e 51fb b73d 6b23 b4bd a8b5 11bd
00000040: 39d4 113e d66c 9dbd 0aca ff3d 7a59 3fbd
00000050: bd5d 203e 17a2 223e 868d a4bd 26f9 2abe
00000060: b27d 2e3e 36cd f53d 7ec1 39bd 82b0 fe3d
00000070: 8c80 70bd 12bf 08bd e70d 7ebd 805f dcbd
00000080: 9d26 02be 73e1 0b3e be8c 153e 0ffa 0a3e
00000090: 228e 323e 2d11 1c3e 8e7e 16be 7fac dbbd
000000a0: dcda 71bd 2ad7 e73d 7358 ae3d 5ee3 013e
000000b0: 2d90 a5bd c361 25be 4618 dd3d 469e f13d
000000c0: e611 b6bd a4b4 1abe e702 0dbe 9625 133e
000000d0: 5ae2 52bd 9715 cc3d 20bc cc3d eb9e 883d
000000e0: bb12 69bd 489d 08be b656 b4bd 61d8 b2bd
000000f0: 1011 053e 6ae7 95bd 90b8 c7bd 4c6f af3d

fc1.weight f4 [64, 128]
-0.05615673 0.030644085 -0.08126129 0.0441052 -0.002780706 0.057632327 -0.046240997 -0.029881433
-0.07453396 0.02733799 0.09230886 0.01608029 0.019087572 0.04512885 -0.027958909 0.1026601
-0.0140006915 0.047790833 -0.027679913 0.002719998 0.054195814 -0.0021093686 0.009271357 0.05250541
0.007134369 -0.043291345 -0.037631806 0.06207074 0.026427314 -0.06594096 0.09619436 -0.020760618
0.057057366 -0.017994607 0.012310368 0.053121123 0.005128322 0.037372958 -0.071858086 0.071757875
0.055857033 -0.06104407 -0.045659803 -0.06292048 -0.0072138775 -0.00023777437 0.0025053832 0.004893656
0.074535444 0.03800978 0.040211868 0.09759125 -0.04443939 -0.015746202 -0.013383201 0.08362461
0.066373 -0.018302158 0.006038238 -0.004716287 -0.042340115 0.029837197 -0.070927 0.04012721
-0.013481386 -0.025985017 0.05102376 -0.012159516 -0.0517624 -0.11581472 -0.021801697 -0.05737122
-0.0017123896 -0.09855815 -0.053385843 0.005629143 -0.016550733 0.047296003 -0.020539567 0.007177905
0.03183404 0.0931122 -0.031351212 -0.03794941 0.020392321 -0.033465702 0.019248914 0.02505501
-0.0049083587 0.05054424 -0.04525282 0.031162446 -0.031289604 0.026115775 -0.0020542208 -0.07371957
-0.093217656 0.04251179 -0.0017212378 0.08211617 0.014827985 0.024498127 0.08308732 0.059772167
0.050992623 -0.06284278 0.058915194 0.030874271 -0.042291123 -0.06623754 -0.07556989 0.005393215
-0.013358381 0.07792022 -0.043338694 -0.035781786 0.056832362 0.012585554 -0.023869334 -0.03984812
0.023207596 -0.07915732 -0.023805575 0.100641325 -0.03872867 -0.08455378 0.046802808 -0.061003562
-0.024003029 -0.110252514 0.07219108 0.12904532 -0.039487407 0.10488545 -0.050623994 0.13786778
-0.049385455 0.07627203 -0.09520807 0.036817614 -0.040919676 0.12687652 0.033669278 -0.14284736
0.012956441 0.14861889 0.14852688 -0.0020590008 0.034558542 0.008179624 0.009624252 0.120348625
-0.044567842 -0.05294074 0.048038006 -0.009802865 -0.08715852 -0.10559556 0.025104387 -0.009081544
-0.058973532 -0.12992635 -0.0016246776 0.030016 0.13061033 0.0205571 0.033969663 -0.094430305
-0.10075768 0.0008334558 0.11231855 -0.0026548835 -0.05063269 0.095566995 -0.0041291267 0.03371605
-0.01649196 -0.096662275 -0.04431905 -0.0059887283 -0.1365826 0.061302662 0.05336478 -0.08174367
-0.031336527 0.11374299 0.07096548 0.050123133 -0.0402192 0.0145795215 -0.004451571 0.061124295
-0.12794591 -0.012037019 -0.07963814 0.046468817 -0.014195795 0.14239426 -0.07220818 0.043324374
0.04216794 0.026636066 0.031217953 0.021251155 -0.12965384 -0.14557339 -0.09775164 -0.00037830172
0.09540675 -0.13418256 -0.10959942 0.123949885 -0.019498726 0.13278237 -0.016225059 -0.09726877
0.0705806 -0.12077595 0.14033064 0.14675228 0.07356404 0.062246624 0.09176275 0.022691809
0.08586206 0.12645546 -0.001329645 -0.03947057 -0.069787115 -0.08873399 -0.043972395 -0.05989582
0.09844992 0.09583051 -0.042270273 -0.013158597 0.039251477 0.026744789 -0.002785985 0.07403752
-0.10886978 -0.023859892 -0.11875441 -0.06147774 -0.033440262 -0.014169859 -0.025663754 0.043373793
0.08482357 0.085082375 0.008829472 -0.0832723 -0.01603462 -0.027910618 -0.015381425 -0.07616737
00000000: 9904 66bd 4e09 fb3c 526c a6bd a7a7 343d
00000010: 813c 36bb e00f 6c3d 3367 3dbd e8c9 f4bc
00000020: 43a5 98bd ecf3 df3c 6d0c bd3d d0ba 833c
00000030: 8a5d 9c3c 07d9 383d 150a e5bc 753f d23d
00000040: 2863 65bc 52c0 433d fcc0 e2bc fe41 323b
00000050: 6efc 5d3d 553d 0abb e4e6 173c ea0f 573d
00000060: 6dc7 e93b 4452 31bd cf23 1abd e33d 7e3d
00000070: 187e d83c 0e0c 87bd 8c01 c53d 2c12 aabc
00000080: fcb4 693d 6d69 93bc 6db1 493c 8995 593d
00000090: 7c0b a83b 6314 193d 552a 93bd cbf5 923d
000000a0: 58ca 643d 5909 7abd c605 3bbd 74dc 80bd
000000b0: 6462 ecbb 1253 79b9 5b31 243b f65a a03b
000000c0: 0aa6 983d 25b0 1b3d 33b5 243d ecdd c73d
000000d0: 1406 36bd 2efe 80bc 3745 5bbc 6143 ab3d
000000e0: 91ee 873d 68ee 95bc 69dc c53b 158b 9abb
000000f0: d46c 2dbd 236d f43c 2d42 91bd 6e5c 243d
00000100: 08e1 5cbc 88de d4bc 4afe 503d b538 47bc
00000110: cf04 54bd 4530 edbd 7999 b2bc 16fe 6abd
00000120: 4372 e0ba dbd8 c9bd 1dab 5abd ad74 b83b
00000130: 6795 87bc 74b9 413d 9842 a8bc a234 eb3b
00000140: 6964 023d 9cb1 be3d 216a 00bd d770 1bbd
00000150: cc0d a73c 5513 09bd e6af 9d3c 2a40 cd3c
00000160: 4cd6 a0bb 7a07 4f3d 055b 39bd 6348 ff3c
00000170: 8729 00bd c0f0 d53c 1ba0 06bb 49fa 96bd
00000180: e6e8 bebd d820 2e3d 289b e1ba 862c a83d
00000190: 14f1 723c 4cb0 c83c af29 aa3d a9d3 743d
000001a0: a4dd 503d b7b3 80bd 0f51 713d 0aec fc3c
000001b0: 7539 2dbd 8ca7 87bd 63c4 9abd 91b9 b03b
000001c0: 1cdd 5abc a394 9f3d ea83 31bd ec8f 12bd
000001d0: 0dc9 683d a433 4e3c 9f89 c3bc c837 23bd
000001e0: db1d be3c 3c1d a2bd e903 c3bc 0a1d ce3d
000001f0: f4a1 1ebd 882a adbd 4db4 3f3d dfde 79bd
00000200: 00a2 c4bc 12cc e1bd ebd8 933d 7524 043e
00000210: 8cbd 21bd 2fce d63d 1b5b 4fbd 362d 0d3e
00000220: 6748 4abd 8334 9c3d 73fc c2bd 11ce 163d
00000230: 649b 27bd ebeb 013e cce8 093d 9446 12be
00000240: 4147 543c 8d2f 183e 6e17 183e 4df0 06bb
00000250: 428d 0d3d d403 063c 0aaf 1d3c 5779 f63d
00000260: c58c 36bd 64d8 58bd 80c3 443d 329c 20bc
00000270: 2b80 b2bd 7c42 d8bd b7a7 cd3c c2ca 14bc
00000280: 3b8e 71bd 6a0b 05be 22f3 d4ba 1de4 f53c
00000290: b7be 053e 5d67 a83c c623 0b3d ad64 c1bd
000002a0: 0b5a cebd 467c 5a3a 4507 e63d 8efd 2dbb
000002b0: 3964 4fbd a1b8 c33d a04d 87bb d719 0a3d
000002c0: 261a 87bc dff6 c5bd e487 35bd 183d c4bb
000002d0: 4fdc 0bbe 8018 7b3d 0795 5a3d 3a69 a7bd
000002e0: bb5a 00bd 16f2 e83d 5956 913d ea4d 4d3d
000002f0: e3bc 24bd f2de 6e3c 7cde 91bb 785d 7a3d
00000300: 4104 03be eb36 45bc 5219 a3bd 1656 3e3d
00000310: 7b95 68bc cdcf 113e e2e1 93bd e674 313d
00000320: 4ab8 2c3d e133 da3c cbbc ff3c e716 ae3c
00000330: fac3 04be 3111 15be 0332 c8bd cc56 c6b9
00000340: 9d64 c33d 2767 09be a975 e0bd 70d9 fd3d
00000350: cbbb 9fbc 1af8 073e 6aea 84bc d934 c7bd
00000360: 908c 903d 6259 f7bd d6b2 0f3e 3b46 163e
00000370: bea8 963d 51f6 7e3d 1cee bb3d 2ce4 b93c
00000380: 73d8 af3d 8a7d 013e 7c47 aeba e4ab 21bd
00000390: 8cec 8ebd 2bba b5bd 661c 34bd 5255 75bd
000003a0: 1da0 c93d c942 c43d 9823 2dbd 2897 57bc
000003b0: 28c6 203d e317 db3c 1295 36bb fca0 973d
000003c0: 1ff7 debd d275 c3bc 8335 f3bd 15d0 7bbd
000003d0: a8f8 08bd b228 68bc cb3c d2bc b8a8 313d
000003e0: fbb7 ad3d ab3f ae3d 7da9 103c ab8a aabd
000003f0: 095b 83bc cfa4 e4bc 5f02 7cbc a3fd 9bbd

fc1.bias f4 [64]
0.04338559 0.09864416 0.004935385 -0.017547416 0.016433114 0.04563539 0.013368261 -0.00820514
0.10789603 0.03996754 0.047229815 0.14262299 0.023864971 -0.069728985 0.14102545 -0.016846895
-0.043227866 0.10266729 0.00329592 -0.04789856 -0.06286218 -0.029295223 -0.08132859 0.009104902
-0.023026546 0.011531979 0.04227995 0.043965194 -0.008807347 0.028312273 0.045844104 -0.011496307
-0.08745143 -0.016197447 0.09300931 0.009803441 0.010156623 0.052722692 0.101658784 -0.050820816
0.12174568 -0.0151163945 0.084748626 -0.02983591 -0.03824769 0.09973357 -0.016025266 0.003112276
-0.0037786234 -0.020948758 0.12537506 0.113376 0.03023633 -0.0927417 -0.016525587 0.004059343
0.127231 0.05634342 -0.011102475 0.10157238 -0.041081574 0.11867374 -0.0027939973 0.003418014
00000000: 17b5 313d f305 ca3d 03b9 a13b 99bf 8fbc
00000010: bd9e 863c 2dec 3a3d 8d06 5b3c da6e 06bc
00000020: 98f8 dc3d 01b5 233d 0d74 413d c30b 123e
00000030: 7980 c33c 12ce 8ebd fa68 103e 8002 8abc
00000040: b40f 31bd 3a43 d23d 5d00 583b 4831 44bd
00000050: e3bd 80bd 89fc efbc 9b8f a6bd ba2c 153c
00000060: 2ba2 bcbc a0f0 3c3c be2d 2d3d d914 343d
00000070: b14c 10bc 24ef e73c 07c7 3b3d 025b 3cbc
00000080: bc19 b3bd 82b0 84bc aa7b be3d 9d9e 203c
00000090: f767 263c c0f3 573d 7b32 d03d 7d29 50bd
000000a0: cd55 f93d c1aa 77bc b090 ad3d 706a f4bc
000000b0: 9ca9 1cbd 1d41 cc3d 6b47 83bc 54f7 4b3b
000000c0: c8a2 77bb bb9c abbc 5262 003e ad31 e83d
000000d0: 2eb2 f73c 5cef bdbd ab60 87bc 3d04 853b
000000e0: d848 023e 5cc8 663d 28e7 35bc 2e05 d03d
000000f0: 2745 28bd 380b f33d 7f1b 37bb c200 603b

fc2.weight f4 [1, 64]
-0.009292358 0.089230575 -0.006623364 -0.03829004 0.18694875 0.08208468 0.13898952 -0.101520345
0.11639168 -0.027595075 -0.029806925 0.13800298 0.10236258 -0.010530229 0.070021376 -0.09711557
-0.0506397 0.106510915 0.14030243 -0.043988876 -0.0061838888 -0.082003176 -0.053128026 0.10900494
0.16284557 0.120242804 -0.080817446 -0.041979413 0.12936816 0.17411752 0.19662988 0.13244818
-0.00058481586 0.1263813 0.18106654 0.10500398 0.111748606 0.17804466 0.07515093 -0.06245347
0.086408496 0.15463221 0.14180027 0.04453011 -0.029101735 0.16225117 0.19406185 0.11234816
0.10151369 -0.063017935 0.15095446 0.13241011 -0.045306735 -0.03864724 0.17457567 -0.08451362
0.06758762 0.11330541 0.10937977 0.13197938 -0.030037086 0.12604904 0.0089309355 0.05626782
00000000: f93e 18bc 85be b63d ce08 d9bb 04d6 1cbd
00000010: 7e6f 3f3e 031c a83d 4553 0e3e e6e9 cfbd
00000020: c35e ee3d 110f e2bc a72d f4bc a750 0d3e
00000030: 79a3 d13d fb86 2cbc 5e67 8f3d 87e4 c6bd
00000040: 936b 4fbd 6522 da3d 71ab 0f3e ae2d 34bd
00000050: 38a2 cabb 48f1 a7bd c69c 59bd fb3d df3d
00000060: fdc0 263e dc41 f63d 9e83 a5bd 9bf2 2bbd
00000070: 1679 043e dd4b 323e 5859 493e 7fa0 073e
00000080: 544e 19ba 196a 013e 8269 393e 540c d73d
00000090: 74dc e43d 5751 363e bbe8 993d 36cf 7fbd
000000a0: f0f6 b03d e857 1e3e 1734 113e 3465 363d
000000b0: c366 eebc 2c25 263e 26b8 463e cb16 e63d
000000c0: 69e6 cf3d 8c0f 81bd ce93 1a3e 8496 073e
000000d0: 8e93 39bd 914c 1ebd f7c3 323e 7a15 adbd
000000e0: 616b 8a3d ab0c e83d 8002 e03d 9a25 073e
000000f0: 5610 f6bc 0013 013e 0f53 123c 1679 663d

exp_avg f4 [64, 128]
3.535027e-05 -1.9423684e-05 -2.8973436e-05 -7.7660925e-06 2.1796912e-05 3.5920718e-06 2.9923085e-05 1.0897874e-06
-2.2508173e-06 -8.236077e-06 -1.714474e-05 5.471389e-06 3.8339254e-05 -2.6452799e-05 -9.514459e-06 1.8491535e-05
1.3584074e-05 -1.2132658e-06 -2.4832107e-05 1.3645263e-05 -2.525532e-06 8.9912195e-05 2.8603275e-05 9.706831e-07
1.4726222e-05 5.005856e-06 -2.5096782e-05 -7.8675175e-06 2.0299753e-05 1.8019524e-05 2.453343e-05 2.7736367e-05
3.3065582e-05 -3.9338506e-06 -9.01558e-06 1.6012395e-06 -2.7715898e-06 -1.759739e-05 -3.1243617e-05 -1.8515779e-05
3.7511665e-05 -1.4439493e-06 -2.3814018e-05 2.2110686e-05 2.3714667e-05 -4.4294995e-07 -2.166912e-05 9.753334e-06
5.4532034e-06 1.3557283e-05 1.3273661e-05 1.1096986e-05 1.44219e-06 1.9814777e-05 -1.1466515e-06 1.3028042e-05
5.987563e-05 -1.1386444e-06 -1.648732e-05 2.5480618e-05 -1.6890199e-05 -1.3077549e-05 -9.290865e-06 -1.8883302e-05
-2.3191853e-05 3.835174e-06 -8.684885e-06 -2.7209587e-06 -1.7369007e-06 -1.0710737e-05 1.0229144e-05 -4.7981794e-06
5.216031e-06 6.126822e-06 -1.1105572e-05 1.29541095e-05 7.235501e-05 2.3577557e-05 -8.374822e-07 1.8258363e-05
3.152324e-06 3.195031e-05 -8.1834005e-06 6.1412206e-06 2.060164e-05 -6.5818695e-06 3.3551212e-05 -5.6257726e-05
-3.7700927e-06 -2.0470428e-05 -3.799969e-06 -2.2965634e-05 -1.9013798e-05 -4.826199e-06 2.3723258e-06 -1.9532064e-05
2.8495522e-06 -1.0741812e-05 -1.0985584e-05 2.5554826e-05 4.414959e-05 1.5187071e-05 -1.8982406e-05 4.7207897e-05
-3.3145163e-05 3.991294e-06 9.464865e-06 -3.264308e-05 -1.9683903e-06 1.5616512e-06 2.598339e-06 -1.6750284e-05
2.3393557e-05 1.4974282e-05 3.025693e-05 8.77468e-06 -1.1074693e-05 -2.1666967e-05 1.1604094e-06 1.0526452e-05
-3.627634e-06 -3.6704605e-05 -1.5201542e-06 2.4704577e-05 -2.7061558e-05 -4.0442046e-05 -1.503129e-05 5.960934e-06
-3.0061698e-05 -1.0285298e-06 1.2639424e-05 2.9055724e-05 -3.390331e-05 -8.273071e-06 -2.6719828e-05 -3.7214581e-06
1.9092628e-05 4.9158602e-06 2.266266e-05 9.576271e-06 1.039329e-05 2.5846657e-05 -8.146557e-06 3.416124e-05
-1.1398972e-05 1.7351093e-05 7.405506e-06 -6.5556164e-06 9.0922504e-07 -3.191373e-06 -7.918042e-06 -8.62809e-06
-6.6461e-06 4.458898e-06 -1.9849684e-05 -3.132515e-06 -9.847011e-06 2.105753e-06 -1.6059845e-06 -2.3032866e-05
-8.077923e-07 1.2295958e-05 -1.8501487e-05 6.1571754e-06 -4.4093586e-06 -3.6717505e-05 1.4790635e-05 -1.1030076e-05
-2.32678e-05 -1.4878272e-05 4.436626e-06 -2.0601965e-05 -2.6671423e-05 6.352622e-06 6.482481e-06 2.4474739e-05
1.4135966e-06 -5.770697e-06 -3.4688203e-06 5.6357617e-06 -1.173696e-05 -2.1285832e-06 2.1992593e-05 1.3616825e-05
-1.5597865e-05 1.6286069e-05 6.272241e-06 -3.858449e-06 -4.798017e-06 7.445963e-06 -2.8137487e-05 1.379807e-05
2.3711767e-05 -8.934592e-06 -2.0369176e-05 -1.5733521e-07 2.5888357e-06 5.4053535e-06 -1.3329389e-05 2.4001388e-06
-1.1902166e-06 -1.31969e-05 -9.026127e-07 1.7360342e-05 -3.823628e-06 4.9456225e-06 -3.5358808e-06 -2.30072e-05
3.270458e-06 -6.4551296e-06 9.896996e-06 -2.0445766e-05 -5.489784e-06 9.924106e-06 2.8495833e-05 2.8768536e-06
1.2841698e-05 8.916863e-06 1.2709401e-06 -3.334813e-06 1.3718778e-05 2.736148e-05 -3.0274841e-05 -6.035452e-06
-2.3308617e-06 1.2466041e-05 -3.4872857e-05 2.230136e-05 4.1217577e-06 -1.3813636e-06 1.1896503e-05 1.5877868e-06
6.508517e-06 -1.0550677e-05 -1.4374657e-05 1.9847843e-05 3.3709086e-06 7.934107e-06 -1.1357159e-07 -1.5838204e-06
2.2577122e-05 1.2929255e-05 -7.611975e-06 -4.529436e-05 5.7450084e-06 5.920816e-06 -1.7377012e-06 -1.0584498e-06
-5.4514444e-06 -7.73999e-06 1.2558864e-05 -1.8579092e-05 1.9849516e-05 8.116611e-07 7.1491127e-06 -1.205561e-05
00000000: 1045 1438 0bf0 a2b7 fb0b f3b7 1d4b 02b7
00000010: 83d8 b637 530f 7136 5603 fb37 cf44 9235
00000020: bf0c 17b6 ae2d 0ab7 0cd2 8fb7 e096 b736
00000030: 76ce 2038 f4e6 ddb7 4aa0 1fb7 451e 9b37
00000040: 27e7 6337 7fd7 a2b5 8b4e d0b7 f5ed 6437
00000050: 4f7c 29b6 3e8f bc38 11f1 ef37 6b48 8235
00000060: a410 7737 faf7 a736 ee86 d2b7 bbfe 03b7
00000070: 6349 aa37 a228 9737 24cd cd37 65ab e837
00000080: e6af 0a38 85ff 83b6 9f41 17b7 2cea d635
00000090: 8dff 39b6 1b9e 93b7 940b 03b8 5552 9bb7
000000a0: d855 1d38 b8cd c1b5 37c4 c7b7 567a b937
000000b0: dcee c637 94ce edb4 15c6 b5b7 40a2 2337
000000c0: a9fa b636 1674 6337 f1b1 5e37 312d 3a37
000000d0: 4591 c135 e937 a637 a5e6 99b5 0493 5a37
000000e0: f822 7b38 86d3 98b5 404e 8ab7 36bf d537
000000f0: 6daf 8db7 a567 5bb7 f6df 1bb7 9567 9eb7
00000100: 208c c2b7 e5af 8036 4cb5 11b7 b799 36b6
00000110: 741f e9b5 44b2 33b7 d79d 2b37 0c00 a1b6
00000120: 5d05 af36 0095 cd36 1252 3ab7 7a55 5937
00000130: 4dbd 9738 6bc8 c537 57cf 60b5 8929 9937
00000140: 848c 5336 6202 0638 704b 09b7 af10 ce36
00000150: afd1 ac37 d4d9 dcb6 57b9 0c38 46f6 6bb8
00000160: b301 7db6 e9b7 abb7 f802 7fb6 53a6 c0b7
00000170: d27f 9fb7 bcf0 a1b6 3f34 1f36 cad8 a3b7
00000180: ef3a 3f36 bb37 34b7 b94e 38b7 925e d637
00000190: 432d 3938 f9cb 7e37 683c 9fb7 1801 4638
000001a0: 5905 0bb8 f4ec 8536 49cb 1e37 3eea 08b8
000001b0: b018 04b6 ed99 d135 205f 2e36 f682 8cb7
000001c0: 483d c437 0d3a 7b37 43d0 fd37 f736 1337
000001d0: 72cd 39b7 75c1 b5b7 5dbf 9b35 c49a 3037
000001e0: 4772 73b6 45f3 19b8 1a08 ccb5 ad3c cf37
000001f0: 4102 e3b7 51a0 29b8 e62e 7cb7 0804 c836
00000200: 012d fcb7 040c 8ab5 ea0d 5437 b1bc f337
00000210: 6733 0eb8 92cc 0ab7 6524 e0b7 2abe 79b6
00000220: 1b29 a037 ebf2 a436 b11b be37 c5a9 2037
00000230: d75e 2e37 46d1 d837 32ad 08b7 5a48 0f38
00000240: 363e 3fb7 308d 9137 d07c f836 51f8 dbb6
00000250: 7811 7435 5f2b 56b6 bbd7 04b7 5dc1 10b7
00000260: 9001 dfb6 a49d 9536 df82 a6b7 3338 52b6
00000270: 9734 25b7 9050 0d36 358d d7b5 b436 c1b7
00000280: 10d7 58b5 bd4a 4e37 a433 9bb7 bc99 ce36
00000290: 1af4 93b6 1f01 1ab8 4b25 7837 d10d 39b7
000002a0: 382f c3b7 b19d 79b7 54de 9436 62d2 acb7
000002b0: 72bc dfb7 9c28 d536 1684 d936 1a4f cd37
000002c0: cfba bd35 e9a1 c1b6 e1c9 68b6 d31a bd36
000002d0: dce9 44b7 c8d8 0eb6 bc7c b837 d173 6437
000002e0: 29d8 82b7 119e 8837 2476 d236 d377 81b6
000002f0: a7fe a0b6 56d8 f936 cb08 ecb7 427e 6737
00000300: a2e8 c637 c8e5 15b7 79de aab7 f9ef 28b4
00000310: dcbb 2d36 a25f b536 4aa1 5fb7 1212 2136
00000320: 88bf 9fb5 4168 5db7 134b 72b5 0da1 9137
00000330: b74c 80b6 93f2 a536 f849 6db6 96ff c0b7
00000340: 0a7a 5b36 2499 d8b6 460b 2637 f382 abb7
00000350: e334 b8b6 b67f 2637 560a ef37 f80f 4136
00000360: ac72 5737 a399 1537 2b95 aa35 a7cb 5fb6
00000370: b429 6637 5586 e537 baf6 fdb7 2384 cab6
00000380: e66b 1cb6 3d25 5137 7244 12b8 ce13 bb37
00000390: a14d 8a36 4b67 b9b5 1797 4737 f01b d535
000003a0: bc63 da36 d002 31b7 af2a 71b7 eb7e a637
000003b0: c537 6236 bb1c 0537 a4e4 f3b3 a893 d4b5
000003c0: 0064 bd37 baea 5837 5e6a ffb6 73fa 3db8
000003d0: 3fc5 c036 6cab c636 f53a e9b5 0f10 8eb5
000003e0: 8deb b6b6 01db 01b7 e9b3 5237 4cda 9bb7
000003f0: 8382 a637 ede0 5935 69e2 ef36 7342 4ab7

exp_avg_sq f4 [64, 128]
3.2424233e-11 8.903436e-12 2.3092243e-11 6.777464e-12 1.2207237e-11 2.4422526e-12 2.7153295e-11 6.8787706e-13
3.0363112e-12 1.8630453e-12 1.0639002e-11 2.4311217e-12 3.550892e-11 1.610913e-11 3.5444967e-12 7.977135e-12
7.511478e-12 2.2225602e-12 1.849151e-11 4.928741e-12 1.4391941e-12 1.8887507e-10 1.6874141e-11 1.1077302e-12
5.775589e-12 1.2011919e-12 2.1580177e-11 3.5439872e-12 9.115058e-12 8.5631415e-12 1.5698363e-11 1.6044166e-11
2.5754655e-11 2.01213e-12 8.1745435e-12 2.562943e-13 1.7697633e-12 1.1579332e-11 2.1749503e-11 1.01517215e-11
3.658218e-11 1.0149604e-12 1.3421833e-11 1.2938842e-11 1.2828191e-11 3.1265604e-13 1.2553927e-11 5.2720883e-12
3.808097e-12 6.3465062e-12 4.468648e-12 4.181291e-12 6.8860343e-12 9.237003e-12 3.6730276e-12 5.9700443e-12
8.94274e-11 9.950578e-13 5.6090276e-12 1.4632087e-11 6.919366e-12 4.1424763e-12 3.5257136e-12 8.26123e-12
1.6835654e-11 5.979738e-13 3.660931e-12 6.590384e-13 2.1712083e-12 4.157333e-12 5.738886e-12 2.0835007e-12
2.636352e-12 3.6220536e-12 3.3128708e-12 4.804312e-12 1.1789208e-10 1.1984242e-11 1.2695664e-12 1.1250225e-11
1.9448603e-12 2.3161468e-11 5.3524225e-12 8.203556e-12 9.118736e-12 4.00175e-12 3.0643862e-11 7.202506e-11
2.0383367e-12 1.3177977e-11 3.3407363e-12 1.1431108e-11 8.254601e-12 1.3869039e-12 6.323363e-12 1.1706602e-11
5.24983e-13 3.1132805e-12 1.1791206e-11 1.4137616e-11 4.2644374e-11 6.032407e-12 1.23806885e-11 5.1612707e-11
2.4409853e-11 6.557836e-12 3.358093e-12 2.1719442e-11 1.0089021e-12 1.2647061e-12 4.5323427e-13 9.773611e-12
1.8741737e-11 9.983452e-12 1.9027016e-11 5.10964e-12 4.8580233e-12 1.0634897e-11 3.2613504e-12 3.0329621e-12
4.9554593e-13 3.1814888e-11 7.16719e-13 1.40827966e-11 2.0708697e-11 4.1320114e-11 9.1360435e-12 4.5250414e-12
2.8057962e-11 3.165906e-13 3.4132246e-12 2.5551018e-11 2.48355e-11 4.146344e-12 1.9957133e-11 5.623536e-12
1.00377606e-11 1.0522436e-11 1.8487139e-11 2.5400127e-12 6.0155596e-12 1.8494957e-11 6.8535355e-12 2.4321828e-11
6.454989e-12 2.1030662e-11 2.481108e-11 1.304775e-12 1.5129986e-13 2.2656639e-11 4.123993e-12 1.11284966e-11
1.2381565e-11 8.54776e-13 3.1726087e-11 2.5629191e-11 3.5598724e-12 1.2086213e-12 2.5689039e-12 1.1499471e-11
2.7787189e-12 3.7410626e-12 1.8348293e-11 1.8587694e-12 1.1352344e-12 9.570023e-11 5.0558863e-12 4.0725665e-12
1.0954359e-11 4.8875877e-12 1.35937685e-11 1.1097922e-11 2.7732427e-11 1.6499055e-12 1.4309699e-12 5.3761627e-11
2.3000874e-12 1.1436869e-12 8.119834e-13 2.8611644e-12 1.0449057e-11 9.6517e-13 1.1294271e-11 3.881896e-12
1.0933671e-11 5.962424e-12 1.4073047e-12 3.0405565e-12 1.2975638e-11 1.5480842e-11 1.1280904e-10 6.5347133e-12
4.6793177e-11 2.9384984e-12 1.36974425e-11 3.4329337e-13 1.2895092e-12 8.2760725e-12 9.762879e-12 1.459553e-12
2.0875092e-12 3.7155713e-12 1.3211693e-12 6.797266e-12 9.779597e-12 1.115997e-12 1.0994619e-12 1.1840414e-11
1.8390404e-12 3.0134539e-12 5.5133515e-12 5.1568045e-11 6.1941203e-12 8.833552e-12 3.791864e-11 1.4593933e-12
3.7841666e-12 9.009996e-12 1.5526979e-12 1.0959863e-12 6.76731e-12 1.5481803e-11 3.398601e-11 1.2633297e-12
6.6040435e-13 3.6008505e-12 3.2892016e-11 1.0209215e-11 1.1800369e-11 3.6033186e-12 1.0412499e-11 2.4145741e-11
1.2949621e-11 3.9031864e-12 1.5994508e-11 8.783309e-12 6.0491716e-12 5.4637874e-12 5.3055477e-13 9.8042225e-12
1.6752396e-11 4.9855124e-12 1.2978308e-12 5.055854e-11 4.348561e-12 9.961135e-13 2.0999397e-11 3.9949593e-12
3.3355272e-12 1.8180069e-11 9.687184e-12 1.1109177e-11 8.454501e-12 1.0935724e-11 3.6077849e-12 7.978043e-12
00000000: 719a 0e2e 83a1 1c2d 1c1f cb2d f875 ee2c
00000010: 82c0 562d b6db 2b2c c9d7 ee2d c49e 412b
00000020: 52a9 552c a419 032c ce29 3b2d 3213 2b2c
00000030: 7d2b 1c2e 89b2 8d2d fa6b 792c d255 0c2d
00000040: b124 042d 1666 1c2c 2ea7 a22d 276a ad2c
00000050: 6f8c ca2b 9bab 4f2f 306d 942d 30e6 9b2b
00000060: e235 cb2c 800d a92b 3dd2 bd2d cc62 792c
00000070: 925a 202d f6a4 162d 9215 8a2d 4020 8d2d
00000080: 548a e22d 5097 0d2c dfce 0f2d e747 902a
00000090: 7112 f92b adb4 4b2d 874f bf2d 4a97 322d
000000a0: e0e3 202e cdd7 8e2b 901e 6c2d 5d9f 632d
000000b0: 09ad 612d 7c02 b02a dcd9 5c2d c07e b92c
000000c0: 4afc 852c 3f4c df2c 013a 9d2c b91d 932c
000000d0: e247 f22c c37f 222d b13b 812c 610d d22c
000000e0: 27a7 c42e bc0a 8c2b a159 c52c 88b4 802d
000000f0: 1c74 f32c 1cc0 912c 9c19 782c 4655 112d
00000100: 8616 942d 8e50 282b bcce 802c b980 392b
00000110: 03c9 182c ed45 922c 4aeb c92c 039d 122c
00000120: 4c84 392c 1ee1 7e2c 601f 692c 6509 a92c
00000130: ac9f 012f 3ad4 522d f3ac b22b 82ea 452d
00000140: 7ddb 082c fdba cb2d 5652 bc2c 8851 102d
00000150: 236b 202d 8fcc 8c2c ecc5 062e 8162 9e2e
00000160: 696f 0f2c 55d4 672d 5b15 6b2c 2219 492d
00000170: 6b37 112d 7b30 c32b ca7b de2c d9f1 4d2d
00000180: 03c5 132b e013 5b2c df6e 4f2d 2ab6 782d
00000190: 4c8d 3b2e 183f d42c aacd 592d befe 622e
000001a0: 1ab6 d62d bcbb e62c 074e 6c2c d60b bf2d
000001b0: 87fd 8d2b d7fd b12b f125 ff2a 6ef0 2b2d
000001c0: a4da a42d 79a1 2f2d 085d a72d 8cc7 b32c
000001d0: 2fed aa2c 5117 3b2d 447f 652c fd6c 552c
000001e0: d97b 0b2b 61ec 0b2e 0cbd 492b 47bf 772d
000001f0: d727 b62d 50ba 352e 15b9 202d f335 9f2c
00000200: eacc f62d 8439 b22a 302f 702c c7bf e02d
00000210: 9374 da2d f2e2 912c 788b af2d 4fdc c52c
00000220: 0e96 302d d71c 392d 569d a22d cdbc 322c
00000230: 58a7 d32c f1ae a22d 2923 f12c e3ef d52d
00000240: 5f1d e32c d7fc b82d 963d da2d 79a1 b72b
00000250: 3759 2a2a 374a c72d a019 912c 4bc6 432d
00000260: 9dd1 592d 1a99 702b 6688 0b2e cf6f e12d
00000270: f680 7a2c 2c19 aa2b 42c5 342c 034d 4a2d
00000280: f388 432c 7fa0 832c af64 a12d 9dcc 022c
00000290: 21c5 9f2b 7172 d22e 60e3 b12c 6b4a 8f2c
000002a0: 0cb6 402d 7af7 ab2c e424 6f2d 993c 432d
000002b0: e0ef f32d 1c34 e82b 2064 c92b 3672 6c2e
000002c0: b1da 212c aaf5 a02b 928d 642b 2856 492c
000002d0: 5fd2 372d ead5 872b e0b0 462d 0395 882c
000002e0: e058 402d bec8 d12c 7f0f c62b ccf5 552c
000002f0: 1445 642d c22b 882d d811 f82e 77eb e52c
00000300: 6fcc 4d2e 48c7 4e2c ccf7 702d ca41 c12a
00000310: 777b b52b 1e98 112d 19c0 2b2d f069 cd2b
00000320: 39e5 122c e4ba 822c 24f0 b92b 5428 ef2c
00000330: 640b 2c2d 0810 9d2b 4abc 9a2b 7c4c 502d
00000340: 3569 012c 8f0d 542c dbfb c12c 75cc 622e
00000350: adef d92c c866 1b2d 98c4 262e 2f64 cd2b
00000360: be24 852c 6a81 1e2d d685 da2b 113f 9a2b
00000370: 821a ee2c ec2d 882d d878 152e 40cc b12b
00000380: 26e3 392b 2863 7d2c 1ea9 102e 389a 332d
00000390: 2398 4f2d 9e8f 7d2c ba2d 372d 6063 d42d
000003a0: e9cf 632d c754 892c 6eb0 8c2d 8284 1a2d
000003b0: 18d6 d42c 6c3d c02c 8056 152b 4b7a 2c2d
000003c0: 0b5b 932d 8169 af2c 48a7 b62b db5b 5e2e
000003d0: 5b00 992c c530 8c2b 70b6 b82d 658f 8c2c
000003e0: 84b7 6a2c e0e9 9f2d 336b 2a2d 496f 432d
000003f0: b0bb 142d 1f62 402d 13e0 7d2c e959 0c2d

exp_avg f4 [64]
-0.00022587698 -7.132852e-05 -0.00018223269 -0.00012701572 -9.678688e-05 -8.03229e-05 -6.9420705e-05 -0.00017836477
-8.048353e-05 -4.4638175e-05 -6.226943e-05 1.410712e-05 -7.389932e-05 -6.388463e-05 -0.000113787035 -4.4507346e-05
1.6668609e-07 -9.539166e-05 -4.168503e-05 -6.347125e-05 -0.00011864241 -0.000101980935 -6.802547e-05 -0.00028522886
-4.7893995e-05 -9.811203e-05 -6.87512e-05 -6.145956e-05 -5.161411e-05 -3.7106645e-05 -9.85404e-05 -0.00014684601
-0.00017237649 -8.600947e-05 -9.903087e-05 -8.718074e-05 -9.705758e-05 -0.0001394975 -0.0002016217 -0.00012489788
-7.72208e-05 -7.175019e-05 -4.547055e-05 -8.589331e-05 -4.2322874e-05 -0.0002579454 -9.38522e-05 -3.718002e-05
-0.00010885923 -0.0001821052 -0.0001604056 -0.00013315231 -4.7440484e-05 -4.2399904e-05 -5.6262106e-05 -2.9772713e-05
-2.4021494e-05 -0.00018704009 -0.00010368304 -0.00011195702 -0.00010966971 -0.00010254242 -0.00011657738 -5.7918038e-05
00000000: 64d9 6cb9 3596 95b8 b715 3fb9 862f 05b9
00000010: 0ffa cab8 0773 a8b8 f595 91b8 6e07 3bb9
00000020: 44c9 a8b8 e039 3bb8 a596 82b8 9ead 6c37
00000030: 65fa 9ab8 cdf9 85b8 f3a0 eeb8 66ad 3ab8
00000040: 53fa 3234 020d c8b8 f6d6 2eb8 de1b 85b8
00000050: a9cf f8b8 99de d5b8 e5a8 8eb8 c58a 95b9
00000060: c9e1 48b8 7fc1 cdb8 852e 90b8 dae3 80b8
00000070: 3b7c 58b8 f5a2 1bb8 79a7 ceb8 adfa 19b9
00000080: f6bf 34b9 fc5f b4b8 cbae cfb8 ced4 b6b8
00000090: 648b cbb8 1346 12b9 6a6a 53b9 05f7 02b9
000000a0: 9af1 a1b8 9778 96b8 a2b7 3eb8 9f21 b4b8
000000b0: d783 31b8 d83c 87b9 84d2 c4b8 bef1 1bb8
000000c0: 5b4b e4b8 7ef3 3eb9 8d32 28b9 cd9e 0bb9
000000d0: d5fa 46b8 8dd6 31b8 fafa 6bb8 6ac0 f9b7
000000e0: c481 c9b7 3120 44b9 6970 d9b8 78ca eab8
000000f0: 7afe e5b8 0b0c d7b8 017b f4b8 05ed 72b8

exp_avg_sq f4 [64]
1.0747023e-09 3.7124007e-10 7.5386625e-10 3.9480938e-10 8.7021484e-10 1.930569e-10 2.8051222e-10 7.562643e-10
1.5269638e-10 1.2952905e-10 3.403238e-10 1.273092e-10 6.979624e-10 2.0220774e-10 2.784753e-10 4.1158403e-11
3.8970164e-11 2.3067438e-10 1.9677865e-10 8.623586e-11 7.865395e-10 6.139738e-10 9.469982e-11 1.8365935e-09
9.076079e-11 5.016071e-10 9.538864e-11 9.85212e-11 5.3786097e-11 3.528767e-11 1.8960443e-10 4.84549e-10
6.634338e-10 5.6813015e-10 7.3785994e-10 4.143091e-10 7.550322e-10 9.414369e-10 8.657592e-10 3.9749642e-10
1.2797888e-10 1.5993688e-10 8.1799775e-11 4.359629e-10 3.4839038e-11 1.4356117e-09 2.625917e-10 8.508587e-11
2.96921e-10 8.677881e-10 5.858688e-10 8.017689e-10 4.4786605e-11 2.2597864e-10 1.4805093e-10 5.3081248e-11
1.1328296e-11 9.466146e-10 2.6524963e-10 3.0822403e-10 4.802032e-10 2.390397e-10 2.942378e-10 1.7526314e-10
00000000: bab4 9330 6517 cc2f 9f38 4f30 7b0c d92f
00000010: ed33 6f30 b044 542f 9636 9a2f 5ee1 4f30
00000020: 36e4 272f 306b 0e2f 5118 bb2f 5bfa 0b2f
00000030: bdda 3f30 6b54 5e2f ea17 992f 3e04 352e
00000040: 8164 2b2e 11a1 7d2f 445c 582f 79a2 bd2e
00000050: cc33 5830 91c4 2830 423f d02e 646b fc30
00000060: c895 c72e 76e1 0930 08c3 d12e 81a6 d82e
00000070: c38d 6c2e 6232 1b2e e778 502f 1b31 0530
00000080: 015d 3630 9b2a 1c30 47d2 4a30 d2c4 e32f
00000090: ab8a 4f30 de63 8130 63fa 6d30 a686 da2f
000000a0: dab6 0c2f 3bda 2f2f 2ee1 b32e 53ac ef2f
000000b0: 4539 192e 194f c530 7f5c 902f 161b bb2e
000000c0: ea3b a32f 2989 6e30 da0a 2130 7863 5c30
000000d0: 3cf9 442e 5577 782f a2c8 222f 2c74 692e
000000e0: 1c4a 472d 0a1a 8230 91d2 912f ad72 a92f
000000f0: 4cff 0330 d969 832f 4ac2 a12f 30b4 402f

exp_avg f4 [1, 64]
0.0009679232 -4.3424614e-05 0.0002929087 0.00037263337 -0.00058909407 -0.00040163976 -0.0003302649 0.00028380644
0.00074466545 -0.0006443762 -0.00053922273 -0.00035911414 -0.00021205744 -0.00078980316 0.00039903913 0.00051416777
-0.0001542626 0.0004890013 -0.0004720767 0.00047919847 -0.00058959814 -7.3446674e-05 0.00062611204 0.0009870308
-0.00032948246 -0.00066908763 0.0005434227 -0.000189808 0.00047039217 0.00025116073 0.000818263 0.00062848616
0.000634859 -0.00046826294 -0.00049458374 -0.00019334238 -0.00080432516 -0.00046565777 0.0009340341 0.0004651964
0.00084410177 -0.00040187966 -0.00028088482 -0.0005932906 0.00022007087 0.0007716083 -0.00050578394 -0.00032746792
0.00045941005 0.00059429504 0.0006709735 -0.0005157915 0.00013264561 -0.0004207116 -0.0002499883 -0.00048720939
0.000138688 0.00047292688 0.00050892594 0.00038103916 -0.0006509949 0.0004161237 9.7725024e-05 -0.0006640514
00000000: 3abc 7d3a d322 36b8 8a91 9939 015e c339
00000010: 6f6d 1aba 2d93 d2b9 6827 adb9 dbcb 9439
00000020: a735 433a 5beb 28ba a05a 0dba 7c47 bcb9
00000030: bc5b 5eb9 cb0a 4fba 2036 d139 37c9 063a
00000040: 8dc1 21b9 5230 003a 1081 f7b9 ee3c fb39
00000050: 438f 1aba 6207 9ab8 ab21 243a 425f 813a
00000060: 63be acb9 b665 2fba 7b74 0e3a 3207 47b9
00000070: f89e f639 39ae 8339 b380 563a fec0 243a
00000080: ab6c 263a 3081 f5b9 f4a6 01ba f3bb 4ab9
00000090: 59d9 52ba 8723 f4b9 f8d9 743a 9be5 f339
000000a0: b646 5d3a 60b3 d2b9 b943 93b9 0f87 1bba
000000b0: d3c2 6639 c245 4a3a 9696 04ba 00b0 abb9
000000c0: f9dc f039 77ca 1b3a 45e4 2f3a 2e36 07ba
000000d0: c916 0b39 f592 dcb9 dd10 83b9 2370 ffb9
000000e0: c76c 1139 2cf3 f739 7169 053a 36c6 c739
000000f0: 87a7 2aba 2d2b da39 b9f1 cc38 bc13 2eba

exp_avg_sq f4 [1, 64]
1.9627938e-08 3.251734e-09 4.178871e-09 7.277845e-09 9.935924e-09 3.4611294e-09 4.848664e-09 6.42682e-09
1.2019035e-08 2.1027143e-08 1.7391207e-08 5.14626e-09 5.0139826e-09 2.8100834e-08 7.7150855e-09 7.942118e-09
1.1721615e-09 8.103278e-09 8.929407e-09 7.8510665e-09 1.4786625e-08 4.5255595e-09 8.17233e-09 2.0409406e-08
2.2320228e-09 2.193975e-08 9.653991e-09 6.969343e-10 4.416674e-09 7.1603568e-09 1.3376731e-08 1.3214896e-08
1.263252e-08 1.4048346e-08 1.4112802e-08 6.557471e-09 2.430343e-08 1.3519054e-08 1.8470013e-08 7.3520043e-09
1.7581906e-08 5.5949014e-09 2.8656129e-09 1.2478041e-08 9.217216e-10 1.6929572e-08 1.4095038e-08 2.6296287e-09
7.169917e-09 1.060131e-08 9.380926e-09 8.2516545e-09 3.422589e-10 8.62768e-09 4.8140723e-09 1.2326681e-08
3.6779568e-10 8.88761e-09 8.071678e-09 7.1989463e-09 1.7722465e-08 7.1268085e-09 6.227182e-09 1.7751267e-08
00000000: 4b9a a832 1c75 5f31 bd95 8f31 9a10 fa31
00000010: a8b2 2a32 d5d8 6d31 4d99 a631 e8d2 dc31
00000020: 467c 4e32 2d9f b432 ab63 9532 fbd2 b031
00000030: 7547 ac31 6362 f132 4e8b 0432 ce71 0832
00000040: c419 a130 9836 0b32 f367 1932 5be1 0632
00000050: 4408 7e32 3e7f 9b31 4a66 0c32 c250 af32
00000060: 2962 1931 0576 bc32 b4da 2532 6492 3f30
00000070: 7ac1 9731 2a07 f631 7ccf 6532 ba07 6332
00000080: 6906 5932 4759 7132 c274 7232 2050 e131
00000090: cfc3 d032 6e41 6832 fda7 9e32 ea9c fc31
000000a0: 0507 9732 463d c031 65ec 4431 015f 5632
000000b0: 645c 7d30 866c 9132 a226 7232 ebb4 3431
000000c0: 425b f631 0e21 3632 c029 2132 29c3 0d32
000000d0: a828 bc2f f038 1432 0769 a531 51c5 5332
000000e0: a432 ca2f 1fb0 1832 9eab 0a32 9a5a f731
000000f0: 1d3c 9832 12e0 f431 dff6 d531 737b 9832

exp_avg f4 [64, 128]
3.327944e-05 1.6319262e-05 -2.6802545e-05 3.4405588e-05 3.0116329e-05 6.303693e-05 -0.000103545135 6.1010654e-05
2.7288327e-06 8.66854e-05 -5.8555754e-05 4.3717213e-05 -2.102908e-05 6.895601e-05 -2.2647506e-05 -4.921926e-05
-8.301424e-06 5.452518e-05 9.818693e-05 -6.50808e-06 -1.5944031e-05 -1.359872e-05 -2.5715495e-05 6.0311704e-05
4.010042e-06 -1.5247604e-05 -9.127952e-05 -0.00010572893 -5.3751533e-05 -3.1592746e-05 3.4004817e-05 -2.775395e-06
-0.00018987025 -6.607088e-05 0.00013190285 -7.98555e-06 4.667717e-05 0.00022828451 4.6132434e-05 -1.1479867e-06
3.7907382e-06 -5.4693146e-06 4.9826573e-05 -6.9198286e-05 -3.5845493e-05 2.3522714e-05 9.802247e-06 -2.6608552e-05
-3.759855e-05 5.762096e-06 2.2782104e-05 4.5177717e-06 6.3455664e-06 1.7724307e-05 6.552197e-05 -2.629406e-05
7.5058146e-05 2.9129487e-05 2.3894752e-05 1.3027752e-05 1.679486e-05 8.130459e-05 0.00012682176 2.9221606e-05
-6.1542014e-05 4.8942817e-05 5.5299784e-05 1.2854674e-06 5.1946827e-05 9.5139265e-05 4.7310496e-05 -1.3771131e-05
-1.06454145e-05 1.2445147e-05 8.193345e-05 -1.4128368e-05 -6.6057146e-05 -4.500394e-05 9.397827e-06 -7.5968355e-06
-4.1662042e-05 -0.00010024399 3.6714453e-05 0.00018952049 -0.00011063582 6.401072e-05 -0.00017854344 4.021326e-05
-6.1364885e-06 9.2052906e-05 8.941992e-06 2.9761299e-05 5.261076e-05 2.8971761e-05 7.210509e-05 -1.8048726e-05
1.7910437e-05 3.3624285e-05 5.654809e-05 -3.5771533e-05 -4.0028168e-05 1.3372291e-05 -5.2138374e-05 -7.75133e-05
9.6309785e-05 3.4583456e-05 1.03090915e-05 4.1970816e-05 -1.8834457e-05 1.0315952e-05 8.197857e-06 0.00012346165
5.2598803e-05 -5.2634972e-05 6.430069e-08 -4.8935508e-05 5.259952e-05 -2.3862742e-05 -0.0001009558 -1.3463807e-05
6.6074834e-05 2.5993127e-06 4.1669202e-05 5.5061478e-06 4.2363372e-05 5.9122038e-05 -5.677055e-05 -8.5417465e-05
-0.00022002903 -0.00018417924 -0.0026331309 -0.00082791667 -0.0026496782 -2.3748247e-05 -0.0007066571 -0.0017602297
0.0010416909 -0.0010415273 0.0033042687 -0.00024325086 0.007493949 -0.00043729495 -0.0011128244 0.004066321
-8.6918786e-05 -0.00033554703 -0.0010228481 0.00042752316 0.00012207063 0.0071230484 0.00060069683 -0.0008713858
0.0007802193 -0.00029607132 -0.0019757412 0.0008632373 0.0037693926 0.0004965117 -0.00010995244 -0.006191967
0.008050134 0.002657259 0.00057960313 0.00027307702 -0.00043930748 -0.006863264 -0.0016148398 4.583493e-05
0.00038602913 -0.00094007095 -0.0012182496 -0.0017229982 -0.000736054 8.9044515e-05 -0.00059391104 0.0027034928
-0.00026608544 0.0011211014 0.00043978338 0.0036548474 0.00040251642 -0.00032363166 0.0004220681 0.002554497
0.003915646 -0.0022657067 -0.00026393612 0.0015885677 0.0014601552 -0.0014616309 -0.0066503733 -0.000549636
0.0005737479 -0.002606919 0.0010589489 4.5297988e-05 -0.0041409396 -0.00045200504 0.004626764 0.0002735113
-0.00018188635 -5.956737e-05 -0.001043383 0.001342588 0.008445861 0.0024968612 0.00043141673 0.0008141994
-0.00030080538 0.0016969908 0.0003091876 -0.0050640353 0.002620522 -0.0037868507 0.006233837 0.0026234295
0.000747766 0.0024228774 -0.0028245558 -0.001408399 -0.0007790357 -0.0009379609 -0.0021711737 0.00026622333
7.7431105e-05 -0.0015964472 -0.0022559846 0.0013847792 0.0034967694 -0.00012756197 0.0006297246 0.0021278043
-0.002541584 -0.0012045854 0.0014582687 -0.0022620256 0.0007418137 0.00033633996 -0.0007984184 -0.0010408813
0.00097088434 6.107889e-05 0.0021701823 0.0008605444 0.002114913 0.0009396131 0.0035121208 -0.00020564081
-0.0012893821 -0.0038580932 0.0007616112 0.0030366352 -0.0051136524 -0.00044678303 -0.0013667463 0.00084195007
00000000: 8795 0b38 59e5 8837 07d6 e0b7 b84e 1038
00000010: 53a2 fc37 b232 8438 5f26 d9b8 b1e5 7f38
00000020: fd20 3736 dfca b538 c399 75b8 005d 3738
00000030: 9b67 b0b7 7a9c 9038 26fb bdb7 c770 4eb8
00000040: 5846 0bb7 f7b1 6438 b5e9 cd38 fb5f dab6
00000050: 8cbf 85b7 0f26 64b7 9bb7 d7b7 33f7 7c38
00000060: 008e 8636 f6cf 7fb7 526d bfb8 c9ba ddb8
00000070: 4573 61b8 7482 04b8 65a0 0e38 ec40 3ab6
00000080: e817 47b9 898f 8ab8 674f 0a39 adf9 05b7
00000090: 3bc7 4338 a85f 6f39 537e 4138 8614 9ab5
000000a0: 6364 7e36 0e85 b7b6 e0fc 5038 8c1e 91b8
000000b0: ce58 16b8 a552 c537 5574 2437 6e35 dfb7
000000c0: 23b3 1db8 0758 c136 321c bf37 5d97 9736
000000d0: 00ec d436 a9ae 9437 d768 8938 1092 dcb7
000000e0: 8968 9d38 195b f437 9771 c837 c591 5a37
000000f0: b0e2 8c37 1282 aa38 75fb 0439 ec20 f537
00000100: 1e10 81b8 f347 4d38 b1f1 6738 5388 ac35
00000110: 7be1 5938 8185 c738 426f 4638 8f0a 67b7
00000120: b599 32b7 80cb 5037 b0d3 ab38 e108 6db7
00000130: 2988 8ab8 9dc2 3cb8 5cab 1d37 52e8 feb6
00000140: 47be 2eb8 153a d2b8 d8fd 1938 05ba 4639
00000150: 2705 e8b8 7e3d 8638 6437 3bb9 a9aa 2838
00000160: 09e8 cdb6 870c c138 9005 1637 e7a7 f937
00000170: 60aa 5c38 6208 f337 2037 9738 5867 97b7
00000180: 5f3e 9637 cd07 0d38 0d2e 6d38 6409 16b8
00000190: ebe3 27b8 8d59 6037 27af 5ab8 a38e a2b8
000001a0: ecf9 c938 b40d 1138 36f5 2c37 d209 3038
000001b0: b0fe 9db7 ad12 2d37 8789 0937 7c75 0139
000001c0: 899d 5c38 5fc4 5cb8 ae15 8a33 1a40 4db8
000001d0: 4e9e 5c38 d92c c8b7 3bb8 d3b8 9ce2 61b7
000001e0: a891 8a38 da6f 2e36 f7c5 2e38 73c1 b836
000001f0: 53af 3138 cef9 7738 ea1c 6eb8 2722 b3b8
00000200: 98b7 66b9 3d20 41b9 9b90 2cbb 8c08 59ba
00000210: 39a6 2dbb f936 c7b7 f53e 39ba 82b7 e6ba
00000220: 5989 883a db83 88ba 6e8c 583b 2811 7fb9
00000230: cd8f f53b bc44 e5b9 31dc 91ba c63e 853b
00000240: 2b48 b6b8 5cec afb9 1611 86ba 3025 e039
00000250: 1600 0039 7668 e93b 1578 1d3a b66d 64ba
00000260: a287 4c3a 053a 9bb9 707b 01bb e04a 623a
00000270: ea07 773b 5628 023a 4496 e6b8 fce5 cabb
00000280: b6e4 033c 6925 2e3b 82f0 173a c72b 8f39
00000290: da52 e6b9 3be5 e0bb 08a9 d3ba e23e 4038
000002a0: f463 ca39 186f 76ba acad 9fba 3ad6 e1ba
000002b0: bff3 40ba 69bd ba38 b2b0 1bba 152d 313b
000002c0: 6281 8bb9 ecf1 923a ba92 e639 2a86 6f3b
000002d0: d708 d339 1bad a9b9 0549 dd39 5969 273b
000002e0: d24e 803b 407c 14bb e860 8ab9 7d37 d03a
000002f0: ae62 bf3a 3294 bfba 60eb d9bb 7315 10ba
00000300: 9267 163a d8d8 2abb 6ecc 8a3a 58fe 3d38
00000310: b8b0 87bb 17fb ecb9 1c9c 973b 1166 8f39
00000320: bfb8 3eb9 fad7 79b8 20c2 88ba c7f9 af3a
00000330: 8260 0a3c 61a2 233b c62f e239 ff6f 553a
00000340: 6ab5 9db9 906d de3a 751a a239 35f0 a5bb
00000350: 10bd 2b3b d02c 78bb 3745 cc3b d8ed 2b3b
00000360: ba05 443a 23c9 1e3b 2f1c 39bb 079a b8ba
00000370: 3338 4cba 7ee1 75ba 404a 0ebb e493 8b39
00000380: 8262 a238 e13f d1ba 24d9 13bb 7b81 b53a
00000390: 0e2a 653b 28c2 05b9 1a14 253a a272 0b3b
000003a0: b490 26bb 2ee3 9dba 6123 bf3a 7e3e 14bb
000003b0: 4676 423a c956 b039 f44c 51ba 2e6e 88ba
000003c0: f282 7e3a 7b17 8038 9e39 0e3b 2896 613a
000003d0: 5a9a 0a3b 5e50 763a 9c2b 663b 49a1 57b9
000003e0: 7c00 a9ba 10d8 7cbb dda6 473a 4902 473b
000003f0: 6d90 a7bb 343e eab9 6524 b3ba 50b6 5c3a
