checkpoints/checkpoint_epoch_90.pt (torch, 214347 bytes, 18 tensors)

fc1.weight f4 [64, 128]
00000000: 8f6e 86bd 9bd0 fe3d 2f34 3a3e e311 333d
00000010: cc31 42be f113 dcbd a643 9abd 61b8 15bc
00000020: 84c9 5a3d 9d7d aa3c 748a a6bb d4c0 02bc
00000030: ad78 1fbd d157 c63d be21 843d 9440 d4bd
00000040: 0d26 ec3c 221c c73c f369 0c3e e044 d0bd
00000050: 46e4 3fbd 8af4 0dbe 40da a1bd 7f45 11be
00000060: 62b8 15be de73 e1ba 8467 073e 4c11 253e
00000070: 6174 10be 86bd f9bd 893b cbbc ae07 13be
00000080: a325 dbbd 89ad 763d a06f edbc b3d5 36bd
00000090: a0f1 593d e7ad acbd bf56 f13d 284a 4d3d
000000a0: 572d c6bd d9ca d6bc ce3b 183e 88b7 34bc
000000b0: bef4 77bc 6757 0e3d 8ebd f43d 36ca 003d
000000c0: 027a f43b b0b6 85bd e8b9 f8bd e14d a4bd
000000d0: 4ab1 833c 84bb f3bd 3874 5f3d 99bd c33c
000000e0: 3f2e 0abe c870 f5bc a089 c43d 3591 05be
000000f0: 7151 1c3d cf6e f03d 9a79 c63b 73a1 e43d
00000100: 03c1 773d 8c03 87bd 5643 543d d9bb 2bbc
00000110: 3f41 9e3b 5da9 5dbd a26d b5bd 770c ac3d
00000120: 999b e3bd fae6 533d 6772 dd3d 10fc 85bd
00000130: 7b8a 01be 4612 2bbe f9d7 2d3d c2a6 f4bd
00000140: 2ade 87bd 7b1c a3bd 4695 44bd 9177 63bd
00000150: 0e59 ac3c 943e eb3c 06be febd 98ee 2b3e
00000160: 013f 9bbc a064 f23d 7176 5f3d 0b13 b53d
00000170: b324 db3d c51f a0bc 02f3 a2bd d522 a23d
00000180: 530a fdbc b307 063e fccf 6a3d e824 b2bd
00000190: 9942 0fbe 3afe dbbd 2a57 183e c9ba 01be
000001a0: 910a 2f3e e302 98bd f1bf 1bbe 0881 413d
000001b0: 0d43 9e3d d220 5d3c ea34 8ebd e42e c53d
000001c0: 78bd f8bd ddfe adbd 1ec8 d5bd e0c0 b7bc
000001d0: 7220 913d 41d5 483d e657 0a3b 5ce4 f93b
000001e0: ef83 663d b7b8 b13d 736e 77bd 4a69 31be
000001f0: fc10 053e a59b 6c3c 6876 8bbc 88ec 563d
00000200: 1f30 9d3b a720 c83d 3d1d 8cbd 08b1 1c3d
00000210: 9ab2 053d 6621 c53d 5a65 ab3d 232f 76bc
00000220: 0b44 423d c422 0a3e e1fa 17be cff6 c1bc
00000230: 981f 07be d381 8f3c b73a eabc a5f1 64bd
00000240: 785c 273a 6eb3 e33d 7825 833d 02ed 993d
00000250: a55f aabd c9ff 8d3d eaae 033e 660c 91bc
00000260: caef ef3d 3c74 e83b ca33 adbc 76e5 8ebd
00000270: e14d e5bb fb37 1bbd 2893 17bd 55ab 8b3d
00000280: 2344 413d f9ab d03d 7ebb b33c fba8 183d
00000290: 76d7 113e e077 efbb b055 d23b c3d1 243d
000002a0: bb43 263e 8126 b33c 4b0b f23d f4b8 1b3d
000002b0: 46e5 343e 0814 ba3d eb94 e33c 8dc1 0abe
000002c0: 442f 94bb ae02 273e caee 453d 76d0 17bd
000002d0: 07ca af3c 2404 9d3d 848b cbbd c895 bd3c
000002e0: bd08 783d ca94 f3bd ff00 7ebd a107 48bc
000002f0: 6c05 283d 4672 b73a cac1 1cbb 3e04 21be
00000300: 524e e4bb 02fe feba 64e6 933c 420a 953d
00000310: f005 0ebe 2f55 2bbd 5ff4 d43d de5e b63d
00000320: 6d72 da3c 40bc 063e ba07 af3d 0409 803d
00000330: f4bc 013e 9c09 c63c b147 cc3d 5a1b 093e
00000340: fe2a 85bd f86b f23b 28b8 ab3d db53 d23d
00000350: 1726 d5bc 60ad 583d c142 323d 5a0d c8bd
00000360: d6ec e2bd e10b b93d 4ad7 383d 2b4f 023d
00000370: 0edf 3bbd 7a53 3dbe 96ce 4c3d 7c8d e63c
00000380: 7d0e e0ba 3d5d 2b3d 7815 e93c d15d 213b
00000390: 4a68 f5bd ccf3 e43d 356c 04bd bafd 0b3d
000003a0: 9902 2f3d b97c fd3c d2b9 053e 4fad d9bd
000003b0: 5b2e 61bd 96aa db3d 18f0 84bd 522a 5a3d
000003c0: 0ddb 3c3d 974d 38be 35d3 dc3c c32b 9abd
000003d0: 65a7 afbd e519 263d c506 8fbd 9239 0fbe
000003e0: f3c1 b93b 3797 f8bd f3d2 dd3d 73bd ff3d
000003f0: 5949 413d 7562 903d 3b4d e0bd ed64 dd3d
-0.06564056 0.12442132 0.18183969 0.04371823 -0.18964309 -0.10745991 -0.07532434 -0.009138198
0.053414837 0.02081185 -0.005082423 -0.007980544 -0.038933445 0.096847184 0.06451748 -0.1036388
0.028826738 0.024305407 0.13712291 -0.10169387 -0.046848558 -0.13862815 -0.07902956 -0.14186667
-0.14621118 -0.0017200669 0.13223082 0.1611988 -0.14106895 -0.12194352 -0.024808662 -0.14358398
-0.10700538 0.06022409 -0.028983891 -0.044637393 0.053208947 -0.08431607 0.11784124 0.05011955
-0.09676617 -0.026219772 0.14866564 -0.011030085 -0.015134035 0.034751322 0.11950217 0.031442843
0.0074608335 -0.065289855 -0.12144834 -0.08022667 0.016075749 -0.11901 0.054554194 0.023894118
-0.13494204 -0.029961005 0.095965624 -0.13043673 0.038163606 0.11739885 0.0060569765 0.111636065
0.060486805 -0.065924734 0.05182203 -0.010481798 0.0048295553 -0.054116596 -0.088588014 0.08400815
-0.11113662 0.05173395 0.10812836 -0.06542218 -0.12650482 -0.1670619 0.042442296 -0.11945869
-0.06634171 -0.079644166 -0.04799392 -0.05553395 0.021038558 0.028716363 -0.12438588 0.16790235
-0.018950941 0.11835599 0.054556314 0.08841523 0.10700359 -0.019546399 -0.07956506 0.079168
-0.030888712 0.13088875 0.057327256 -0.086984456 -0.13990249 -0.10741849 0.14877 -0.12668909
0.17093875 -0.074224256 -0.15209939 0.047242194 0.07727633 0.0134965945 -0.06943686 0.09628084
-0.12145513 -0.08495877 -0.1043856 -0.022430837 0.070862666 0.0490315 0.002110952 0.0076260995
0.056278165 0.0867781 -0.060408067 -0.17325321 0.1299476 0.014441405 -0.017024234 0.052471668
0.0047969962 0.09771853 -0.06841514 0.038254768 0.03264103 0.09625511 0.08368941 -0.015025887
0.047428172 0.13489825 -0.14841796 -0.023677258 -0.13195646 0.01751796 -0.02859245 -0.055894513
0.00063843234 0.11118208 0.06403631 0.07515909 -0.08319024 0.06933553 0.12859693 -0.017706107
0.11715658 0.0070939343 -0.021142859 -0.0697736 -0.0069978093 -0.037895184 -0.037005574 0.06819788
0.04718412 0.10189051 0.02193999 0.037270527 0.14242348 -0.0073079914 0.006418906 0.040239107
0.16236775 0.021868946 0.1181856 0.038018182 0.17665586 0.09085852 0.02778097 -0.13550396
-0.004522236 0.16309616 0.04832343 -0.03706404 0.021458639 0.076668054 -0.0993872 0.02314271
0.06055521 -0.11893614 -0.06201267 -0.01220885 0.041020796 0.0013995848 -0.0023919218 -0.15724275
-0.0069673443 -0.0019454362 0.018054195 0.07277347 -0.13869452 -0.041829284 0.103981726 0.08904813
0.02666589 0.13157749 0.085463956 0.062517196 0.12669736 0.024174504 0.099746116 0.1338934
-0.06502341 0.007398125 0.083847344 0.102699004 -0.02601914 0.05289972 0.043520693 -0.097681716
-0.11080329 0.09035469 0.04512719 0.03181378 -0.04586702 -0.18488875 0.050001703 0.028143637
-0.0017094162 0.041836966 0.02845262 0.002462257 -0.11982782 0.11179313 -0.032329757 0.03417752
0.042727087 0.030943261 0.13059166 -0.10628759 -0.05497585 0.10725896 -0.06491107 0.053263016
0.04610734 -0.17998348 0.02695618 -0.07527878 -0.0857685 0.04055204 -0.06983713 -0.13986805
0.0056688725 -0.12138217 0.10831251 0.124873064 0.04718909 0.07050029 -0.109522305 0.10810266

fc1.bias f4 [64]
00000000: a9e2 db3d b288 693d 87ef ad3d 0d69 dd3c
00000010: 762e e23d ad00 9d3c 2bd6 013d ba6a 1a3d
00000020: 5059 563d a55b f33d 2ff0 b93d eae3 ad3d
00000030: 1bd0 8a3c 5003 033e fad0 943d ba36 0e3e
00000040: fcb2 c43c 0be5 0f3e 2636 de3d f361 813d
00000050: cc77 9e3d 5a50 8bbb acc8 b93c 361c 173e
00000060: ce0c f33c 74ce 203e a531 0c3e cfe5 293d
00000070: d15c 913d 20bc 263d c818 fe3d 54e7 ee3d
00000080: 5fe8 ec3d 6f0e f13d bff4 ff3d 0388 13b9
00000090: 86f5 c73d 124d cb3d cb71 073e ddbf fa3d
000000a0: 360d 303e 1a36 2a3d 0efd 6b3c e7ef cc3c
000000b0: 2136 513d 9726 213e 176a f33d 3b32 d0ba
000000c0: 91ad 083e dc9e d33d 37b0 b03c 6f1d c43c
000000d0: 272a f13c 2902 0a3e 58b6 be3d a1ce 583d
000000e0: 43c6 053d 3f63 6a3d 882b e93d be4a 0f3e
000000f0: 9b6b e23d 3d7c 0b3e f888 ba3c bbc0 d33d
0.10736591 0.05701513 0.08492952 0.027027631 0.11044018 0.019165361 0.031698387 0.03769944
0.05233127 0.11882714 0.090790145 0.08490737 0.016944936 0.12794232 0.072664216 0.13888064
0.024011128 0.14052217 0.10850172 0.063175105 0.07737693 -0.004251522 0.022678696 0.14756855
0.029669192 0.15703756 0.13690813 0.04147893 0.070977814 0.040706754 0.124070704 0.11665216
0.11567759 0.11770331 0.124978535 -0.00014069681 0.09763627 0.09926809 0.13227002 0.12243626
0.1719254 0.0415555 0.014403595 0.025016738 0.051077012 0.15737377 0.118854694 -0.001588411
0.1334746 0.103330344 0.0215684 0.023939816 0.029439045 0.13477387 0.09312123 0.05293143
0.03265978 0.057223555 0.11385256 0.13993356 0.1105568 0.13621612 0.02277039 0.10339495

fc2.weight f4 [1, 64]
00000000: 7233 39be f03f 303e 8efa 13be 603e 11be
00000010: 7f61 3d3e d330 643e 447c 463e 804c 16be
00000020: bfec 03be 7013 d83d 3191 f13d 5891 0f3e
00000030: 757c 413e bc73 d23d acae eebd c280 9abd
00000040: 299c 303e fd42 e4bd 200d 063e 8b97 b0bd
00000050: 3b09 2c3e 2046 1e3e 1bed e1bd 1bad 55be
00000060: 72a9 563e 694b 033e f60c b0bd eb87 263e
00000070: 1014 c4bd c20d 64bd 218e ddbd 4efe 11be
00000080: 6d4b 24be f71a 113e 0ece 203e cd27 093e
00000090: 5039 403e f7a7 233e 3eec 3dbe 176e 0ebe
000000a0: 407d cdbd 2d4d 003e e35f e23d 893d 0e3e
000000b0: 850a 0cbe 0e44 4fbe 06e0 e73d 30e0 083e
000000c0: d3dc 03be 20a1 3cbe f17f 30be 7196 1d3e
000000d0: d3f4 d2bd 35c2 dc3d 675e db3d 3ef3 a13d
000000e0: a64c e6bd 3738 27be c579 fbbd df31 f9bd
000000f0: e657 113e c9d4 d6bd 8581 f3bd 81a3 c63d
-0.18086031 0.1721189 -0.14451048 -0.1418395 0.18494223 0.2228425 0.19383341 -0.1467762
-0.1288328 0.105505824 0.11795271 0.14020288 0.18895133 0.10275981 -0.1165441 -0.0754409
0.1724707 -0.111455895 0.13090944 -0.086226545 0.16800396 0.15456438 -0.110315524 -0.20866816
0.20963076 0.12821735 -0.08596222 0.16262786 -0.09574139 -0.055677183 -0.108181246 -0.14257166
-0.16044398 0.14170443 0.15703604 0.13394089 0.18771863 0.15982042 -0.1854715 -0.13909183
-0.10033655 0.1252944 0.11053445 0.13890661 -0.13675888 -0.20240805 0.11322026 0.1336677
-0.12877207 -0.1842084 -0.17236306 0.1538942 -0.10300603 0.107792296 0.10711365 0.07907723
-0.11245088 -0.16330038 -0.12279085 -0.12167715 0.14193687 -0.10489804 -0.11889938 0.09699155

fc1.weight f4 [64, 128]
00000000: 0700 63bd 2122 fd3c 1c62 a7bd 74e2 343d
00000010: bf8f 46bb 5b40 6d3d d9fa 3fbd 90db f4bc
00000020: 1a88 98bd 8a26 e03c a90f bc3d 5337 933c
00000030: e8f4 9e3c dfe4 3a3d eb45 e6bc 7ac1 d23d
00000040: 5eb8 66bc 81e0 443d 0b50 e3bc 1d0a 353b
00000050: 6245 5d3d 583d d8ba efc6 193c fae2 573d
00000060: 85df 003c 4760 35bd fd46 1cbd dced 7c3d
00000070: e50d da3c 6707 87bd e8ef c73d 4a86 aebc
00000080: 8b7c 6a3d cffb 92bc cec0 553c 1b38 593d
00000090: 47a0 aa3b 815c 193d 386c 93bd 1f40 933d
000000a0: ca60 663d d122 7cbd 7e7d 39bd feda 82bd
000000b0: b5ea 05bc fb4b 5a39 c3f8 1c3b 9ca1 9f3b
000000c0: 54a4 983d 1a23 1e3d 592a 273d 0199 c93d
000000d0: 59d1 35bd c81b 74bc 1880 48bc d6d8 ab3d
000000e0: ad56 8a3d c23a 9abc bc8a b83b 9a19 90bb
000000f0: a740 2bbd 60e1 f43c 5e59 91bd 73ca 233d
00000100: af03 5ebc 4164 d7bc 5a59 5c3d edd6 47bc
00000110: 3fbf 54bd 3203 ecbd 1e05 aabc 0b74 6bbd
00000120: ace4 80ba 438a c9bd 89b7 57bd 316b a03b
00000130: aa04 85bc fd26 423d 8be5 a8bc 1079 e83b
00000140: 3c1a fb3c 44aa bd3d 9027 febc f604 1bbd
00000150: dea3 a63c 824c 09bd b83c 9c3c c993 d23c
00000160: c0e8 98bb b461 503d c262 39bd 31d7 fd3c
00000170: 0b29 ffbc 558c db3c e7d8 04bb 183b 97bd
00000180: 6d7a bcbd 4a79 2d3d 15df 00bb 559e a63d
00000190: d852 783c 7033 c73c 760f aa3d 642c 753d
000001a0: e249 503d 646f 80bd ac00 713d cc8a 013d
000001b0: 2335 2cbd 1669 87bd acfe 9bbd b0f3 c53b
000001c0: 18d6 4dbc 3840 9f3d 55b0 32bd 37d6 13bd
000001d0: b912 6e3d f182 4f3c 843c c2bc 66b4 2bbd
000001e0: 1476 bd3c 6d91 a3bd 4b1f b6bc 02d8 cf3d
000001f0: 82e9 1fbd 701b adbd 7111 3e3d c4f2 7bbd
00000200: 59d0 1bbd e91e c4bd 91ad 893d 5600 1b3e
00000210: 2373 5cbc a094 ab3d 27e9 aebc 83ac 223e
00000220: 3619 c4bd e27c b83d 314f fdbd 27c8 513d
00000230: 9705 74bd 9bce d53d 71f6 413d 5cdc 2abe
00000240: 1c68 313d 1d11 033e 2321 063e 661d 36bd
00000250: d767 1a3c f693 2bba 7217 943c 9b29 d83d
00000260: 8092 b0bd fd21 9bbc 58fd a33d 1ac3 98ba
00000270: 2256 d7bd 726d eabd f371 143c 4a7a 9b3c
00000280: c4c8 92bd b88c 19be 0669 0fbd 2e59 563c
00000290: 56e8 e23d b9bd 213d f6a3 4a3d a4d0 9cbd
000002a0: a83d 04be c42f 74bb 6c42 113e 0e94 333d
000002b0: 2893 36bd fee2 633d ddf5 103d c852 7c3c
000002c0: 190b 873c 0399 f6bd a0d3 19bd 0c73 bebc
000002d0: 9b85 03be fa0d 1b3d 73e9 c13c 0d39 9fbd
000002e0: 65be 38bd ea7f 053e 110c a83d 8422 e83b
000002f0: 7c00 a9bd 7ffe bf3c a616 5a3c 90d0 283d
00000300: 2ee1 22be acbf 7b3b 2153 a9bd c3a8 933c
00000310: 2ec5 e23a a39d 093e 86da c6bd 2c99 ba3b
00000320: 3155 0a3d 26d5 033b 53c0 c63c ac85 db3c
00000330: 8c0d 0cbe 1438 31be 3292 0abe 0af3 f5bc
00000340: a43e c03d 0e74 0dbe ebf7 d0bd 0e0f 053e
00000350: 3eff b3bc d004 193e 6b1a 0cbd 8475 dfbd
00000360: 1011 ea3c 935a f9bd b675 113e 7711 263e
00000370: 1e48 c13d 6ba7 d03d 39d5 bb3d 69f9 133d
00000380: 45e2 6c3d 6dc3 023e abc4 e83c ee22 1ebd
00000390: 6136 9abd cd3c 85bd 9b89 febc 59cb 80bd
000003a0: bcc9 c63d a4ac fa3d 272c 1fbd fbe3 393c
000003b0: 44c8 383c ccbd 1cbc bb83 0f3d a21d 883d
000003c0: 710b e9bd 91ee af3b bb1c 0ebe 8c88 c5bd
000003d0: ac8b 40bd d0d8 42bd d02f 5fbd 50bb 2a3d
000003e0: bf72 a73d 6ab1 bf3d 3e3f 0cbd 47c7 eebd
000003f0: 9da5 9bbb 6595 afbc c1b4 d73b 5d1e c3bd
-0.055419948 0.030900063 -0.0817301 0.044161275 -0.0030298082 0.057922702 -0.046870086 -0.029889852
-0.07447834 0.027362127 0.091826744 0.017970717 0.01940389 0.045628425 -0.028109511 0.10290809
-0.0140820425 0.048065666 -0.027748128 0.0027624436 0.054021247 -0.0016497774 0.009385808 0.052706696
0.007865791 -0.04428127 -0.038153637 0.061750278 0.026617954 -0.06593209 0.09762555 -0.021304268
0.05724768 -0.017942337 0.0130464565 0.053032022 0.005207095 0.037441734 -0.071983755 0.071899645
0.05624465 -0.06155664 -0.045285694 -0.06389426 -0.008173634 0.00020818405 0.0023951984 0.0048715603
0.07453218 0.038607694 0.04081187 0.09843636 -0.044389103 -0.014899202 -0.012237571 0.083909675
0.06754813 -0.018826846 0.005631773 -0.004397583 -0.041809704 0.029892623 -0.070971236 0.039987992
-0.013550683 -0.026292922 0.05379615 -0.012197238 -0.0519402 -0.11524047 -0.020754393 -0.057483714
-0.0009833775 -0.098408245 -0.052665267 0.0048955907 -0.016237576 0.047400463 -0.020617267 0.00709451
0.030652158 0.09260991 -0.031024724 -0.037846528 0.02034181 -0.03352023 0.019071922 0.025705235
-0.004666418 0.050874427 -0.0452602 0.0309864 -0.0311475 0.026800314 -0.0020270885 -0.07384318
-0.09203038 0.042352 -0.0019664217 0.08135668 0.01515647 0.02431652 0.0830373 0.059856787
0.05085171 -0.06271246 0.05883853 0.031626508 -0.042042863 -0.066118404 -0.07616934 0.0060410127
-0.012563251 0.07775921 -0.043625195 -0.036092963 0.058123324 0.012665496 -0.023710497 -0.04192009
0.023127593 -0.07986722 -0.022231719 0.10148622 -0.03904105 -0.08452499 0.046403352 -0.061510816
-0.038040493 -0.09576208 0.06722558 0.15136847 -0.013455185 0.08377957 -0.02135141 0.1588612
-0.09575121 0.090081945 -0.1236862 0.05121627 -0.059575643 0.104397975 0.047354165 -0.16685623
0.043312177 0.12799497 0.13098578 -0.04446163 0.009424171 -0.000654518 0.018077586 0.105548106
-0.08621693 -0.018937105 0.08007306 -0.0011654824 -0.105144754 -0.11446656 0.009060371 0.01897921
-0.07167199 -0.14995086 -0.035012268 0.0130827855 0.11079471 0.039487574 0.04947277 -0.076569825
-0.12914145 -0.0037259916 0.14185494 0.043842368 -0.044573933 0.0556364 0.035390723 0.015400596
0.016484784 -0.120409034 -0.037555337 -0.023248218 -0.12843935 0.037855126 0.023670888 -0.077745534
-0.04510345 0.13037077 0.082054265 0.0070841927 -0.082520455 0.023436783 0.013311064 0.041214526
-0.15906212 0.0038413806 -0.08267809 0.018024808 0.0017301196 0.1343904 -0.09709649 0.005694529
0.03377265 0.002011606 0.02426163 0.026797138 -0.13677043 -0.17306548 -0.13532332 -0.030023117
0.09386948 -0.13813803 -0.102035366 0.12994024 -0.021972295 0.14943242 -0.03420488 -0.10911086
0.02857259 -0.12175479 0.1420506 0.162176 0.094375834 0.101881824 0.09171528 0.036126528
0.057832975 0.12769862 0.028414091 -0.03860753 -0.07529903 -0.065057375 -0.031071475 -0.062887855
0.097064465 0.1223996 -0.038860466 0.011345859 0.011278216 -0.0095667355 0.035037737 0.06646277
-0.113791354 0.0053690155 -0.13878147 -0.09645185 -0.0470082 -0.04757005 -0.054488957 0.04168254
0.08176183 0.09360011 -0.03424 -0.11659103 -0.0047499673 -0.021433542 0.006582827 -0.09527276

fc1.bias f4 [64]
00000000: d3cf 303d 380c e73d bff4 973b d9d6 92bc
00000010: 0415 e73c bde6 783d 8374 f83c 8681 0dbc
00000020: 17dc f23d ba0d 223d b7d4 3f3d 9b8f 1c3e
00000030: 2e86 1b3d a9c8 8fbd 5f7b 1e3e 0f27 92bc
00000040: 1ee9 33bd 6397 ed3d b0d8 6b3c ced4 45bd
00000050: 941f 82bd 23d7 f3bc 87ca a7bd c12a bf3c
00000060: 9cf9 85bc e7c8 b03c d050 2a3d 402c 323d
00000070: 22d3 353b 29a2 193d 8057 6b3d 19a1 5bbb
00000080: 5f6d b3bd c0c4 86ba de66 d63d 0c14 bf3c
00000090: e247 bb3c 102a 823d 96ad f23d 009e 52bd
000000a0: 56b2 0a3e a3f5 93bb 5345 c43d 3ceb 4cbc
000000b0: c03e 1ebd 7faf e03d 2d85 02bb c5ff 7a3c
000000c0: acfc 703c 347e afbc fe77 0a3e 3a06 ff3d
000000d0: d7c4 f03c 72be bebd d6c2 2bbb 1ed2 6d3b
000000e0: dea7 123e 72f1 863d 1618 f03a 86cb e73d
000000f0: f92f 2abd f69f 043e 3a24 153b 497a 7a3c
0.043166947 0.112816274 0.0046373303 -0.017924713 0.028208263 0.060766924 0.030328995 -0.008636838
0.11858385 0.039563872 0.04683372 0.15289156 0.03796976 -0.07020695 0.1547675 -0.01784089
-0.04392349 0.1160114 0.014394924 -0.04829865 -0.06353679 -0.029765671 -0.08192926 0.023335816
-0.016354375 0.021580173 0.041580975 0.04349923 0.0027744253 0.037508164 0.057456493 -0.003351277
-0.08761095 -0.0010282025 0.10468839 0.023324989 0.022861425 0.06355679 0.11849515 -0.05142021
0.13544592 -0.004515366 0.09583535 -0.012507256 -0.03863406 0.10970973 -0.0019915805 0.015319769
0.014708679 -0.021422483 0.13522336 0.124523595 0.029390736 -0.09313668 -0.002620866 0.003628857
0.14321849 0.06589021 0.0018317725 0.11318116 -0.041549657 0.12951645 0.0022757188 0.015287944

fc2.weight f4 [1, 64]
00000000: 4de4 10bc 2548 ce3d dff2 d5bb ce6e 1ebd
00000010: 386e 473e 9464 bc3d 75b7 1f3e d43b d0bd
00000020: 8485 023e d9a0 e1bc 90db f4bc 91b3 173e
00000030: e949 f73d 87f0 3bbc fae2 a63d 0495 c8bd
00000040: b1a6 56bd fc5f ea3d 616f 1b3e fd3b 35bd
00000050: 606e 0cbc 01ba a8bd 981e 5fbd d1c4 003e
00000060: c2a1 2d3e f2fd 073e d3f9 a4bd 907a 2bbd
00000070: 6f5b 0d3e 391f 3b3e 2023 5d3e 4608 0b3e
00000080: 8e3c fdba 26eb 093e 3bd7 433e 7d0d f93d
00000090: a1db f03d 8d6b 3f3e d6df ba3d 5328 81bd
000000a0: 9cc8 cd3d ad2e 293e 1aaa 1b3e 17a7 6f3d
000000b0: d987 efbc e06b 323e 031a 513e 881f f23d
000000c0: 7987 f63d b508 81bd 2864 283e dc9f 123e
000000d0: 7a26 38bd c70c 22bd 4a84 443e 35af adbd
000000e0: 9f7a a03d 7de2 f53d 5e5e e93d a3d9 113e
000000f0: 9656 f6bc 2baf 0a3e 73ce 903c 89b8 943d
-0.008843494 0.10072354 -0.0065291966 -0.03867989 0.19475639 0.09198871 0.15597327 -0.10167661
0.12746245 -0.027542518 -0.029889852 0.14814593 0.12074644 -0.01147092 0.08148761 -0.097940475
-0.052405063 0.11444089 0.15179206 -0.044246662 -0.008571237 -0.082386024 -0.054472536 0.1257508
0.16956237 0.13280466 -0.08055463 -0.04186493 0.1380441 0.18273629 0.2159543 0.13577375
-0.0019320415 0.13468608 0.19125073 0.12160776 0.11760641 0.18693371 0.091247246 -0.06306519
0.10048029 0.16521712 0.15201607 0.05850896 -0.029239582 0.17423964 0.20420079 0.1182242
0.12037558 -0.06300489 0.16444457 0.14318794 -0.04495857 -0.039562967 0.1919109 -0.08480684
0.07835888 0.1200609 0.11394952 0.14243178 -0.030070584 0.13543384 0.017676568 0.0726176

exp_avg f4 [64, 128]
00000000: 0fd8 1c38 dfe0 bcb7 bf73 30b8 9b60 03b8
00000010: 9e03 6b37 97cc 1037 520d 8bb7 aa32 4937
00000020: 7e86 9537 0daa 73b3 afdf 2938 cd08 49b7
00000030: ab52 ad38 5041 d2b7 9d28 2cb8 fd39 cb37
00000040: b8e5 fdb6 40d7 0b37 b3e1 2b37 f7b9 5437
00000050: 8d5b 9b36 b4aa 6c38 33ce fd37 7ded edb6
00000060: c849 1038 67f1 ca37 087d af36 606d b2b7
00000070: a666 8638 ca30 1435 5e2f 2537 36c0 c0b6
00000080: 7803 a7b7 86eb 4037 30c3 0d38 107e 6136
00000090: 159c 8fb7 3c19 9cb7 007d 17b8 54ff 31b6
000000a0: 9439 3e37 08ac 1636 590d 05b8 33e9 80b5
000000b0: 957a dd36 81ac 70b5 6372 9637 3f3f 7db6
000000c0: 32c4 53b6 7fe3 25b6 1408 3337 4abb 1838
000000d0: da1e 93b7 dc1b 5737 314c dcb7 4f0b cab7
000000e0: 676a 4938 3a57 22b7 f4c5 dcb6 6a6c 0f38
000000f0: ddd9 0a37 fa78 31b6 08e3 31b8 a44d 88b7
00000100: a9fe 0db8 8485 12b7 ba25 c837 7312 01b7
00000110: b57f a4b8 430f b837 9c33 1c38 10dc 9a35
00000120: be94 eeb7 0f76 db35 76c0 2637 8143 c0b7
00000130: 592e b338 38c4 d137 ba06 b6b6 f684 c637
00000140: 6ca2 c137 50a2 b837 e8e8 78b6 02ae 8736
00000150: cca3 1a38 3bc1 87b8 e7d5 75b8 e05d 39b5
00000160: 7814 5734 4579 9436 27b4 1e37 931e 8bb6
00000170: 111e 3536 95c4 1ab8 8397 c3b6 a899 2737
00000180: ed43 0436 037d 1a36 f04e 1d38 d40b 0538
00000190: 3b8e 9a37 2af5 6737 c4d2 e7b7 697a 39b7
000001a0: 8395 0c37 3347 87b7 e0fd 3b38 ba76 91b8
000001b0: 7322 12b8 1725 7037 3e4e 6bb7 d73b 9bb6
000001c0: d2c9 deb7 0f71 49b6 94b1 5038 2357 1f38
000001d0: 6165 8836 9923 66b7 e536 90b7 87b0 98b7
000001e0: 43b9 9336 67d1 59b8 005b db36 587f d237
000001f0: c590 a4b7 4797 c0b5 f716 1637 9527 a3b6
00000200: 3ea7 5335 7cf9 6c36 27fd 7837 f704 7f37
00000210: 428f dab6 5a75 b0b6 0afb aab7 b106 8bb6
00000220: 1a32 2537 1969 b8b5 a1d9 3e36 90e7 4c36
00000230: a41f 8437 e5f3 1b37 8d3c 9335 c286 c736
00000240: c95d 23b7 ca85 8736 358c bd36 826f 39b6
00000250: 0275 5c36 9387 3bb7 d837 f2b5 3803 9bb6
00000260: 64a3 23b7 f16f b1b6 ef2d 6ab5 2ff6 5a36
00000270: 27cf 6636 ad5a 8137 44f3 95b6 c773 3436
00000280: 352c 3537 62cb f8b5 e868 a5b7 3de0 d734
00000290: c91c deb6 6a7b 6fb7 5e77 0db6 5ddc 73b7
000002a0: 0fa9 4eb7 f905 5b33 3a12 a536 a8db 59b7
000002b0: c33e beb7 01a5 9036 659d e0b6 15ea 9937
000002c0: a775 af37 0df4 13b7 02a1 8035 9bc1 cd36
000002d0: 430a 66b7 e1a8 fe35 5ee3 5d37 8926 ce36
000002e0: 5e8f 8db7 6b94 9c36 e1fb bfb6 fea9 80b3
000002f0: 58eb 68b6 2e8d be36 58c1 3bb7 6f3e b736
00000300: 0701 9a36 1f6b 4135 4f69 8ab6 a1e0 af35
00000310: ae70 1737 0c13 f036 a358 0eb7 8b46 06b5
00000320: 7077 2337 c3bb 4db7 7160 d2b6 b23e 9035
00000330: 85f5 c8b5 1f5f 89b6 5e05 00b7 b271 9bb7
00000340: 9565 a536 cf15 48b6 f1ac 0e37 fed1 d2b6
00000350: dd7d 6b36 e2d5 2fb7 2ae5 8a36 46b9 23b7
00000360: ea0a 3837 1c7a 66b7 8ead 3337 3c9b 7bb6
00000370: 9060 a736 bb6d 3637 396d c3b7 4760 e8b6
00000380: 57e6 f3b5 024a cd35 e6cf c9b7 41d4 2437
00000390: 8a62 1f37 12cf 2136 6541 f236 4409 0036
000003a0: dfa1 7bb6 3516 38b7 01a3 12b7 4761 8037
000003b0: 47f3 4d35 05e6 8736 95dc 1736 2621 1f37
000003c0: d46e 0436 fe7b ba37 5a60 16b6 8378 9ab7
000003d0: e14e 64b6 e4ef 4cb6 4671 5036 5fee 7836
000003e0: aa89 a9b5 3867 8bb6 112a 80b6 a471 e6b6
000003f0: 8ff6 4637 948c a436 827b b636 ddf1 81b7
3.739452e-05 -2.251606e-05 -4.2069467e-05 -3.1322805e-05 1.4007934e-05 8.630704e-06 -1.6576294e-05 1.199233e-05
1.7824812e-05 -5.6732507e-08 4.050106e-05 -1.1982583e-05 8.264681e-05 -2.5064364e-05 -4.104582e-05 2.4226489e-05
-7.5667303e-06 8.335162e-06 1.0244944e-05 1.2679483e-05 4.630018e-06 5.6425764e-05 3.025597e-05 -7.0907977e-06
3.440099e-05 2.4192688e-05 5.229962e-06 -2.1270185e-05 6.408738e-05 5.5205294e-07 9.845795e-06 -5.744422e-06
-1.9909567e-05 1.1498929e-05 3.3798802e-05 3.360099e-06 -1.711961e-05 -1.86084e-05 -3.611762e-05 -2.6523676e-06
1.13382885e-05 2.2451877e-06 -3.1722102e-05 -9.604613e-07 6.6005837e-06 -8.9657993e-07 1.7934659e-05 -3.7736752e-06
-3.155565e-06 -2.4719336e-06 1.0671112e-05 3.641405e-05 -1.7538132e-05 1.2821485e-05 -2.6261523e-05 -2.4085542e-05
4.802123e-05 -9.6762615e-06 -6.5795557e-06 3.4194825e-05 8.276166e-06 -2.6445473e-06 -4.2411528e-05 -1.6248618e-05
-3.385419e-05 -8.733365e-06 2.3859426e-05 -7.693295e-06 -7.843917e-05 2.1941616e-05 3.7241363e-05 1.1537941e-06
-2.8441074e-05 1.6351131e-06 9.939182e-06 -2.2919618e-05 8.544018e-05 2.5006113e-05 -5.4248057e-06 2.3665354e-05
2.3083026e-05 2.2010092e-05 -3.709045e-06 4.0435707e-06 3.686901e-05 -6.4732936e-05 -5.8611764e-05 -6.9054477e-07
2.0030882e-07 4.4248613e-06 9.459479e-06 -4.146082e-06 2.6988603e-06 -3.6899542e-05 -5.829091e-06 9.989752e-06
1.970907e-06 2.3020555e-06 3.7505233e-05 3.1720687e-05 1.8424462e-05 1.3825755e-05 -2.7635491e-05 -1.105536e-05
8.379461e-06 -1.6126409e-05 4.4820714e-05 -6.936253e-05 -3.4841196e-05 1.431375e-05 -1.4025309e-05 -4.6263262e-06
-2.6558442e-05 -3.0017143e-06 4.9756447e-05 3.7989706e-05 4.064918e-06 -1.37173565e-05 -1.71917e-05 -1.8202014e-05
4.4025087e-06 -5.1931853e-05 6.5373024e-06 2.509325e-05 -1.9617737e-05 -1.4349142e-06 8.946044e-06 -4.8623865e-06
7.8846995e-07 3.531196e-06 1.48408935e-05 1.520034e-05 -6.5135837e-06 -5.2588703e-06 -2.0382478e-05 -4.143302e-06
9.846432e-06 -1.3739656e-06 2.8438883e-06 3.0533156e-06 1.575036e-05 9.295506e-06 1.0969976e-06 5.94635e-06
-9.737393e-06 4.0388886e-06 5.648961e-06 -2.7632054e-06 3.2850662e-06 -1.1177634e-05 -1.8046658e-06 -4.6197347e-06
-9.753599e-06 -5.2880428e-06 -8.7238635e-07 3.262783e-06 3.439325e-06 1.5420223e-05 -4.468866e-06 2.6889481e-06
1.07987335e-05 -1.8536632e-06 -1.9718384e-05 4.0210026e-07 -6.6194666e-06 -1.4274245e-05 -2.1080118e-06 -1.4535236e-05
-1.2317919e-05 5.0995343e-08 4.919505e-06 -1.2985351e-05 -2.267899e-05 4.3107434e-06 -6.6940433e-06 1.8348024e-05
2.0916412e-05 -8.818705e-06 9.583603e-07 6.1320147e-06 -1.37114575e-05 1.8973625e-06 1.32255645e-05 6.1437645e-06
-1.687527e-05 4.6664404e-06 -5.721566e-06 -5.991386e-08 -3.4707682e-06 5.6788767e-06 -1.1191085e-05 5.461093e-06
4.5896772e-06 7.2053984e-07 -4.12498e-06 1.3103892e-06 9.026537e-06 7.1547747e-06 -8.484497e-06 -5.0021544e-07
9.743366e-06 -1.2262669e-05 -6.269715e-06 1.0747083e-06 -1.4972617e-06 -4.0939917e-06 -7.630644e-06 -1.8530383e-05
4.929209e-06 -2.9815017e-06 8.504126e-06 -6.282934e-06 3.509099e-06 -1.0480611e-05 4.1393987e-06 -9.758694e-06
1.0969796e-05 -1.3737499e-05 1.070964e-05 -3.7492273e-06 4.988229e-06 1.0873594e-05 -2.3296672e-05 -6.925347e-06
-1.8171949e-06 1.5295229e-06 -2.4057877e-05 9.824581e-06 9.500081e-06 2.41114e-06 7.219775e-06 1.907888e-06
-3.7496136e-06 -1.0972425e-05 -8.74023e-06 1.5304087e-05 7.6722466e-07 4.0500913e-06 2.262915e-06 9.4848565e-06
1.9734043e-06 2.2230666e-05 -2.2407826e-06 -1.8414348e-05 -3.402056e-06 -3.0538004e-06 3.106035e-06 3.709363e-06
-1.2631547e-06 -4.154539e-06 -3.8195944e-06 -6.8677637e-06 1.1859126e-05 4.9039463e-06 5.438401e-06 -1.5490625e-05

exp_avg_sq f4 [64, 128]
00000000: 9137 172f 9f37 1e2e 9b6e 192f 62c3 a02e
00000010: 5598 592e c78d 7c2d 0af3 e12e 285f 3a2d
00000020: 33ba 1b2e 0917 522d 54d1 8d2e 50d8 c62d
00000030: 7054 832f 00f7 982e c1b7 bf2e 604e 2f2e
00000040: 063c f32d f93f 0c2e b514 b52e 3ebd af2d
00000050: 47c8 322d cd9d df2f f574 962e 2eed 912d
00000060: a0d5 832e 9134 fc2d b436 922e da72 7a2e
00000070: f861 132f 90de 3d2e e3ea 342e 012a bd2e
00000080: 5e39 012f e8c0 522d 8315 c52e 420d bc2c
00000090: d9b2 b42d 5770 b22e 8243 fc2e e125 232e
000000a0: 673c b62e 41ee 9f2d 7c72 782e 7985 0c2e
000000b0: 5c05 d22d 50a3 fd2b 612d 082e 577f 862e
000000c0: 4089 072e 023e 9c2d 8714 a32d a2c3 652e
000000d0: ac61 952e 8c44 032e 4fd1 122e 3752 432e
000000e0: 1f1f 662f 2d44 592d bc08 8f2d e010 972e
000000f0: 7450 b52d bea9 a32d f5a5 aa2e 7c80 1e2e
00000100: b232 942e 825b dd2c b427 0a2e d96d 0a2d
00000110: 06b5 342f 03ca 132e 4761 9c2e 4035 342d
00000120: 46cf 8a2e 03ff ad2d ae00 aa2d 7c36 0b2e
00000130: 5df2 0930 2a00 272e d5ab 9e2d ee17 6d2e
00000140: c43f eb2d f9f5 952e 3f42 e22d b4f1 a52e
00000150: e28d 932e a92b 0b2f 0334 932f 7605 112f
00000160: 8296 952d 0e83 992e 87d9 252e 7b74 9f2d
00000170: 2b85 872d 7c28 0e2e 4a4e 812e aa4a 282e
00000180: 556c 2f2c c18a 862d ebfd c02e 404b 7e2e
00000190: b45e f82e a43e 562e e116 d72e 9f15 e02e
000001a0: 394c 8b2e 0b8b 4c2e 9304 7c2e 6aa6 652f
000001b0: 4dc9 512e 9592 6d2d 44b8 122d 1f94 232e
000001c0: 251d 5f2e 2572 882e 3ace 032f 8e88 882e
000001d0: ea51 992d 96e8 332e 4cfa e42d 113f b62d
000001e0: 9ee6 e32c 1aa5 302f bc22 5d2d ca98 2b2e
000001f0: 012d 662e f9f2 bc2e bcf0 ce2d e52b 112e
00000200: 72c9 8a2e c3a8 b62c 4808 672e 7d0c c22e
00000210: abdd 212e b5e0 912d 98ea bb2e a1f8 b32d
00000220: 24c5 fc2d c1fc ca2d de52 1c2e 8d0c 442d
00000230: 7a9c 7d2e 1f58 412e 983e c22d 7c33 512e
00000240: 8518 102e c63c 3b2e 7975 c52e 48ae 6e2c
00000250: b4db 0a2d fc3e 402e 0cf9 042d f108 112e
00000260: eaaa d72d 9112 402d 2be7 fc2e 3f9d 7a2e
00000270: ac40 9f2d 4a80 482e ea03 732d ede6 422e
00000280: aec2 172e c96f 442d ae9e b72e 0247 932d
00000290: bdb5 852d acdf 502f ae33 b72d e357 372e
000002a0: 8115 502e a6c5 9c2d 407d 112e 94db 222e
000002b0: fc12 982e 3ffc c62c aa76 c62d 93f6 012f
000002c0: c669 612e ab6f 712d 6896 9f2c bc6e 502e
000002d0: c1e9 492e adf7 5c2d 9a39 062e 7cc6 1c2d
000002e0: 5992 7d2e e385 662d 8f08 052d 02f6 de2c
000002f0: 4b05 012e d11d 482e c64f 5d2f dc2d c82d
00000300: 023c 112f bb5e cd2c 13f1 e52d 6e14 9c2c
00000310: 1d8d 3d2d 4cf0 e32d 80cc 2a2e 0799 3b2d
00000320: 4a9e 6b2e de57 dd2d 973e 9a2d d719 6d2d
00000330: 2702 152e f100 552d 7520 792d 1e93 742e
00000340: 62ce 3a2d 9908 6a2d 7f52 b72d 17fb ef2e
00000350: ef5a 012e 32b6 212e b20d b32e 2f3d 8b2d
00000360: cae1 022e 8345 412e 847e e52d 9ae0 612c
00000370: cbf7 492d fe10 ce2d 2f30 e42e 3dc0 482d
00000380: 4de5 472c 6860 dc2c 8586 ba2e 4f85 b62d
00000390: 9917 3e2e 9788 532d c49c 382e 51b1 a62e
000003a0: 72e6 172e 67d6 162e 5a35 0a2e 27fb c62d
000003b0: d032 ae2d 9c88 5f2d c98f 172c bc74 862e
000003c0: 3b0a ca2d a41d d52e b0d2 1a2c 4239 ba2e
000003d0: cc3f d62d 1d8a 962c 1c47 3d2e 791c da2c
000003e0: bc30 a82d e14a e42d 599f ea2d 1483 ad2d
000003f0: dbc8 ad2d a833 ad2e e6b8 cc2d 14c6 782e
1.3753111e-10 3.5974442e-11 1.3954564e-10 7.3106646e-11 4.9475386e-11 1.43560224e-11 1.0274988e-10 1.0594005e-11
3.5408298e-11 1.1942233e-11 6.449122e-11 2.2606056e-11 2.3888758e-10 6.956036e-11 8.7183157e-11 3.9860004e-11
2.7652557e-11 3.1889134e-11 8.2346054e-11 1.9979237e-11 1.0162599e-11 4.0675588e-10 6.841986e-11 1.658992e-11
5.995138e-11 2.8672427e-11 6.6490285e-11 5.6945428e-11 1.3404378e-10 4.31713e-11 4.1135883e-11 8.602186e-11
1.1752863e-10 1.1979952e-11 8.962344e-11 5.3447533e-12 2.0543055e-11 8.1144584e-11 1.1471625e-10 3.7095552e-11
8.2871314e-11 1.8182013e-11 5.6490354e-11 3.1950862e-11 2.3876616e-11 1.802206e-12 3.0963124e-11 6.1162346e-11
3.081735e-11 1.7762684e-11 1.854007e-11 5.224233e-11 6.7930855e-11 2.9846833e-11 3.338246e-11 4.4410888e-11
2.0929435e-10 1.235016e-11 1.6261097e-11 6.8696826e-11 2.0613046e-11 1.8606335e-11 7.760185e-11 3.6039158e-11
6.739266e-11 6.291357e-12 3.141283e-11 7.868783e-12 1.6435217e-10 3.3603353e-11 7.1113386e-11 1.0243639e-11
6.3123326e-11 1.9781071e-11 1.9327064e-11 3.1653333e-11 5.018473e-10 3.797155e-11 1.8038829e-11 5.3908815e-11
2.6744724e-11 6.819429e-11 2.5722645e-11 7.5462664e-11 6.7099895e-11 1.2657488e-10 2.67761e-10 1.3189613e-10
1.7006178e-11 6.9809145e-11 3.770986e-11 1.8127935e-11 1.5406862e-11 3.232302e-11 5.880148e-11 3.8265092e-11
2.4929132e-12 1.5295655e-11 8.776254e-11 5.781975e-11 1.1294557e-10 4.8713603e-11 9.781132e-11 1.0190181e-10
6.334528e-11 4.6507725e-11 5.730223e-11 2.0886551e-10 4.769989e-11 1.3504438e-11 8.340054e-12 3.7193467e-11
5.0730215e-11 6.20484e-11 1.1987647e-10 6.208821e-11 1.7430463e-11 4.0906466e-11 2.6031753e-11 2.0719012e-11
6.4773317e-12 1.6065763e-10 1.2570108e-11 3.9016602e-11 5.2335917e-11 8.592411e-11 2.3526396e-11 3.300817e-11
6.311297e-11 5.1914874e-12 5.2530674e-11 8.824317e-11 3.6804042e-11 1.6584381e-11 8.545448e-11 2.0460357e-11
2.8736631e-11 2.3076987e-11 3.5543894e-11 1.1144097e-11 5.766452e-11 4.3961387e-11 2.2083044e-11 4.7566825e-11
3.2763587e-11 4.2572855e-11 8.97939e-11 3.391858e-12 7.893176e-12 4.3711687e-11 7.558631e-12 3.2977125e-11
2.4518571e-11 1.0918059e-11 1.1500697e-10 5.698308e-11 1.8104927e-11 4.558868e-11 1.381382e-11 4.4315596e-11
3.4506335e-11 1.1166131e-11 8.350064e-11 1.6743499e-11 1.5201057e-11 1.8996954e-10 2.0827642e-11 4.168744e-11
4.7312824e-11 1.782292e-11 3.3080427e-11 3.702956e-11 6.915532e-11 5.6555034e-12 2.2562691e-11 1.1820082e-10
5.1253023e-11 1.3724059e-11 4.5357502e-12 4.7392076e-11 4.5909724e-11 1.2560547e-11 3.0519233e-11 8.911646e-12
5.7655523e-11 1.3103715e-11 7.562075e-12 6.336932e-12 2.9335905e-11 4.5501217e-11 2.0128174e-10 2.2757733e-11
1.3208992e-10 5.8369676e-12 2.6141344e-11 4.436055e-12 1.077474e-11 2.5913625e-11 3.8835157e-11 1.0663698e-11
5.3573403e-11 2.5163812e-11 1.7535568e-11 1.3477628e-11 3.388059e-11 1.2107857e-11 1.4161218e-11 5.5609843e-11
1.0618702e-11 1.3303269e-11 2.0841327e-11 1.0913064e-10 2.941197e-11 3.6768984e-11 8.1424104e-11 1.5829641e-11
2.975912e-11 4.3944858e-11 2.609047e-11 3.2099102e-12 1.1480548e-11 2.3427035e-11 1.0376799e-10 1.1411369e-11
2.8406888e-12 6.2634793e-12 8.482196e-11 2.0750205e-11 4.3221957e-11 1.202429e-11 4.1975992e-11 7.580304e-11
3.45381e-11 3.429648e-11 3.1424953e-11 2.2621528e-11 1.9804075e-11 1.2706416e-11 2.1538207e-12 6.114351e-11
2.2969284e-11 9.691384e-11 2.2001671e-12 8.468472e-11 2.4357315e-11 4.27859e-12 4.3036782e-11 6.1990938e-12
1.9121031e-11 2.5953852e-11 2.6673485e-11 1.9726033e-11 1.975702e-11 7.876305e-11 2.3274226e-11 5.65646e-11

exp_avg f4 [64]
00000000: 43ae 73b9 ae4e 0936 1676 52b9 ada5 0eb9
00000010: 849a 41b8 f307 04b8 d264 88b8 578d 0eb9
00000020: 5599 e4b8 ae74 d1b7 7694 b1b7 44b9 1eb8
00000030: c07c adb8 2cdb 15b8 980f 20b9 ac56 bab8
00000040: b7e4 f7b7 619d 17b9 8863 3ab8 d9b1 d8b8
00000050: e06e 24b8 bdb7 aeb8 a55f 54b8 dd0b 83b9
00000060: 4224 e5b7 d56e 35b8 cb0b bab8 88e2 a1b6
00000070: ebb4 fab8 98b9 70b8 c3d1 08b9 138e 25b9
00000080: c720 2ab9 74c5 75b8 a83e 3ab8 323e 4bb7
00000090: e2ad 7cb8 c8f8 a2b8 f5fa 7bb9 53ea 4bb9
000000a0: 8ddf dcb8 d4bf 0eb8 edce adb7 5731 c1b7
000000b0: 28f5 0bb9 5556 78b9 d4de 4bb8 1429 f8b7
000000c0: f0b8 1bb9 335f 63b9 2687 65b9 3159 43b8
000000d0: 39e4 2db8 152f 14b8 7c50 f9b7 39e0 9bb7
000000e0: adf4 bfb8 cb2b 75b9 4bca edb8 ca73 0bb9
000000f0: e6d9 02b8 e553 fbb8 ba90 c4b8 c427 bfb7
-0.00023239203 2.0460388e-06 -0.00020071151 -0.00013603894 -4.615869e-05 -3.1478656e-05 -6.5037646e-05 -0.00013594828
-0.000109004475 -2.4969075e-05 -2.1169177e-05 -3.7842678e-05 -8.272519e-05 -3.5728488e-05 -0.00015264598 -8.885315e-05
-2.9551198e-05 -0.0001445911 -4.443855e-05 -0.00010332809 -3.9203907e-05 -8.3311905e-05 -5.0633815e-05 -0.00024995106
-2.7315811e-05 -4.3256983e-05 -8.871368e-05 -4.8245456e-06 -0.000119546276 -5.7393307e-05 -0.00013048113 -0.00015788553
-0.00016224674 -5.8596444e-05 -4.440421e-05 -1.2114224e-05 -6.0243423e-05 -7.771101e-05 -0.00024030714 -0.00019446881
-0.00010532057 -3.4034092e-05 -2.0719564e-05 -2.3030369e-05 -0.00013347401 -0.00023683284 -4.8606496e-05 -2.9583032e-05
-0.00014850846 -0.00021683871 -0.00021889489 -4.657469e-05 -4.1458963e-05 -3.53298e-05 -2.9720592e-05 -1.8581852e-05
-9.153164e-05 -0.00023381335 -0.00011338721 -0.00013299208 -3.119735e-05 -0.00011984239 -9.372966e-05 -2.2787492e-05

exp_avg_sq f4 [64]
00000000: 22e4 6331 8c34 8230 cc41 4a31 aba0 d130
00000010: b76c 3331 73e9 1d30 8ff5 eb30 ddc3 ed30
00000020: 4080 3a30 4cca 1630 6005 8630 3610 9330
00000030: a9e6 ed30 f277 2a30 f2e8 be30 80c5 d72f
00000040: 583e 8e2f d20e 9d30 b802 9630 a207 1730
00000050: f6f4 0f31 8cf8 df30 8f55 0e30 1d04 c331
00000060: 2f9e dd2f f4be a330 d305 e72f 5d66 882f
00000070: 81d4 3330 4b3a 4f2f b6d5 8030 4bf9 0131
00000080: 6e7e 3a31 b2df d130 97a5 0731 3b6f 9230
00000090: 5495 1f31 248e 1131 f9dc 7c31 e23d 1431
000000a0: 335d 3b30 d944 2330 2cbe c32f c3cd 9a30
000000b0: 2b75 1730 4659 ac31 d780 3b30 21a2 e82f
000000c0: ed28 e130 c560 7731 4bf8 5631 e678 d930
000000d0: a7e2 9a2f da0f 5530 a318 3830 305d a52f
000000e0: 4aef a02f 5222 5831 319c 9930 e864 c230
000000f0: 94b6 be30 d1ef 8230 fbc6 8e30 43ee 2a30
3.3162526e-09 9.47368e-10 2.943227e-09 1.5252416e-09 2.6109725e-09 5.744802e-10 1.7168292e-09 1.7299687e-09
6.784866e-10 5.4857163e-10 9.751311e-10 1.0700265e-09 1.7309577e-09 6.201609e-10 1.3890527e-09 3.9248604e-10
2.5873947e-10 1.1427466e-09 1.0914709e-09 5.4944327e-10 2.0948483e-09 1.6296027e-09 5.1780885e-10 5.6757146e-09
4.0312062e-10 1.1914083e-09 4.2022794e-10 2.481099e-10 6.5421807e-10 1.884725e-10 9.373966e-10 1.8913677e-09
2.713843e-09 1.527033e-09 1.9739212e-09 1.0654512e-09 2.3222428e-09 2.1181075e-09 3.6796435e-09 2.157201e-09
6.816265e-10 5.9396893e-10 3.560542e-10 1.1263456e-09 5.5099986e-10 5.016008e-09 6.8213296e-10 4.2315754e-10
1.6382536e-09 3.5998238e-09 3.1282237e-09 1.5823189e-09 2.8173483e-10 7.7511475e-10 6.697382e-10 3.007954e-10
2.9273856e-10 3.1451646e-09 1.1176607e-09 1.4144037e-09 1.3876211e-09 9.526905e-10 1.0388413e-09 6.218423e-10

exp_avg f4 [1, 64]
00000000: b1e5 2b3a 04c7 3db9 8a3d 1d3a 4ae8 ef39
00000010: a3bd 0bb9 8597 3938 c033 9eb9 17af ef39
00000020: 51b8 de38 1b2f 88b9 a1c0 14b9 d909 dab8
00000030: 90ab 00b9 7f18 60b9 247c 9e39 7883 123a
00000040: 9038 bab5 f4cc cb39 487e d7b8 1536 0c3a
00000050: e9df 0bb9 b8f0 0eb9 595c f438 bd1d 4b3a
00000060: e82d 0238 48b0 18b9 2561 2b3a fcb1 db37
00000070: c093 9639 48a7 4239 5301 773a eb7e e939
00000080: 6f3d bf39 c500 2cb9 908e 55b9 d9b0 ceb8
00000090: f392 78b9 d25a 4eb9 5660 233a 462b 9039
000000a0: b62b 473a ceec 28b9 a90a 4eb8 6378 24b9
000000b0: b771 6c3a 1b45 4d3a bf9a 09b9 3164 f5b8
000000c0: 470c 113a c19c b439 dec5 c539 850d 1bb9
000000d0: e638 9839 8472 ecb8 6ce5 24b9 4f62 a1b8
000000e0: d62d 0a3a b237 9e39 259a bc39 58f6 e939
000000f0: 0f5d 41b9 0343 d239 ef40 7839 0e9e 30b9
0.0006557359 -0.00018098584 0.0005998245 0.000457587 -0.00013326718 4.424855e-05 -0.00030174665 0.00045716084
0.000106201165 -0.00025975038 -0.0001418614 -0.00010396884 -0.00012270943 -0.0002137143 0.000302286 0.00055890484
-1.3874542e-06 0.0003887188 -0.000102755206 0.0005348635 -0.00013339486 -0.0001363185 0.00011652028 0.0007748267
3.103717e-05 -0.0001456152 0.0006537608 2.6189715e-05 0.00028720312 0.00018563599 0.00094224996 0.00044535784
0.0003647613 -0.00016403485 -0.00020366372 -9.855786e-05 -0.00023705866 -0.00019679524 0.0006232312 0.00027498062
0.0007597761 -0.00016109945 -4.9124155e-05 -0.00015685106 0.00090196304 0.0007830427 -0.00013122986 -0.000117011725
0.00055331405 0.00034449066 0.0003772219 -0.00014786988 0.00029034092 -0.00011274687 -0.00015725725 -7.69539e-05
0.00052711123 0.00030177605 0.00035973 0.00044624764 -0.00018440581 0.0004010425 0.00023675313 -0.00016843548

exp_avg_sq f4 [1, 64]
00000000: ea7e 3e33 73af 5a32 e5ed 9232 0115 9132
00000010: 5942 a632 1c4d 2632 4160 8632 d446 7f32
00000020: e0a3 a232 246b 3833 6e9c 1e33 bcbf 5f32
00000030: a3db 7332 d89c 5e33 730b 6532 b517 b732
00000040: 8e9d 9731 6c11 8b32 52f4 ad32 2e1a b632
00000050: 9b0c f532 588a 8232 1117 7832 7ff8 5a33
00000060: 4096 1232 2fa7 3633 033c ed32 8b10 6c31
00000070: 829c 2e32 c26d 3532 a049 5133 95c6 e532
00000080: ba11 c832 bcf2 0533 7576 fd32 91f5 9732
00000090: 78d5 3b33 5c16 f932 afd8 2833 5276 6332
000000a0: e077 4133 19f1 8732 b0b6 0432 7674 cc32
000000b0: 5e49 bc32 71cf 3c33 ea4a f532 0422 1f32
000000c0: 7d56 ab32 cc4b ab32 bdc0 a232 cd2c 9732
000000d0: 4b4a 9731 e0b3 a832 5693 7b32 bb65 da32
000000e0: 4632 1c32 20af 8632 4b3a 8c32 0153 8932
000000f0: 30dc 1133 13d0 7732 f512 2c32 dc88 0f33
4.435325e-08 1.2729163e-08 1.7104819e-08 1.6889773e-08 1.9355115e-08 9.680004e-09 1.5643424e-08 1.4859058e-08
1.8933804e-08 4.2938282e-08 3.6929514e-08 1.3023904e-08 1.4194401e-08 5.183105e-08 1.3332158e-08 2.1314785e-08
4.4125903e-09 1.6189652e-08 2.0250955e-08 2.1199494e-08 2.8527486e-08 1.5196903e-08 1.4440745e-08 5.0983086e-08
8.532481e-09 4.252723e-08 2.7617721e-08 3.4351924e-09 1.0163719e-08 1.0560543e-08 4.8728566e-08 2.6749413e-08
2.3291125e-08 3.118724e-08 2.9506944e-08 1.7690384e-08 4.373348e-08 2.8997583e-08 3.931262e-08 1.3240042e-08
4.504534e-08 1.5825707e-08 7.72495e-09 2.3801686e-08 2.1919444e-08 4.3960828e-08 2.855582e-08 9.262752e-09
1.994635e-08 1.9941488e-08 1.894693e-08 1.7599087e-08 4.4031245e-09 1.9639572e-08 1.4643623e-08 2.5424802e-08
9.091826e-09 1.567929e-08 1.6324654e-08 1.5986645e-08 3.3960703e-08 1.4424603e-08 1.0016028e-08 3.3419255e-08

exp_avg f4 [64, 128]
00000000: 1bc9 c3b7 c5d4 d3b6 898e 6d37 543b 38b7
00000010: 4838 fa35 66c9 c6b7 4cfd 4438 b30c 8bb7
00000020: 1c5a e2b5 9a5f ccb7 34cf d037 48ff b7b7
00000030: 036c 85b7 ab53 cdb7 b61f 1337 26fc af36
00000040: fdb5 6136 239c a0b7 57ca c8b7 1796 eb35
00000050: 6648 d436 9219 a6b7 420b b936 eb03 abb7
00000060: 075e 38b7 64a5 6237 f698 1638 f6dc 1d38
00000070: 25a0 cf36 fecf 0c37 ac34 97b7 8250 e537
00000080: cced 0e38 79b1 8b37 f6a5 64b8 86b4 5436
00000090: 26b6 6cb7 9f45 8fb8 55b7 0fb7 e3e0 dfb5
000000a0: fda2 c0b6 00ef 1437 7a66 97b7 dbbc 0c38
000000b0: 4d5c f237 111f 11b7 57bd 08b6 a51f 0b37
000000c0: f161 2737 7e1d b0b6 0b7b 5eb7 e5c4 fdb6
000000d0: 66d9 3fb6 150e 2eb7 08c0 18b8 8438 07b6
000000e0: a555 21b8 0b87 3136 c19e 63b6 39eb c5b6
000000f0: 6b14 6cb7 f1e1 c7b7 cd22 08b8 3295 acb6
00000100: 07be 9a37 334f 96b5 3553 ecb7 dfc4 4ab3
00000110: c068 2db7 342f 16b8 3a7a f7b7 2b3a b736
00000120: 9220 adb6 eec2 b6b6 8da1 04b8 815b 1c37
00000130: 0771 83b5 3a0c 4237 81cb 87b5 489d 8036
00000140: d7c5 aa37 338a 2438 5a42 7db7 f950 73b8
00000150: 52cf 0638 7f16 87b7 b4b9 7438 83ba b7b7
00000160: 4083 a8b5 7cb0 0bb8 6a2b 1eb6 0391 9fb6
00000170: 13ee 90b7 cbd2 63b7 d553 aab7 a374 ce36
00000180: d83c 00b7 72cb cbb6 226a d6b5 d768 9137
00000190: 82c5 f935 15b8 c6b5 c902 8037 886c 9337
000001a0: 6345 9cb7 3e95 61b7 b601 e8b5 4100 89b7
000001b0: 6eb1 58b6 64cd 88b6 1977 afb5 a67b 44b8
000001c0: 721e f3b7 bd45 9837 38d8 5536 9970 9937
000001d0: 4bd5 f9b7 825c c736 16be b237 6674 0537
000001e0: 814d 80b7 3ad4 a337 87fc b1b7 246e 6ab7
000001f0: 4ac5 bb36 191f 8eb7 d624 ab37 7053 0838
00000200: 2d5b 2f39 196c 0e39 eb1a de3a 3d0c 15b9
00000210: c0ef 4eba fc76 8339 1ac9 1cba 2d5f c4b9
00000220: 6e35 973a 8215 72b8 2c35 103a 01c0 efb8
00000230: 96f3 f639 269b b53a bfc7 95b9 c884 963a
00000240: fde0 0eba cb86 6d3a 0116 033b 075d 9639
00000250: c5bf 5538 1526 83ba f35d 07ba c3d0 8b3a
00000260: da94 643a 7e9b c3b9 d72d 89b9 819a dab9
00000270: 4666 b239 9c45 a2b8 bee8 8939 9800 beba
00000280: 93b8 333a a6ec 233a 0fa8 043a a73f 0b38
00000290: 0b18 4f3a b790 6fba b5d5 8338 9f47 83b6
000002a0: 3558 1339 cbb4 a039 281c c9b9 d07c f7ba
000002b0: a4ac 0cb9 7c62 9c39 605d c3b9 3db1 b639
000002c0: 0740 c9b9 ef16 9939 7d0b beb9 75b8 01b9
000002d0: 7f53 b2b9 058a 423a a960 cf39 9377 9eba
000002e0: 37b6 8638 55c3 02b8 76ed 7c37 0035 7b3a
000002f0: ee89 f03a 4910 c5b7 3f30 48ba fa84 bf3a
00000300: efb9 403a f2d1 33b9 d4f9 09ba d897 023a
00000310: 438c 0bb9 99d0 4e39 92f6 9b3a 6397 aa39
00000320: 4207 80b8 13d9 dd39 2efe 493a d1a6 2cba
00000330: f373 59ba 179b d339 d4a6 e039 b9fd 5d39
00000340: a200 98b6 ea20 f2b9 f095 62b8 4848 9639
00000350: 385c 29ba 916a 46b8 bfb7 b139 59e7 f238
00000360: f4fc 8c3a 284b 6038 5716 1f3a 7e4d 16b9
00000370: b9f3 beb7 0f08 0bba 4a3f 093a 4cd9 82b9
00000380: 276b 6f39 2a7e e239 3101 e2ba a65a 0fba
00000390: 7211 26ba 0ee6 53b9 d436 ebb9 8317 eeb9
000003a0: 4801 a33a 2c31 c3b9 98d8 36ba 6548 d4b9
000003b0: d257 6339 5590 8839 296f dbb9 90bb 353a
000003c0: 0126 79b9 3e88 2eba 1d79 9239 0377 7139
000003d0: 4454 8c38 9062 e939 8eed 9d3a 04a3 9236
000003e0: d7c5 ec39 610d ceb7 36c2 2e3a 4588 af3a
000003f0: 2256 58b7 6f67 d638 acef 82b8 ce7a 7e39
-2.3339458e-05 -6.3130597e-06 1.4159487e-05 -1.0981068e-05 1.8642831e-06 -2.3697223e-05 4.6965943e-05 -1.6576005e-05
-1.6864537e-06 -2.4363213e-05 2.4892019e-05 -2.1934175e-05 -1.5905132e-05 -2.4476865e-05 8.769266e-06 5.2447604e-06
3.3633544e-06 -1.9146193e-05 -2.393608e-05 1.7552546e-06 6.3265206e-06 -1.980065e-05 5.51474e-06 -2.0386613e-05
-1.0989147e-05 1.3509158e-05 3.5905243e-05 3.7637503e-05 6.187724e-06 8.393077e-06 -1.802513e-05 2.7336417e-05
3.4076904e-05 1.6652733e-05 -5.4514e-05 3.169554e-06 -1.4109106e-05 -6.831739e-05 -8.5661495e-06 -1.6680245e-06
-5.7410202e-06 8.877134e-06 -1.8048322e-05 3.3554486e-05 2.8891629e-05 -8.649907e-06 -2.037579e-06 8.292413e-06
9.976779e-06 -5.248642e-06 -1.3260879e-05 -7.562909e-06 -2.858776e-06 -1.0374487e-05 -3.6418467e-05 -2.0149464e-06
-3.8465154e-05 2.645366e-06 -3.3918043e-06 -5.898441e-06 -1.407145e-05 -2.382786e-05 -3.2457338e-05 -5.143368e-06
1.8446719e-05 -1.1198921e-06 -2.8172139e-05 -4.7210843e-08 -1.0335993e-05 -3.580675e-05 -2.950161e-05 5.4605966e-06
-5.1595935e-06 -5.4467155e-06 -3.162171e-05 9.3196295e-06 -9.793156e-07 1.1566148e-05 -1.0117511e-06 3.833007e-06
2.0357706e-05 3.9229355e-05 -1.5095424e-05 -5.8011126e-05 3.214117e-05 -1.610373e-05 5.8347083e-05 -2.1902151e-05
-1.2555174e-06 -3.3304546e-05 -2.3569105e-06 -4.755451e-06 -1.7277e-05 -1.3579333e-05 -2.0304617e-05 6.1528567e-06
-7.643561e-06 -6.0735556e-06 -1.5975131e-06 1.7334167e-05 1.8609428e-06 -1.4805725e-06 1.5260086e-05 1.7574304e-05
-1.862896e-05 -1.3445793e-05 -1.7285845e-06 -1.633179e-05 -3.2289786e-06 -4.0770265e-06 -1.3073178e-06 -4.6845198e-05
-2.8982035e-05 1.8152286e-05 3.186533e-06 1.8291454e-05 -2.9782435e-05 5.9414315e-06 2.130777e-05 7.954519e-06
-1.529488e-05 1.952994e-05 -2.1217636e-05 -1.3973131e-05 5.5960018e-06 -1.69422e-05 2.0401942e-05 3.2502634e-05
0.00016723266 0.00013582445 0.0016945278 -0.00014214306 -0.0007894002 0.00025074917 -0.0005980894 -0.00037454945
0.0011536309 -5.7717327e-05 0.0005501087 -0.000114321716 0.00047102262 0.0013855442 -0.00028568317 0.0011483664
-0.0005450396 0.0009060918 0.002000213 0.0002867954 5.0961757e-05 -0.0010005856 -0.0005163841 0.0010667074
0.00087196904 -0.0003730915 -0.0002616483 -0.00041695315 0.00034027005 -7.737728e-05 0.00026304083 -0.0014496027
0.0006855812 0.000625322 0.0005060443 3.3199463e-05 0.0007900006 -0.00091386907 6.286373e-05 -3.912442e-06
0.00014051872 0.0003065228 -0.00038358686 -0.0018881802 -0.00013415754 0.00029828015 -0.00037262868 0.00034845798
-0.00038385412 0.0002919952 -0.00036248183 -0.00012371114 -0.00034013015 0.0007421079 0.00039554134 -0.0012090079
6.423558e-05 -3.1176332e-05 1.5075659e-05 0.0009582788 0.0018351653 -2.3491813e-05 -0.0007636584 0.0014611774
0.0007351925 -0.00017148981 -0.00052633625 0.0004981733 -0.00013308325 0.000197234 0.0011899045 0.0003253772
-6.1048675e-05 0.00042314138 0.0007705417 -0.0006586137 -0.0008295171 0.00040360607 0.00042848906 0.00021170721
-4.5300267e-06 -0.0004618236 -5.402224e-05 0.00028664083 -0.000646058 -4.7306126e-05 0.00033896972 0.00011582551
0.0010756538 5.3475756e-05 0.00060686975 -0.00014333983 -2.2763257e-05 -0.000530363 0.0005235566 -0.0002495743
0.00022832734 0.0004320008 -0.0017242787 -0.0005468525 -0.0006334997 -0.0002020823 -0.00044863543 -0.00045412415
0.0012436295 -0.00037229934 -0.0006975024 -0.0004048973 0.00021681123 0.00026047477 -0.00041853756 0.0006932551
-0.00023760648 -0.0006657875 0.00027937526 0.00023027886 6.691416e-05 0.00044514658 0.0012048946 4.3701166e-06
0.0004516083 -2.4563344e-05 0.0006666513 0.0013392052 -1.2894658e-05 0.00010223581 -6.2435254e-05 0.00024269076
