checkpoints/checkpoint_epoch_40.pt (torch, 212107 bytes, 18 tensors)

fc1.weight f4 [64, 128]
0.0016829557 0.05523927 0.111747704 0.00048561575 -0.12212581 -0.073984794 -0.035618957 0.03776405
0.06042313 -0.018851997 -0.0340032 -0.0029096175 0.033976134 0.027824016 -0.003297459 -0.029798295
0.061116513 0.03320541 0.09959464 -0.03456899 -0.057232328 -0.06806652 -2.0102598e-06 -0.12671767
-0.07608828 0.049036145 0.10416817 0.10180521 -0.06358878 -0.06385819 0.041075498 -0.075616844
-0.06990037 0.03860331 -0.022681123 -0.03537339 0.020456929 -0.10675616 0.041669708 0.012632718
-0.036611423 -0.033089507 0.08030258 0.035641104 0.038644005 0.034221906 0.088537544 0.052428972
0.021969043 -0.023642574 -0.048073526 -0.020093163 0.011077373 -0.046850964 0.032740187 0.044937078
-0.06509667 -0.058705725 0.023622118 -0.05336384 -0.008260714 0.06021113 -0.027256478 0.04194588
-0.0036344416 -0.03875025 0.046822406 -0.053298805 -0.02704513 -0.06755174 -0.025336577 0.053878985
-0.12010415 0.08720026 0.07996824 -0.04799767 -0.04993141 -0.093678445 0.021729033 -0.057863496
-0.035219476 -0.01214445 -0.07701711 -0.026698885 0.09247014 -0.0101793995 -0.113234885 0.109246634
-0.04101742 0.091816135 0.059568662 0.029820481 0.054108292 -0.06777086 -0.07576731 0.04628314
0.0088689355 0.09154367 0.059421632 -0.015093623 -0.07132181 -0.034524538 0.08575451 -0.07279069
0.123611316 -0.07485317 -0.08462708 -0.035301756 0.040832873 0.03546347 -0.07101991 0.056610823
-0.09885897 -0.052449286 -0.02327629 0.027965995 0.039760757 -0.026060386 -0.02259754 0.023723276
0.042608574 0.011702156 -0.04766153 -0.09998371 0.075981274 -0.038882993 -0.039658766 0.05707949
-0.026191931 0.03963798 0.00783658 0.06939231 -0.01687659 0.06495902 0.035655342 -0.039921183
0.07847395 0.12952366 -0.091045484 -0.00832135 -0.078388385 0.052511428 -0.0040676086 -0.008233042
-0.024768274 0.11434382 0.06798187 0.060205936 -0.045814775 0.041777372 0.07038933 -0.04013464
0.06792073 0.0051534427 -0.039182007 -0.0617506 -0.031519704 0.016727572 -0.09002146 0.016521128
0.09352521 0.11862229 -0.03072687 0.06696177 0.110085666 -0.045595005 0.041712042 0.00043496606
0.090815194 0.0025966745 0.11824655 -0.013005661 0.12960145 0.116890475 0.02371739 -0.09321821
0.054094568 0.1021161 -0.0022834067 0.03121873 0.008280303 0.058367725 -0.04807944 0.063834645
-0.008121123 -0.08168764 -0.057706133 0.0017387001 0.034492485 0.0119002275 -0.028849633 -0.09664464
0.01657141 -0.003492345 -0.010317213 0.075068235 -0.09159823 -0.032038942 0.07390817 0.08607155
0.042903252 0.06074636 0.032407884 0.111769855 0.09929936 0.0635066 0.07484861 0.070842065
-0.018688995 0.00024019438 0.0919447 0.07389595 -0.028706491 0.026301404 0.09971218 -0.10920732
-0.046116292 0.056809053 0.052170217 0.035179004 -0.031718116 -0.12769812 -0.008490158 -0.028332407
-0.02968626 0.07152434 -0.0030165946 0.0670011 -0.08223405 0.08907817 -0.004572712 0.03607677
0.034594353 -0.024528772 0.0935923 -0.036378756 -0.051332258 0.11389881 -0.059634514 0.056155805
0.04700916 -0.106205665 0.00085050205 -0.107376665 -0.0795256 0.08819635 -0.05072067 -0.10639801
-0.0031844506 -0.111415915 0.09553143 0.079333715 0.109998435 0.08217855 -0.09517917 0.07580344
00000000: 9f96 dc3a 9342 623d fbdb e43d 3e9a fe39
00000010: 191d fabd 5785 97bd 2fe5 11bd 7aae 1a3d
00000020: 3e7e 773d 816f 9abc f046 0bbd 48af 3ebb
00000030: 8f2a 0b3d 31ef e33c 2f1a 58bb 8e1b f4bc
00000040: 4f55 7a3d 6502 083d 46f8 cb3d 3798 0dbd
00000050: 726c 6abd 7666 8bbd 00e8 06b6 47c2 01be
00000060: 2cd4 9bbd 20da 483d 1f56 d53d 407f d03d
00000070: d63a 82bd 15c8 82bd c83e 283d 01dd 9abd
00000080: ed27 8fbd 811e 1e3d c3cd b9bc b0e3 10bd
00000090: 4a95 a73c f9a2 dabd dbad 2a3d 76f9 4e3c
000000a0: dcf5 15bd dd88 07bd ae75 a43d 68fc 113d
000000b0: 2d49 1e3d 452c 0c3d 2c53 b53d c3bf 563d
000000c0: 6cf8 b33c 12ae c1bc bfe8 44bd 6b9a a4bc
000000d0: df7d 353c cce6 3fbd 931a 063d f10f 383d
000000e0: 6751 85bd 6a75 70bd 2c83 c13c 0b94 5abd
000000f0: f257 07bc f29f 763d fa48 dfbc 71cf 2b3d
00000100: d02f 6ebb 95b8 1ebd dac8 3f3d d94f 5abd
00000110: c08d ddbc 9158 8abd a78e cfbc 36b0 5c3d
00000120: 2af9 f5bd 0d96 b23d 63c6 a33d 3499 44bd
00000130: e184 4cbd 7cda bfbd 1601 b23c 4602 6dbd
00000140: 4c42 10bd 84f9 46bc 26bb 9dbd 9fb7 dabc
00000150: fc60 bd3d 7fc7 26bc b1e7 e7bd b3bc df3d
00000160: e201 28bd 190a bc3d 45fe 733d 154a f43c
00000170: a8a0 5d3d 73cb 8abd e42b 9bbd 6493 3d3d
00000180: 034f 113c 3f7b bb3d 1964 733d 3e4b 77bc
00000190: 2b11 92bd 9a69 0dbd 0fa0 af3d 4913 95bd
000001a0: ee27 fd3d 9e4c 99bd f650 adbd 9398 10bd
000001b0: 5f40 273d 2542 113d e372 91bd c0e0 673d
000001c0: 9276 cabd 10d5 56bd ebad bebc f118 e53c
000001d0: 2ddc 223d 977c d5bc 7a1e b9bc 5157 c23c
000001e0: 5486 2e3d 66ba 3f3c bd38 43bd 42c4 ccbd
000001f0: 129c 9b3d c643 1fbd 3b71 22bd 2fcc 693d
00000200: 7690 d6bc 6f5b 223d 0065 003c 8e1d 8e3d
00000210: c640 8abc 3c09 853d 560b 123d 6584 23bd
00000220: f3b6 a03d daa1 043e 0e76 babd 4656 08bc
00000230: 178a a0bd 3916 573d 9349 85bb e2e3 06bc
00000240: d6e6 cabc 182d ea3d 143a 8b3d 809a 763d
00000250: 46a8 3bbd c01e 2b3d 4828 903d 3864 24bd
00000260: 061a 8b3d 36de a83b 507d 20bd 32ee 7cbd
00000270: ce1a 01bd 4308 893c 2c5d b8bd 5157 873c
00000280: 258a bf3d 3ef0 f23d ebb6 fbbc 4123 893d
00000290: 9874 e13d d4c1 3abd 3fda 2a3d 280c e439
000002a0: 51fd b93d f82c 2a3b 3f2b f23d b215 55bc
000002b0: 3eb6 043e 4664 ef3d f94a c23c 30e9 bebd
000002c0: 4492 5d3d 3f22 d13d 35a5 15bb 6cbe ff3c
000002d0: 1caa 073c ff12 6f3d f2ee 44bd bdbb 823d
000002e0: 750e 05bc d94b a7bd 445d 6cbd 18e5 e33a
000002f0: fe47 0d3d 2cf9 423c 1156 ecbc a0ed c5bd
00000300: c4c0 873c d4df 64bb 8709 29bc 60bd 993d
00000310: da97 bbbd 443b 03bd 2b5d 973d 4846 b03d
00000320: 52bb 2f3d 2dd1 783d 21be 043d 98e7 e43d
00000330: 765d cb3d c00f 823d 3a4a 993d a515 913d
00000340: aa19 99bc b0dc 7b39 814d bc3d c356 973d
00000350: e029 ebbc 0b76 d73c e635 cc3d 16a8 dfbd
00000360: 70e4 3cbd 9cb0 683d 70b0 553d dc17 103d
00000370: dbea 01bd 4cc3 02be 4e1a 0bbc 5d19 e8bc
00000380: 9930 f3bc 5a7b 923d 0fb2 45bb df37 893d
00000390: 536a a8bd 9e6e b63d b0d6 95bb 3cc5 133d
000003a0: cfb2 0d3d 90f0 c8bc 52ad bf3d e401 15bd
000003b0: c641 52bd c843 e93d 5243 74bd a103 663d
000003c0: ad8c 403d 5b82 d9bd 3af4 5e3a 4ce8 dbbd
000003d0: 51de a2bd 4aa0 b43d 7ac0 4fbd 33e7 d9bd
000003e0: 37b2 50bb 072e e4bd fba5 c33d b779 a23d
000003f0: dc46 e13d 3a4d a83d 4ced c2bd d53e 9b3d

fc1.bias f4 [64]
0.03537538 0.03541602 0.012790772 -0.045178566 0.08363831 -0.043071043 0.008535111 -0.0292098
-0.014729209 0.088187024 0.06952045 0.07596185 -0.012662701 0.08917988 -0.0021168408 0.0704729
-0.0070953686 0.067016736 0.085726 -0.012889968 0.041385226 -0.037645955 -0.047556438 0.07582119
-0.031607617 0.11901198 0.06458224 -0.014087917 -0.010008495 -0.032641064 0.047957957 0.04977156
0.045745105 0.08311912 0.094750084 -0.02824794 0.065561324 0.055547733 0.056561857 0.052030995
0.09834071 0.00097168563 -0.02602274 0.00027037738 -0.03214372 0.086449206 0.071656056 -0.030897312
0.077102445 0.036409155 -0.053855665 -0.0155507345 -0.036582887 0.1077458 0.05848598 0.019081986
-0.047957443 -0.013212806 0.049577057 0.0714039 0.07255374 0.06958896 -0.048181165 0.06765205
00000000: c6e5 103d 6310 113d 6390 513c 290d 39bd
00000010: 904a ab3d 436b 30bd dad6 0b3c 6449 efbc
00000020: c852 71bc 669b b43d bd60 8e3d e391 9b3d
00000030: 3877 4fbc f1a3 b63d b2ba 0abb 1954 903d
00000040: 4480 e8bb 1240 893d 1d91 af3d 7230 53bc
00000050: 8e83 293d a532 1abd 8aca 42bd 2448 9b3d
00000060: fd76 01bd 8ebc f33d b243 843d 02d1 66bc
00000070: acfa 23bc a3b2 05bd 906f 443d 43dd 4b3d
00000080: 385f 3b3d 5b3a aa3d 550c c23d 3968 e7bc
00000090: 0445 863d 0586 633d 68ad 673d 741e 553d
000000a0: db66 c93d b8b8 7e3a a42d d5bc 70c1 8d39
000000b0: 22a9 03bd 480c b13d 69c0 923d 5c1c fdbc
000000c0: e3e7 9d3d c421 153d c297 5cbd 82c8 7ebc
000000d0: f0d7 15bd d4a9 dc3d ff8e 6f3d d351 9c3c
000000e0: 066f 44bd 867a 58bc 5011 4b3d 353c 923d
000000f0: 0e97 943d a884 8e3d 9d59 45bd 288d 8a3d

fc2.weight f4 [1, 64]
-0.10935107 0.14489254 -0.09025962 -0.09280713 0.1373073 0.1581689 0.14784087 -0.10397196
-0.071117625 0.0707899 0.08398056 0.093639895 0.16183993 0.06260127 -0.07297336 -0.016222235
0.115061924 -0.05761922 0.0966266 -0.028900338 0.12874895 0.1360469 -0.04851341 -0.13532028
0.13886327 0.092961036 -0.028102305 0.09349847 -0.026626477 -0.025368964 -0.02999096 -0.08799308
-0.1053494 0.110222794 0.11946539 0.111256585 0.14643411 0.12597017 -0.11538286 -0.08805612
-0.03344269 0.084256865 0.056511346 0.09849283 -0.048729315 -0.13913223 0.08102256 0.08732729
-0.0740833 -0.12903966 -0.10601739 0.11426723 -0.024283273 0.07229186 0.07384755 0.039644215
-0.02526685 -0.116131105 -0.06790313 -0.073402934 0.102137424 -0.05861343 -0.09511205 0.05768749
00000000: 74f3 dfbd b65e 143e 09da b8bd aa11 bebd
00000010: 499a 0c3e 07f7 213e 9963 173e 40ef d4bd
00000020: 1ea6 91bd 4cfa 903d 00fe ab3d 46c6 bf3d
00000030: 5eb9 253e 1835 803d 0f73 95bd 7ee4 84bc
00000040: 96a5 eb3d 2202 6cbd 2be4 c53d 67c0 ecbc
00000050: c4d6 033e e14f 0b3e ffb5 46bd 6691 0abe
00000060: 2c32 0e3e 5b62 be3d ce36 e6bc 207c bf3d
00000070: c51f dabc 93d2 cfbc 9aaf f5bc b735 b4bd
00000080: 6dc1 d7bd 7dbc e13d 45aa f43d 7eda e33d
00000090: d3f2 153e 53fe 003e d94d ecbd c456 b4bd
000000a0: 34fb 08bd dd8e ac3d 7178 673d 9cb6 c93d
000000b0: 6498 47bd ae78 0ebe 28ef a53d a6d8 b23d
000000c0: fcb8 97bd f922 04be a51f d9bd f004 ea3d
000000d0: b7ed c6bc c10d 943d 623d 973d f961 223d
000000e0: 6dfc cebc 25d6 edbd cc10 8bbd 4754 96bd
000000f0: 6d2d d13d a314 70bd 1bca c2bd b849 6c3d

fc1.weight f4 [64, 128]
-0.054800604 0.034589395 -0.08326055 0.046395898 -0.0014465029 0.061266623 -0.05042299 -0.026731482
-0.07430024 0.03124976 0.0883429 0.025565283 0.018354036 0.0533536 -0.029839149 0.10045205
-0.014760858 0.05253789 -0.02391384 0.0016687317 0.052402385 -0.002995954 0.0059013003 0.056521777
0.0066793896 -0.044284035 -0.042937 0.057158064 0.024571506 -0.06867917 0.10222881 -0.020287497
0.05391674 -0.020967599 0.018772041 0.052134868 0.0083822785 0.04128588 -0.069654554 0.071468145
0.05588586 -0.060865622 -0.03985342 -0.068427086 -0.008478287 0.0059130928 0.004002993 0.00398068
0.071362086 0.038856562 0.042140763 0.097886585 -0.04411535 -0.013077119 -0.009091362 0.08199095
0.07201308 -0.015719596 0.010976813 -0.0026855464 -0.04149838 0.03357761 -0.06815471 0.043010727
-0.017468788 -0.023848506 0.06441886 -0.011773478 -0.04877794 -0.10867816 -0.01858365 -0.058499902
-0.004177485 -0.09747756 -0.04515116 0.004053434 -0.018444803 0.04281206 -0.019364445 0.0068180575
0.025416851 0.087657064 -0.028156321 -0.03392242 0.016489105 -0.030858494 0.014474129 0.027798925
-0.0057679815 0.05586119 -0.044600938 0.033506215 -0.027633408 0.030192144 0.00061111606 -0.07575619
-0.0838432 0.04530338 0.000116798634 0.07803914 0.012387574 0.026110247 0.08087089 0.056930143
0.0537888 -0.061424468 0.060165226 0.039707653 -0.043438647 -0.064926356 -0.06970135 0.01329892
-0.010346268 0.07511295 -0.042405546 -0.04011775 0.061577324 0.008698433 -0.0273528 -0.046603076
0.026501331 -0.07813773 -0.0161472 0.100395754 -0.03728195 -0.08127914 0.040930953 -0.067136616
-0.03893133 -0.10043234 0.050927065 0.113234505 -0.066343084 0.09316215 -0.05562677 0.11345516
-0.03401767 0.052970625 -0.06524 0.034961052 -0.014333475 0.10894427 0.00842474 -0.11859943
0.028170122 0.13120694 0.13014095 0.0056740493 0.03649535 0.03251828 0.027739102 0.09858499
-0.036144007 -0.042911846 0.023875644 0.010809283 -0.06194619 -0.08845117 0.016189048 -0.038758162
-0.036130935 -0.107538864 -0.006443161 0.033417933 0.10856862 -0.0057269735 0.009195757 -0.077564105
-0.09527678 -0.019457197 0.08599675 -0.02793901 -0.07213224 0.08153509 -0.0039396593 0.05866128
-0.020904405 -0.073915586 -0.025481993 0.02007221 -0.11720847 0.03928923 0.06678825 -0.06089122
-0.007026393 0.092293 0.06783774 0.07424694 -0.033030674 -0.008581305 -0.03006158 0.042955153
-0.11999998 -0.03679807 -0.059085865 0.033921108 -0.0389581 0.12268299 -0.04788121 0.048219815
0.025048442 0.009920309 0.012388415 0.043850534 -0.105715476 -0.120747365 -0.09685138 0.025736958
0.07871177 -0.111921825 -0.09359585 0.09995728 0.0019695365 0.1083569 0.010654155 -0.070538335
0.067464866 -0.098307565 0.11521415 0.12532139 0.05034668 0.044103708 0.06910738 0.03921091
0.073759 0.10348763 -0.02439444 -0.018578352 -0.046103243 -0.07693678 -0.023177583 -0.037363347
0.07635096 0.07042217 -0.017970705 -0.038373116 0.058508806 0.049231753 -0.02793117 0.05335501
-0.08851897 -0.0078050992 -0.09508561 -0.04466517 -0.008165865 0.013467701 -0.00013308797 0.024226988
0.06259507 0.06342071 0.030659886 -0.0578666 -0.040687237 -0.04386386 -0.043640077 -0.0548523
00000000: 9976 60bd 9cad 0d3d 8284 aabd a009 3e3d
00000010: 9598 bdba b6f2 7a3d 5688 4ebd fbfb dabc
00000020: b92a 98bd 7fff ff3c 1fed b43d 496e d13c
00000030: 345b 963c 4e89 5a3d 3b71 f4bc ceb9 cd3d
00000040: 87d7 71bc f831 573d f5e6 c3bc 58b9 da3a
00000050: e2a3 563d c457 44bb b25f c13b 6183 673d
00000060: c8de da3b 2d63 35bd b5de 2fbd 931e 6a3d
00000070: 2f4a c93c aaa7 8cbd 575d d13d f731 a6bc
00000080: cdd7 5c3d 3ec4 abbc d3c7 993c 5f8b 553d
00000090: d355 093c 621b 293d 0ca7 8ebd e45d 923d
000000a0: 92e8 643d 3b4e 79bd 573d 23bd 8023 8cbd
000000b0: 83e8 0abc 9ec2 c13b 8a2b 833b 5d70 823b
000000c0: 4926 923d 0f28 1f3d cb9b 2c3d c378 c83d
000000d0: 4cb2 34bd 6a41 56bc f0f3 14bc dfea a73d
000000e0: 987b 933d 62c6 80bc 17d8 333c feff 2fbb
000000f0: 35fa 29bd ad88 093d b294 8bbd 042c 303d
00000100: b41a 8fbc f15d c3bc 09ee 833d 8ce5 40bc
00000110: 61cb 47bd a892 debd bd3c 98bc 989d 6fbd
00000120: 49e3 88bb 51a2 c7bd 6cf0 38bd abd2 843b
00000130: 8e19 97bc b35b 2f3d 2fa2 9ebc 036a df3b
00000140: 0037 d03c 8c85 b33d 16a8 e6bc 3cf2 0abd
00000150: 2914 873c f4ca fcbc e624 6d3c 92ba e33c
00000160: 5601 bdbb b4ce 643d 79af 36bd d03d 093d
00000170: 755f e2bc 8455 f73c 4e33 203a 1026 9bbd
00000180: fcb5 abbd 0990 393d caf1 f438 fcd2 9f3d
00000190: 40f5 4a3c 28e5 d53c a39f a53d 952f 693d
000001a0: a551 5c3d 3998 7bbd d06f 763d 7ea4 223d
000001b0: b9ec 31bd 1cf8 84bd 95bf 8ebd b7e3 593c
000001c0: 6583 29bc d1d4 993d 70b1 2dbd 8352 24bd
000001d0: 8138 7c3d df83 0e3c fb12 e0bc dee2 3ebd
000001e0: 5219 d93c ad06 a0bd 2247 84bc 4a9c cd3d
000001f0: f5b4 18bd ae75 a6bd 37a7 273d ec7e 89bd
00000200: 7576 1fbd 78af cdbd e698 503d 7ee7 e73d
00000210: e2de 87bd cccb be3d e5d8 63bd 2e5b e83d
00000220: 1d56 0bbd baf7 583d 8d9c 85bd 5233 0f3d
00000230: f4d6 6abc 2c1e df3d ec07 0a3c 42e4 f2bd
00000240: 07c5 e63c 1d5b 063e ab43 053e 60ed b93b
00000250: 267c 153d e331 053d 1d3d e33c ede6 c93d
00000260: bd0b 14bd 55c4 2fbd db96 c33c 6b19 313c
00000270: 4abb 7dbd e325 b5bd e59e 843c e1c0 1ebd
00000280: 08fe 13bd 563d dcbd 2721 d3bb 3ee1 083d
00000290: 3a59 de3d 56a9 bbbb cda9 163c eed9 9ebd
000002a0: 7920 c3bd b364 9fbc 101f b03d 5ae0 e4bc
000002b0: 11ba 93bd dffb a63d 4218 81bb cf46 703d
000002c0: b73f abbc 0e61 97bd 9dbf d0bc 7a6e a43c
000002d0: ff0a f0bd beed 203d 47c8 883d 1269 79bd
000002e0: a83d e6bb 1d04 bd3d 83ee 8a3d c80e 983d
000002f0: 2c4b 07bd 9a98 0cbc b443 f6bc bef1 2f3d
00000300: 8dc2 f5bd 93b9 16bd 0504 72bd dcf0 0a3d
00000310: 8792 1fbd 3841 fb3d 161f 44bd 2482 453d
00000320: 6432 cd3c cb88 223c c7f8 4a3c 9e9c 333d
00000330: 5b81 d8bd 654a f7bd 045a c6bd 50d6 d23c
00000340: a333 a13d 4537 e5bd 2eaf bfbd 67b6 cc3d
00000350: 5713 013b 39ea dd3d c48e 2e3c 6776 90bd
00000360: 052b 8a3d 7a55 c9bd 65f5 eb3d 4054 003e
00000370: 5238 4e3d 17a6 343d 2c88 8d3d 9f9b 203d
00000380: f50e 973d 53f1 d33d d9d6 c7bc a131 98bc
00000390: c1d6 3cbd 0891 9dbd eade bdbc 4f0a 19bd
000003a0: e45d 9c3d 8039 903d 4d37 93bc 212d 1dbd
000003b0: eea6 6f3d 3ca7 493d e9cf e4bc c88a 5a3d
000003c0: 6f49 b5bd ebc1 ffbb 3fbc c2bd d3f2 36bd
000003d0: 1fca 05bc a2a7 5c3c 888d 0bb9 ad77 c63c
000003e0: d831 803d b8e2 813d 712a fb3c 8705 6dbd
000003f0: a9a7 26bd 97aa 33bd f0bf 32bd ceac 60bd

fc1.bias f4 [64]
0.04569827 0.07391669 0.0065298383 -0.0163422 -0.004728159 0.020924592 -0.009622027 -0.00665449
0.08819394 0.041875128 0.048975397 0.12338167 -0.0014617441 -0.06815339 0.11714278 -0.014564969
-0.041673336 0.080485426 -0.018629787 -0.046575945 -0.062087294 -0.027839297 -0.07980361 -0.01534398
-0.043278895 -0.010350495 0.045711607 0.04618631 -0.029846946 0.008769328 0.023001058 -0.035062585
-0.086539656 -0.040261075 0.07149363 -0.014228454 -0.013122652 0.03283709 0.07476789 -0.048991363
0.09795976 -0.039562274 0.064451404 -0.05861623 -0.036685333 0.08086024 -0.040847033 -0.020312151
-0.028033355 -0.018768251 0.1054147 0.09274956 0.03414289 -0.09165405 -0.038349267 0.0056496183
0.101258054 0.036731236 -0.03694741 0.0801123 -0.038924377 0.097731285 -0.0045403037 -0.02691873
00000000: 1c2e 3b3d a261 973d 41f8 d53b 14e0 85bc
00000010: acee 9abb 0d6a ab3c b5a5 1dbc e80d dabb
00000020: 069f b43d 4185 2b3d 6d9a 483d 87af fc3d
00000030: fe97 bfba 0194 8bbd 8ee8 ef3d e8a1 6ebc
00000040: a9b1 2abd 8bd5 a43d 7f9d 98bc 6bc6 3ebd
00000050: 3f4f 7ebd 3d0f e4bc 1370 a3bd 5165 7bbc
00000060: 3645 31bd 1f95 29bc 183c 3b3d db2d 3d3d
00000070: 9581 f4bc 3aad 0f3c b76c bc3c c99d 0fbd
00000080: b43b b1bd cce8 24bd 416b 923d 761e 69bc
00000090: 6400 57bc 2f80 063d e81f 993d 2bab 48bd
000000a0: 209f c83d 0d0c 22bd 19ff 833d 9217 70bd
000000b0: 5c43 16bd 0e9a a53d 384f 27bd ab65 a6bc
000000c0: 35a6 e5bc e0bf 99bc aae3 d73d 7bf3 bd3d
000000d0: 6ad9 0b3d 1eb5 bbbd 1f14 1dbd 6f20 b93b
000000e0: 6260 cf3d 7e73 163d 2b56 17bd eb11 a43d
000000f0: 2b6f 1fbd 5727 c83d d4c6 94bb ab84 dcbc

fc2.weight f4 [1, 64]
-0.012087887 0.064388946 -0.0074164597 -0.03752359 0.16355182 0.05944337 0.11588894 -0.10160141
0.0952236 -0.028585825 -0.03035707 0.116739854 0.075723164 -0.009347995 0.049321406 -0.09482896
-0.04662437 0.084918045 0.11674225 -0.043548718 -0.0013839771 -0.081171736 -0.05081524 0.08375796
0.13898565 0.09523561 -0.08285024 -0.043172188 0.10606826 0.15092243 0.16985175 0.112048835
0.0034579912 0.102111965 0.15680893 0.078970306 0.08966052 0.15502322 0.04929632 -0.061421737
0.0630528 0.1297793 0.11841012 0.019697823 -0.029438378 0.14000896 0.16909748 0.089401275
0.08080178 -0.063824624 0.12751493 0.11047442 -0.0476963 -0.03757674 0.14929664 -0.08454115
0.044317365 0.0920256 0.08395046 0.10862054 -0.030818231 0.104978755 0.0039477674 0.026985891
00000000: 460c 46bc 5ade 833d c605 f3bb 56b2 19bd
00000010: 217a 273e e47a 733d 2e57 ed3d 6614 d0bd
00000020: 9704 c33d d22c eabc 64af f8bc 4e15 ef3d
00000030: bf14 9b3d 5528 19bc 3e05 4a3d b035 c2bd
00000040: 32f9 3ebd 83e9 ad3d 9016 ef3d 2460 32bd
00000050: 9166 b5ba 5e3d a6bd a423 50bd 4b89 ab3d
00000060: 4152 0e3e e30a c33d 63ad a9bd 52d5 30bd
00000070: 513a d93d 698b 1a3e 9eed 2d3e dc79 e53d
00000080: 779f 623b 1420 d13d 8592 203e 2fbb a13d
00000090: ef9f b73d 68be 1e3e f0ea 493d 5c95 7bbd
000000a0: d421 813d dde4 043e 0181 f23d 545d a13c
000000b0: c128 f1bc 825e 0f3e e427 2d3e 0418 b73d
000000c0: 677b a53d 7cb6 82bd 4693 023e 6a40 e23d
000000d0: 325d 43bd 11ea 19bd 38e1 183e e923 adbd
000000e0: 2086 353d eb77 bc3d 38ee ab3d 7274 de3d
000000f0: 8476 fcbc 1aff d63d 465c 813b 8411 dd3c

exp_avg f4 [64, 128]
1.39943395e-05 -6.6852785e-06 -1.1303112e-05 2.4425065e-06 6.5431623e-06 1.317555e-06 7.584732e-06 1.9841857e-06
-2.2344354e-06 -4.922084e-07 -9.808674e-06 4.6342107e-06 1.3245057e-05 -6.0651314e-06 -3.047646e-06 6.548159e-06
5.728991e-06 1.5335759e-06 -9.566938e-06 2.501515e-06 -1.1417833e-06 3.833815e-05 8.177309e-06 2.3201596e-06
3.8192607e-06 -1.1002501e-06 -1.4777404e-05 -4.1199164e-06 3.245077e-06 5.1101892e-06 9.729946e-06 8.612529e-06
1.1123175e-05 -2.0909247e-06 -7.2426434e-07 -6.9615055e-07 4.8012936e-07 5.8612136e-07 -9.41895e-06 -7.1294367e-06
1.3958372e-05 -6.054643e-07 -4.6633277e-06 6.834928e-06 9.587085e-06 3.3374081e-07 -1.0017058e-05 5.870445e-06
-1.8256594e-08 6.8044587e-06 5.7245106e-06 -5.757177e-08 6.5194416e-07 7.2999082e-06 5.3823137e-06 6.780507e-06
2.5054134e-05 2.0025211e-06 -4.6173186e-06 7.715576e-06 -8.323663e-06 -3.0157228e-06 2.8586799e-06 -8.21379e-06
-1.1022701e-05 1.6044926e-06 -3.2565595e-06 3.6429404e-07 6.6190537e-06 -2.6906232e-06 2.1648211e-06 -7.7126595e-07
4.7146077e-06 1.8679792e-06 -3.269346e-06 8.0687605e-06 2.468387e-05 7.161261e-06 3.2114747e-07 4.997413e-06
-2.3632829e-06 1.16741185e-05 -4.770519e-07 5.227327e-06 2.2719232e-06 3.265804e-06 1.5284391e-05 -2.137721e-05
-1.8623768e-06 -3.3821127e-06 -2.5621905e-06 -6.9137036e-06 -7.707201e-06 9.941762e-07 2.736392e-06 -1.07512e-05
1.5416105e-06 -5.3911804e-06 -5.868871e-06 7.469233e-06 1.6032589e-05 4.4450385e-06 -4.1208978e-06 1.959845e-05
-1.2998311e-05 3.4526656e-06 3.480262e-06 -5.614782e-06 3.178491e-06 1.0542139e-10 2.1082988e-06 -2.0457885e-06
1.5493122e-05 4.6637465e-06 6.825744e-06 -1.7926999e-06 -3.4537686e-06 -8.643684e-06 -3.8863213e-06 5.302623e-06
-2.4776023e-07 -1.2561028e-05 1.892517e-06 7.971206e-06 -1.4328916e-05 -1.7482755e-05 -1.0970331e-05 -2.3609917e-07
-1.3999761e-05 -2.190478e-06 3.5098942e-06 -6.180156e-06 -3.8123562e-07 -8.12324e-06 -3.8520666e-06 -1.1601865e-05
-9.86592e-07 -1.2795477e-05 1.33931735e-05 2.5290428e-06 1.1362175e-05 -7.530001e-07 6.7701912e-06 4.646717e-06
5.4335956e-06 -1.3348884e-05 -1.9112444e-05 8.8653456e-07 1.29042e-07 -1.8332381e-05 -7.002258e-06 -1.538715e-05
-1.4605624e-05 3.4295174e-06 1.869575e-05 2.0302059e-05 4.610403e-06 5.3138515e-06 -3.5865562e-06 1.01301765e-07
4.5580837e-06 -9.114893e-07 -1.7215509e-05 -3.959031e-06 -4.3456057e-06 -4.1059924e-05 -4.600527e-07 2.6673379e-06
-4.363471e-06 -3.962919e-06 -1.3677458e-05 -1.1737795e-06 -2.2414677e-05 -2.3302807e-06 3.4751233e-06 3.3714638e-05
7.727271e-06 -4.650486e-06 -3.2239254e-07 6.696015e-06 7.45167e-06 -3.0710648e-06 2.1876035e-06 1.7621569e-06
-1.10857e-05 4.2648107e-06 2.602517e-06 6.754783e-06 1.5115739e-05 -1.4419108e-05 -4.7520167e-05 4.588016e-06
2.5770923e-05 2.2748548e-06 -1.2178061e-05 -2.0145458e-06 3.0544509e-06 -6.9901976e-06 -1.3019278e-05 -3.9451133e-06
-6.2008235e-06 -2.6852824e-06 -3.121964e-06 3.5258265e-06 -9.964798e-06 -2.2363997e-06 -5.070182e-06 -1.2850234e-06
5.994753e-06 4.70214e-06 -4.801951e-06 -3.0818574e-05 9.609391e-06 -1.0737449e-05 1.840774e-05 3.2354244e-06
7.342169e-07 -1.0169239e-05 -2.9726066e-06 2.612821e-06 -4.5641386e-06 8.016954e-06 -2.3791928e-05 -1.5283451e-06
-2.8343086e-06 -1.5636499e-07 5.5922524e-06 5.57889e-06 1.5946225e-05 -5.8330934e-06 1.45678405e-05 2.3415534e-05
-1.5496129e-05 -6.2043587e-06 -1.732944e-05 6.7833416e-06 1.1555123e-05 -6.80545e-06 3.3501826e-06 -1.090752e-05
-5.582628e-06 8.341181e-06 7.5008e-08 4.028137e-06 8.694564e-06 -7.703039e-07 1.8292083e-05 7.687725e-06
-8.53342e-06 1.5886159e-05 -8.2093375e-06 -1.2049304e-05 -3.2718546e-07 -1.5088497e-05 7.598009e-06 2.2254349e-06
00000000: 3bc9 6a37 1b52 e0b6 7fa2 3db7 f1e9 2336
00000010: 568d db36 d8d6 b035 5a80 fe36 0d28 0536
00000020: 4ff3 15b6 4e20 04b5 ef8f 24b7 917f 9b36
00000030: 1637 5e37 1583 cbb6 2986 4cb6 42b8 db36
00000040: a83b c036 44d5 cd35 b081 20b7 b3df 2736
00000050: 603f 99b5 46cd 2038 4631 0937 0ab4 1b36
00000060: 3327 8036 4eac 93b5 78ec 77b7 d03d 8ab6
00000070: 00c6 5936 3178 ab36 cd3d 2337 887e 1037
00000080: ac9d 3a37 d051 0cb6 116b 42b5 1adf 3ab5
00000090: 3de2 0035 f455 1d35 1506 1eb7 6539 efb6
000000a0: c02e 6a37 3187 22b5 ae79 9cb6 9657 e536
000000b0: 37d8 2037 fd2c b334 f00e 28b7 bdfa c436
000000c0: add2 9cb2 db51 e436 2c15 c036 d544 77b3
000000d0: 4301 2f35 bcf1 f436 b999 b436 1d84 e336
000000e0: 582b d237 0d63 0636 77ee 9ab6 2672 0137
000000f0: dca5 0bb7 b961 4ab6 bfd7 3f36 f6cd 09b7
00000100: 24ee 38b7 f259 d735 448b 5ab6 3194 c334
00000110: 3d19 de36 8e90 34b6 5847 1136 fe08 4fb5
00000120: 2c32 9e36 47b7 fa35 f066 5bb6 105f 0737
00000130: 3510 cf37 c34a f036 2c6a ac34 73af a736
00000140: e498 1eb6 f5db 4337 c20e 00b5 6666 af36
00000150: 5877 1836 162a 5b36 fb36 8037 3553 b3b7
00000160: c8f6 f9b5 41f8 62b6 19f2 2bb6 43fc e7b6
00000170: 2d4e 01b7 a26f 8535 dba2 3736 0d60 34b7
00000180: 55e9 ce35 e3e5 b4b6 38ed c4b6 39a0 fa36
00000190: b97d 8637 9726 9536 3e46 8ab6 5a67 a437
000001a0: 5213 5ab7 58b4 6736 728e 6936 9c66 bcb6
000001b0: 0f4e 5536 f7d2 e72e 4c7c 0d36 614a 09b6
000001c0: 3af7 8137 477d 9c36 b208 e536 b39c f0b5
000001d0: 4bc7 67b6 5704 11b7 3f67 82b6 2fed b136
000001e0: e803 85b4 34bd 52b7 6402 fe35 12bc 0537
000001f0: 3a66 70b7 eea7 92b7 360d 38b7 7282 7db4
00000200: 84e0 6ab7 2000 13b6 868b 6b36 235f cfb6
00000210: a0ac ccb4 0d49 08b7 0041 81b6 a1a5 42b7
00000220: 0b6b 84b5 28ac 56b7 3eb3 6037 a0b8 2936
00000230: 2ca0 3e37 c621 4ab5 802b e336 ffea 9b36
00000240: 3b52 b636 05f5 5fb7 a953 a0b7 31fa 6d35
00000250: cb8e 0a34 7dc8 99b7 f0f4 eab6 a713 81b7
00000260: ad0a 75b7 a926 6636 d1d4 9c37 574e aa37
00000270: 0fb3 9a36 a34d b236 91b0 70b6 3c8b d933
00000280: a4f1 9836 11ad 74b5 066a 90b7 d1d7 84b6
00000290: 78d0 91b6 c237 2cb8 29fd f6b4 8400 3336
000002a0: ee69 92b6 37f9 84b6 3c78 65b7 c28a 9db5
000002b0: 2707 bcb7 eb61 1cb6 2a36 6936 d168 0d38
000002c0: 60a4 0137 5f0b 9cb6 4b15 adb4 55ae e036
000002d0: 5c09 fa36 7e18 4eb6 bece 1236 4083 ec35
000002e0: b8fc 39b7 721a 8f36 e7a6 2e36 25a7 e236
000002f0: 9b99 7d37 99e9 71b7 6450 47b8 c2f2 9936
00000300: a32e d837 b5a9 1836 6050 4cb7 a231 07b6
00000310: 11fb 4c36 578d eab6 606d 5ab7 4460 84b6
00000320: ab10 d0b6 cd34 34b6 ef82 51b6 3d9d 6c36
00000330: 7b2e 27b7 0e15 16b6 8820 aab6 1179 acb5
00000340: 8926 c936 13c7 9d36 7220 a1b6 3143 01b8
00000350: 0538 2137 fe24 34b7 526a 9a37 2b20 5936
00000360: 0017 4535 8d9c 2ab7 fe7c 47b6 ec57 2f36
00000370: a725 99b6 8e80 0637 c794 c7b7 8a21 cdb5
00000380: 0d35 3eb6 48e5 27b4 15a5 bb36 4d32 bb36
00000390: 42c4 8537 e4b9 c3b6 6668 7437 7a6c c437
000003a0: affd 81b7 092f d0b6 b05e 91b7 769c e336
000003b0: e0dc 4137 5f5a e4b6 b3d3 6036 71ff 36b7
000003c0: 6952 bbb6 19f1 0b37 1614 a133 6f29 8736
000003d0: dede 1137 e2c6 4eb5 f371 9937 87fa 0037
000003e0: c32a 0fb7 4443 8537 d6ba 09b7 5e27 4ab7
000003f0: 07a8 afb4 9a24 7db7 66f2 fe36 ae58 1536

exp_avg_sq f4 [64, 128]
4.8712093e-12 1.0097166e-12 3.33561e-12 1.8189285e-12 1.3544592e-12 4.662673e-13 3.684618e-12 1.9730617e-13
1.0953916e-12 2.9872308e-14 2.1531364e-12 5.700919e-13 4.6926456e-12 1.4980559e-12 8.0146214e-13 9.89667e-13
1.7008623e-12 7.020817e-13 3.7193417e-12 2.9813394e-13 4.2156908e-13 2.8486815e-11 1.3159459e-12 2.789738e-13
5.072723e-13 3.8368007e-13 4.4450676e-12 4.2735845e-13 5.4922516e-13 1.2050072e-12 2.0036442e-12 1.6312831e-12
3.0776657e-12 3.3956442e-13 1.4921313e-12 6.3373494e-14 4.571162e-13 5.360101e-13 2.374611e-12 1.8495305e-12
5.4760536e-12 3.6258263e-13 9.741444e-13 1.5451297e-12 1.8813325e-12 9.945228e-14 2.4343967e-12 1.6226194e-12
1.1367382e-12 1.5290132e-12 6.978944e-13 9.572726e-13 2.0123454e-12 1.0984065e-12 9.722315e-13 1.0351763e-12
1.2472051e-11 4.3302227e-13 4.197001e-13 1.3327171e-12 1.585226e-12 3.15251e-13 4.766154e-13 1.4370102e-12
3.4519132e-12 8.440585e-14 8.833914e-13 1.7609866e-13 1.2335364e-12 4.146447e-13 7.744366e-13 4.2383867e-13
7.9148645e-13 8.158522e-13 2.8955332e-13 1.287363e-12 1.3376052e-11 1.0412149e-12 3.6870233e-13 1.8190484e-12
5.125145e-13 3.1425596e-12 1.0630558e-12 1.734971e-12 1.9500897e-13 7.05139e-13 5.2575513e-12 9.6950165e-12
6.5385056e-13 1.3188649e-12 3.1530014e-13 9.851857e-13 1.2592766e-12 2.1745342e-13 1.9676277e-12 2.9634756e-12
1.0842423e-13 6.835655e-13 3.715144e-12 1.311908e-12 4.998027e-12 7.1731477e-13 1.234191e-12 8.0520625e-12
3.3757539e-12 2.1887084e-12 7.9548624e-13 8.328261e-13 4.5905196e-13 4.177416e-13 1.457292e-13 1.1856728e-12
5.0289165e-12 2.324404e-12 9.832344e-13 1.1145017e-12 8.751755e-13 1.5872726e-12 9.634309e-13 6.664818e-13
3.140088e-14 3.583584e-12 1.2341854e-13 1.2796285e-12 4.500854e-12 7.977696e-12 2.7558724e-12 1.0590407e-12
4.2462275e-12 1.00199166e-13 4.1997368e-13 1.0437487e-12 3.1207082e-13 1.4289923e-12 2.4231413e-12 2.9411534e-12
2.1672827e-13 3.2277043e-12 3.756386e-12 5.048981e-13 3.6823183e-12 2.5378676e-13 9.493065e-13 8.6153133e-13
7.754196e-13 3.8295977e-12 7.4948684e-12 3.3103345e-14 6.112875e-14 6.52465e-12 1.0204345e-12 4.6723424e-12
4.2292914e-12 2.4813712e-13 7.0871664e-12 8.058035e-12 6.235663e-13 8.3400127e-13 6.0072227e-13 2.5629233e-13
8.3617623e-13 6.794086e-13 6.330748e-12 4.7594914e-13 4.4365632e-13 3.275835e-11 1.8645414e-13 2.8020574e-13
5.5640513e-13 3.9421155e-13 3.6967742e-12 4.6046977e-13 1.221374e-11 1.2449206e-13 3.0636244e-13 2.414856e-11
1.4661729e-12 5.138007e-13 2.8814936e-13 1.0037367e-12 1.4742346e-12 2.0685423e-13 6.505355e-13 8.12751e-14
2.8021218e-12 4.0051485e-13 1.8264395e-13 1.3493365e-12 5.6657786e-12 4.0921728e-12 4.45342e-11 4.3163221e-13
1.2985762e-11 1.5041572e-13 3.0127823e-12 1.3008292e-13 3.0366727e-13 1.6900077e-12 3.4156128e-12 5.7448626e-13
8.1077387e-13 2.5006174e-13 5.484723e-13 4.964993e-13 2.3787617e-12 4.081636e-13 7.501842e-13 2.3168837e-13
7.6977633e-13 7.476732e-13 5.7959274e-13 1.8625013e-11 1.9458196e-12 2.5147855e-12 8.044773e-12 1.0812233e-12
1.06904143e-13 2.1822641e-12 2.069349e-13 1.6637104e-13 4.4507518e-13 1.5133621e-12 1.1287094e-11 1.160555e-13
1.6508122e-13 3.43846e-14 1.885187e-12 7.4654015e-13 5.6510213e-12 7.061355e-13 4.282167e-12 1.1548233e-11
5.1140485e-12 1.0216641e-12 6.1762414e-12 1.0954962e-12 2.9537438e-12 1.0160557e-12 2.757992e-13 2.8250622e-12
7.230606e-13 1.6214423e-12 1.538026e-14 5.4154294e-13 3.4075555e-12 2.0215456e-13 6.580088e-12 1.1597967e-12
1.4547851e-12 5.480566e-12 1.3776207e-12 2.8018937e-12 3.0290709e-13 4.705697e-12 1.2573423e-12 1.1835026e-12
00000000: f463 ab2c e01a 8e2b 02b9 6a2c cefd ff2b
00000010: 899f be2b 1a3e 032b 17a4 812c a225 5e2a
00000020: a429 9a2b 6d88 0629 7583 172c 7377 202b
00000030: 981b a52c 27d5 d22b 6f97 612b 8348 8b2b
00000040: 0660 ef2b 519e 452b dadc 822c a1d5 a72a
00000050: 8252 ed2a 9b92 fa2d f333 b92b 5d0c 9d2a
00000060: d2c8 0e2b 20fe d72a 9c65 9c2c d894 f02a
00000070: d897 1a2b f696 a92b 72fe 0c2c 2b95 e52b
00000080: 4c92 582c 6428 bf2a b2ff d12b 55b4 8e29
00000090: b2aa 002b 99df 162b 3019 272c 2e26 022c
000000a0: e8ab c02c aa1d cc2a 4019 892b 2a75 d92b
000000b0: 1363 042c 56f2 df29 314e 2b2c 065d e42b
000000c0: 4ffb 9f2b 8230 d72b 9770 442b 61b9 862b
000000d0: 319b 0d2c 4496 9a2b 55d4 882b 28b0 912b
000000e0: 2069 5b2d 16c5 f32a 2945 ec2a 3290 bb2b
000000f0: c919 df2b 7578 b12a c227 062b c03d ca2b
00000100: 24e8 722c a910 be29 0fa7 782b fc44 462a
00000110: d59a ad2b 996c e92a 0afc 592b 9799 ee2a
00000120: 9cc8 5e2b 59a4 652b 0801 a32a 242e b52b
00000130: 6250 6b2d b889 922b 9b8f cf2a 1001 002c
00000140: 9042 102b 5223 5d2c 9f9c 952b eb2c f42b
00000150: 828f 5b2a 9f7a 462b d0fb b82c 798e 2a2d
00000160: e60a 382b 1e9d b92b 8a7f b12a 0ea7 8a2b
00000170: 393a b12b aed4 742a a175 0a2c 3b89 502c
00000180: 5026 f429 1668 402b 0bb7 822c 78a2 b82b
00000190: 3ada af2c fae7 492b 6bb2 ad2b 44a7 0d2d
000001a0: 2d8c 6d2c 4404 1a2c d3e8 5f2b 726b 6a2b
000001b0: 2e36 012b e92a eb2a 9513 242a 5dde a62b
000001c0: 74f0 b02c bd90 232c c160 8a2b 28da 9c2b
000001d0: 0a57 762b 8663 df2b 4297 872b 1399 3b2b
000001e0: c06a 0d29 1c2c 7c2c f9f4 0a2a 7a17 b42b
000001f0: 175c 9e2c 5958 0c2d 62ed 412c f60b 952b
00000200: 9e66 952c e3a0 e129 966c ec2a 03e5 922b
00000210: 25ae af2a e01c c92b 6f83 2a2c 1cf7 4e2c
00000220: ac03 742a 2721 632c 842a 842c be1d 0e2b
00000230: 608f 812c 87de 8e2a 5f9a 852b e07f 722b
00000240: df42 5a2b f3bd 862c e3d9 032d 8f15 1529
00000250: 53a6 8929 d390 e52c 079d 8f2b b864 a42c
00000260: 12ce 942c 54b0 8b2a 855b f92c 2ac2 0d2d
00000270: b084 2f2b 20c0 6a2b 9a16 292b 9e47 902a
00000280: d95c 6b2b 8d3c 3f2b 4fbe de2c c0f7 052b
00000290: 9dc1 f92a a012 102e bfed 512a e7bd 9d2a
000002a0: 379d 1c2b dfeb dd2a 9511 822c 589c 012b
000002b0: cbdd 562d 652a 0c2a 7b77 ac2a b969 d42d
000002c0: 7258 ce2b 3e9f 102b b336 a22a 6d43 8d2b
000002d0: e67a cf2b ace5 682a 061c 372b e803 b729
000002e0: 8a2e 452c 4678 e12a 89a3 4d2a f9e6 bd2b
000002f0: cc58 c72c 04fb 8f2c 0ddd 432e c2fc f22a
00000300: ac72 642d 615a 292a 7601 542c d975 122a
00000310: 11f3 aa2a f2d8 ed2b 365a 702c 19b4 212b
00000320: 6a36 642b b2c5 8c2a 9861 1a2b 8cc0 0b2b
00000330: f663 272c 93c6 e52a 7828 532b d06d 822a
00000340: 3bac 582b 8873 522b 0f24 232b cdd3 a32d
00000350: c5ec 082c 59f6 302c 7086 0d2d 2d2b 982b
00000360: 0bba f029 2d90 192c edfc 682a 3051 3b2a
00000370: 188e fa2a 9efc d42b 8d90 462d b8aa 022a
00000380: 6cdd 392a bfda 1a29 83a8 042c e321 522b
00000390: e0d3 c62c 6dc2 462b 55aa 962c 9e28 4b2d
000003a0: 41ef b32c 54c9 8f2b a34e d92c 692d 9a2b
000003b0: ebd9 4f2c 44ff 8e2b db42 9b2a cccb 462c
000003c0: 0286 4b2b 9e32 e42b 7788 8a28 486e 182b
000003d0: 10c9 6f2c 169b 632a 2a84 e72c 143a a32b
000003e0: 28be cc2b 8dd4 c02c 04e2 c12b 6e2a 452c
000003f0: 8385 aa2a 2791 a52c 88f4 b02b 2d90 a62b

exp_avg f4 [64]
-7.325627e-05 -8.621457e-05 -5.169064e-05 -4.593431e-05 -0.00013474161 -4.3693955e-05 -6.2797764e-05 -5.9649694e-05
-3.2453623e-05 -5.0280785e-05 -9.198963e-05 -4.3728e-05 -0.000119555196 -5.711436e-05 -3.1919168e-05 2.0656016e-06
-2.8407705e-05 -3.7739926e-05 -7.206957e-05 -1.3578208e-05 -0.00013195458 -8.8173336e-05 -1.7392264e-05 -9.4748975e-05
-2.714026e-05 -9.56072e-05 -9.626456e-06 -2.2383687e-05 -8.504887e-06 -1.0366692e-05 -1.7757082e-05 -1.1385889e-05
-4.1925905e-05 -0.000108536595 -0.0001242534 -8.9699235e-05 -0.00012634105 -0.0001159702 -6.595017e-05 -5.7977028e-05
-1.599004e-05 -4.5060162e-05 -2.4116347e-05 -8.2134386e-05 -5.535851e-06 -7.464936e-05 -5.781705e-05 -2.5476807e-05
1.7132017e-05 -4.84394e-05 -4.0088114e-05 -9.545923e-05 -2.9898085e-06 -7.259728e-05 -4.4890166e-05 -2.6939057e-05
-6.8909577e-07 -9.776218e-05 -1.3706649e-05 -3.0605723e-05 -8.446794e-05 -1.4932261e-05 -3.2501735e-05 -5.5646382e-05
00000000: 29a1 99b8 18ce b4b8 67ce 58b8 97a9 40b8
00000010: 6d49 0db9 0744 37b8 4bb2 83b8 5f30 7ab8
00000020: d01e 08b8 95e4 52b8 8eea c0b8 9568 37b8
00000030: b5b9 fab8 148e 6fb8 f2e0 05b8 c49e 0a36
00000040: 154d eeb7 f04a 1eb8 0e24 97b8 f6cd 63b7
00000050: 4a5d 0ab9 b3e9 b8b8 9ae5 91b7 f8b3 c6b8
00000060: 44ab e3b7 ba80 c8b8 5081 21b7 9ac4 bbb7
00000070: 36b0 0eb7 9aec 2db7 0bf5 94b7 0506 3fb7
00000080: 99d9 2fb8 249e e3b8 054a 02b9 e91c bcb8
00000090: 6b7a 04b9 0735 f3b8 ba4e 8ab8 5c2c 73b8
000000a0: 5922 86b7 fbfe 3cb8 764d cab7 903f acb8
000000b0: 99c0 b9b6 128d 9cb8 9680 72b8 07b7 d5b7
000000c0: bab6 8f37 692b 4bb8 4924 28b8 4931 c8b8
000000d0: 85a4 48b6 5e3f 98b8 7348 3cb8 2ffb e1b7
000000e0: 4dfa 38b5 ac05 cdb8 9cf5 65b7 a55e 00b8
000000f0: 6124 b1b8 9385 7ab7 7952 08b8 d965 69b8

exp_avg_sq f4 [64]
1.0476065e-10 1.4577209e-10 7.29177e-11 5.780882e-11 3.775272e-10 4.956413e-11 8.646586e-11 9.3230354e-11
2.0299293e-11 5.4291818e-11 1.8351239e-10 5.877233e-11 2.9665997e-10 7.0957455e-11 3.1215953e-11 2.392218e-12
2.667122e-11 4.025901e-11 1.1130268e-10 4.9361513e-12 4.0210077e-10 1.8570229e-10 6.6327404e-12 1.9283322e-10
2.4897055e-11 1.9935498e-10 4.769821e-12 1.7114435e-11 1.7722557e-12 5.273477e-12 6.495241e-12 5.310928e-11
6.894283e-11 2.785515e-10 3.300627e-10 1.7010728e-10 3.891038e-10 3.0918298e-10 9.035357e-11 7.33795e-11
7.844209e-12 4.5014555e-11 1.3860108e-11 1.6032574e-10 1.097558e-12 1.3223414e-10 7.0125364e-11 1.3617788e-11
4.6649865e-11 1.6339094e-10 3.4260664e-11 1.7623052e-10 8.9586514e-13 1.1496133e-10 4.348274e-11 1.44473235e-11
7.7593686e-14 2.0359554e-10 4.8089626e-11 3.871525e-11 1.9051245e-10 2.5132684e-11 3.3401275e-11 7.0792025e-11
00000000: 015f e62e 3247 202f 0459 a02e f23e 7e2e
00000010: 3b8c cf2f 40fc 592e f423 be2e 0604 cd2e
00000020: f28d b22d 27c7 6e2e 25c6 492f e13d 812e
00000030: 2e17 a32f 7f09 9c2e 0a4a 092e 5e56 282c
00000040: 409a ea2d 9e0f 312e d7c1 f42e e6ac ad2c
00000050: a70e dd2f 8c2e 4c2f 6a5e e92c ba05 542f
00000060: 2fff da2d 7031 5b2f bad2 a72c 488a 962d
00000070: 3e6c f92b 428b b92c ee87 e42c bc93 692e
00000080: 5d9b 972e a322 992f 3274 b52f f108 3b2f
00000090: 7ee9 d52f a3f9 a92f 8ab0 c62e fc5c a12e
000000a0: 2dff 092d e2f9 452e 61d4 732d af47 302f
000000b0: b277 9a2b 9a64 112f 1235 9a2e 1191 6f2d
000000c0: 142b 4d2e 76a6 332f 14ae 162e 7bc4 412f
000000d0: e329 7c2b 7acd fc2e 373d 3f2e f628 7e2d
000000e0: b7b9 ae29 0ddb 5f2f 1b80 532e 7f45 2a2e
000000f0: 7d78 512f c611 dd2d 7ee6 122e 5eac 9b2e

exp_avg f4 [1, 64]
0.00027967614 -0.00022162359 4.4435965e-06 6.714493e-05 -0.0003101213 -0.00013994444 -0.00027062645 -1.0374266e-05
0.000245891 -0.00060215854 -0.000556283 -0.00024931788 -0.0002745291 -0.0006837815 8.6585555e-05 7.028669e-05
-0.00011944821 0.00011964291 -0.00034266544 9.264742e-05 -0.00046359948 -0.00025888497 0.00016794808 0.00029473894
-9.630383e-05 -0.00060768897 6.4081054e-05 -1.9137626e-05 9.297874e-05 1.47416185e-05 0.00017556461 0.00016291822
0.00020905618 -0.00049264665 -0.0004905705 -0.0003335391 -0.00060606096 -0.00048093966 0.00028771764 0.0001110643
0.00023750901 -0.00025339436 -0.00018155495 -0.00042091674 2.4121406e-05 0.00021216935 -0.0004792139 -0.00013623999
-1.2767967e-05 0.00017277325 0.00019611191 -0.00029149954 8.278413e-06 -0.00035392545 -0.00026937434 -0.00044250154
8.290951e-06 0.00011495876 0.00011109755 6.2390835e-05 -0.00051467214 3.272491e-05 -3.090615e-05 -0.00050855114
00000000: 7fa1 9239 a163 68b9 341a 9536 29d0 8c38
00000010: c797 a2b9 0dbe 12b9 dee2 8db9 220d 2eb7
00000020: eeea 8039 2dda 1dba 85d3 11ba e1b6 82b9
00000030: acee 8fb9 cd3f 33ba 4495 b538 e166 9338
00000040: 4580 fab8 cce8 fa38 c7a7 b3b9 b44b c238
00000050: 450f f3b9 f4ba 87b9 381b 3039 3187 9a39
00000060: baf6 c9b8 514d 1fba 4163 8638 bd89 a0b7
00000070: 95fd c238 c552 7737 c417 3839 07d5 2a39
00000080: 1736 5b39 f524 01ba a199 00ba dcde aeb9
00000090: 10e0 1eba a126 fcb9 cfd8 9639 31eb e838
000000a0: d70b 7939 04da 84b9 c95f 3eb9 7dae dcb9
000000b0: 5358 ca37 c779 5e39 003f fbb9 a5db 0eb9
000000c0: 0036 56b7 772a 3539 64a3 4d39 68d4 98b9
000000d0: 83e3 0a37 128f b9b9 d03a 8db9 8dff e7b9
000000e0: 5d19 0b37 0416 f138 0bfd e838 d3d7 8238
000000f0: 10eb 06ba 1b42 0938 3aa1 01b8 4a50 05ba

exp_avg_sq f4 [1, 64]
1.4916769e-09 9.732415e-10 2.037957e-09 3.761693e-09 1.8779838e-09 3.8565712e-10 1.447685e-09 4.0665236e-09
1.1509536e-09 7.3600885e-09 6.2357715e-09 1.2091612e-09 1.4510854e-09 9.514718e-09 3.750674e-09 2.2884397e-09
2.750708e-10 2.812086e-09 2.2902447e-09 2.7893845e-09 4.2296087e-09 1.2914255e-09 5.371447e-10 1.6611521e-09
1.8201071e-10 7.449068e-09 3.2771215e-09 1.204168e-11 1.6735868e-10 5.016638e-09 5.972838e-10 4.498126e-09
3.9122354e-09 4.828043e-09 4.849049e-09 2.1639992e-09 7.484555e-09 4.607253e-09 1.5836212e-09 2.5349247e-09
3.2109564e-09 1.2368506e-09 6.391351e-10 3.5380792e-09 1.18729766e-11 4.4554826e-09 4.553243e-09 3.611957e-10
2.5086584e-09 2.956707e-09 7.3485096e-10 1.6389072e-09 8.822326e-12 2.477538e-09 1.4244184e-09 3.8892387e-09
1.4807219e-12 3.653823e-09 2.451245e-09 3.5295498e-09 5.264556e-09 3.057861e-09 5.0068927e-09 5.1189235e-09
00000000: b703 cd30 e4c2 8530 1e0c 0c31 3440 8131
00000010: d70d 0131 6a04 d42f e3f7 c630 85b9 8b31
00000020: 942f 9e30 06e4 fc31 6d42 d631 942f a630
00000030: 876f c730 2c76 2332 47df 8031 a842 1d31
00000040: c638 972f bd3e 4131 6962 1d31 5faf 3f31
00000050: 0854 9131 ff7d b130 33a6 1330 984e e430
00000060: 761f 482f b2f2 ff31 bb33 6131 e8d6 532d
00000070: 4803 382f d15e ac31 1c2e 2430 ef8d 9a31
00000080: 636c 8631 eae3 a531 b09c a631 7ab5 1431
00000090: 6c95 0032 d34d 9e31 b8a6 d930 de32 2e31
000000a0: bea7 5c31 d0fd a930 22af 2f30 8c22 7331
000000b0: 22df 502d d716 9931 c072 9c31 c791 c62f
000000c0: c964 2c31 f12e 4b31 8afe 4930 ec3f e130
000000d0: 3934 1b2d 4f41 2a31 44c5 c330 1ba2 8531
000000e0: a164 d02b bc16 7b31 c272 2831 7f8c 7231
000000f0: 86e3 b431 7622 5231 1809 ac31 87e2 af31

exp_avg f4 [64, 128]
-5.097494e-06 5.496174e-05 -6.250504e-05 0.00012824796 0.00022779603 0.0002335834 -0.0002867144 0.00027136333
1.7377117e-05 0.00039365242 -0.00014442988 9.376262e-05 -0.00027501868 0.00026945438 -8.672142e-05 -0.00027929235
-2.7693199e-05 0.0002124314 0.00050127634 -2.1901214e-05 -5.5876513e-05 -0.00027400343 -0.00014000092 0.00024687446
-7.439357e-05 2.3893324e-05 -0.00033281272 -0.00040153848 -0.0003159144 -0.00015398637 6.563528e-05 0.00021013593
-0.001022319 -0.0002986129 0.00043849088 -2.2200544e-05 0.00021421126 0.0009479687 0.00025462426 -2.1250093e-05
-2.314935e-05 5.053097e-05 0.0001682689 -0.00019498759 3.4653865e-05 8.884681e-05 4.7196514e-05 -9.373434e-05
-0.00019409822 3.370087e-06 2.8263801e-05 -1.7380904e-05 2.7422826e-05 2.5782685e-05 0.00010990567 -0.00021819913
0.00019435756 0.00023189372 0.0001452324 5.8756286e-05 7.2065236e-06 0.00035225519 0.00055753114 0.00018169863
-0.00025471213 0.000342604 0.00012182567 1.2503981e-05 0.00024910146 0.00033686566 9.873556e-05 -4.4738514e-05
-0.00014195433 4.5783145e-05 0.00028653385 -2.183618e-06 -0.00046340306 -0.00019364452 7.4244366e-05 2.3805941e-07
-0.0001028446 -0.0003353493 0.000113042115 0.0007895365 -0.00048807796 0.0002887366 -0.0006799804 9.8146724e-05
-4.808453e-05 0.0003698054 2.2460617e-05 0.00016596976 0.00020977421 5.884681e-05 0.00032821525 -6.8995905e-05
5.69474e-05 0.00018544898 0.00039562862 -8.237924e-05 -0.00026606157 8.094386e-05 -0.00024092132 -0.0003933915
0.0005332236 0.0001135627 6.41824e-05 0.00011870341 -0.00017573971 3.650711e-05 3.677316e-05 0.00043161618
9.10992e-05 -0.00022229433 5.8394748e-05 -0.00016018529 0.00010278815 -0.00010465846 -0.00049956096 -1.7963073e-05
0.00033760758 0.00020355429 0.00010149279 -7.102306e-05 0.00034525295 0.00026761962 -0.00022862961 -0.00028655675
-0.001747778 0.0011813181 -0.004613769 -0.0006884531 -0.0021242902 -0.00037594017 0.00037477963 -0.0018227414
5.966709e-05 -0.0012039249 0.0013076721 -0.00016278775 0.006455765 -0.0016962739 -0.0013349457 0.003565552
0.0007366673 -0.0012441247 -0.00326181 -0.000106068044 -9.092611e-05 0.008137064 0.0016358878 -0.0021603995
-0.00018056677 0.0004590046 -8.438082e-05 0.002157969 0.0036382193 0.0007533223 -0.00027555137 -0.0033755077
0.009492279 0.0027320045 -0.00083139195 -0.0003576519 -0.0011322664 -0.0061380924 -0.0016492386 0.0003724978
0.00031462428 -0.002389208 -0.00092099496 -0.00031657357 -0.0011778917 -0.00018973097 0.00019920387 0.0025637932
0.00015152112 0.00096311123 0.0011739321 0.0027441862 0.000540522 -0.0012340929 0.00032008998 0.0049167164
0.004573468 -0.002320799 -8.873478e-05 4.2015537e-05 -0.0004900643 -0.001982645 -0.0063236696 -0.0027849304
0.00038428948 -0.0026296654 0.0010598593 -0.0005397322 -0.0040878206 -0.001094495 0.00360307 -0.00011168821
-0.0011245892 -0.0006562021 -0.0020652777 0.0023168635 0.010330445 0.0014729195 -0.00033641234 0.0005031258
-0.0010025596 0.0023239818 0.0017378062 -0.006418841 0.004176558 -0.0034814165 0.005020683 0.0025895683
-0.0006765792 0.0042261593 -0.0037553655 -0.001834693 -0.00059056125 -1.520717e-06 -0.0032634966 0.0012759304
-0.00038766421 -0.002223122 -0.002362433 0.00222643 0.0043609315 0.0007361389 0.0020131452 0.0033953707
-0.0040074154 -0.0011190012 0.0018179123 -0.0017828408 0.00053200324 0.00017602525 -0.00023781553 -0.002172057
0.001875589 0.00063096784 0.0019934615 -1.9387415e-05 0.0023608962 0.00020275831 0.0024603684 -0.00044205145
-0.0024385676 -0.005123869 0.00019812872 0.0020163245 -0.0058191167 -0.001203399 -0.0006205876 0.0007673237
00000000: 240b abb6 b886 6638 2315 83b8 4d7a 0639
00000010: 88dc 6e39 11ee 7439 2852 96b9 c545 8e39
00000020: 13c5 9137 2263 ce39 1a72 17b9 6ca2 c438
00000030: 6230 90b9 8e45 8d39 35de b5b8 fc6d 92b9
00000040: b14e e8b7 1fc0 5e39 1668 033a 80b8 b7b7
00000050: f35c 6ab8 1ea8 8fb9 36cd 12b9 ee6e 8139
00000060: be03 9cb8 866e c837 5e7d aeb9 9585 d2b9
00000070: 50a1 a5b9 6777 21b9 aca5 8938 ef57 5c39
00000080: 55ff 85ba 258f 9cb9 40e5 e539 4e3b bab7
00000090: e69d 6039 1a81 783a 177f 8539 3a42 b2b7
000000a0: da30 c2b7 37f1 5338 5771 3039 9575 4cb9
000000b0: 4e59 1138 4553 ba38 dff4 4538 3e93 c4b8
000000c0: d886 4bb9 a729 6236 0d18 ed37 35cd 91b7
000000d0: 120a e637 e547 d837 287d e638 62cc 64b9
000000e0: 76cc 4b39 7f28 7339 8749 1839 1571 7638
000000f0: 91cf f136 e4ae b839 4827 123a 5b86 3e39
00000100: e28a 85b9 889f b339 a97c ff38 31c8 5137
00000110: d599 8239 589d b039 4010 cf38 9da5 3bb8
00000120: 93d9 14b9 4707 4038 ec39 9639 468a 12b6
00000130: e8f4 f2b9 0e0d 4bb9 a4b3 9b38 469d 7f34
00000140: 46ae d7b8 d2d1 afb9 0611 ed38 e6f8 4e3a
00000150: b7e4 ffb9 9261 9739 b640 32ba 1fd4 cd38
00000160: 5fae 49b8 71e2 c139 cf69 bc37 2b08 2e39
00000170: d6f6 5b39 48d2 7638 4e14 ac39 e5b1 90b8
00000180: ceda 6e38 1575 4239 606c cf39 05c3 acb8
00000190: 2e7e 8bb9 67c0 a938 d39f 7cb9 1d40 ceb9
000001a0: 08c8 0b3a 8328 ee38 aa99 8638 68f0 f838
000001b0: c546 38b9 361f 1938 e13c 1a38 8b4a e239
000001c0: 830c bf38 ae17 69b9 e2ec 7438 69f7 27b9
000001d0: f88f d738 157c dbb8 f8f4 02ba 68af 96b7
000001e0: ec00 b139 3071 5539 87d8 d438 37f2 94b8
000001f0: 1103 b539 4c4f 8c39 4bbc 6fb9 ff3c 96b9
00000200: b315 e5ba 75d6 9a3a 192f 97bb 4e79 34ba
00000210: ad37 0bbb d619 c5b9 127e c439 0de9 eeba
00000220: 0d43 7a38 04cd 9dba 3266 ab3a 01b2 2ab9
00000230: e28a d33b 8255 deba 58f9 aeba 09ac 693b
00000240: e81c 413a e611 a3ba 17c4 55bb d970 deb8
00000250: 95af beb8 5251 053c 496b d63a 7d95 0dbb
00000260: 8656 3db9 8ea6 f039 9cf5 b0b8 b66c 0d3b
00000270: 316f 6e3b 9b7a 453a e177 90b9 9f37 5dbb
00000280: 8185 1b3c 6e0b 333b c5f1 59ba 3a83 bbb9
00000290: 8e68 94ba 0d22 c9bb 442b d8ba cf4b c339
000002a0: 28f4 a439 4294 1cbb ed6e 71ba c9f9 a5b9
000002b0: 7d63 9aba 85f2 46b9 62e1 5039 5005 283b
000002c0: a4e1 1e39 4d79 7c3a a0de 993a ced7 333b
000002d0: d1b1 0d3a 49c1 a1ba c0d1 a739 681c a13b
000002e0: 08dd 953b 8c18 18bb 1f17 bab8 d739 3038
000002f0: a977 00ba 43ef 01bb c936 cfbb 6183 36bb
00000300: 767a c939 7756 2cbb faea 8a3a d17c 0dba
00000310: 20f3 85bb 2875 8fba 7c21 6c3b 273a eab8
00000320: f466 93ba fa04 2cba 9c59 07bb 85d6 173b
00000330: 0741 293c fa0e c13a 8060 b0b9 33e4 033a
00000340: 5168 83ba f24d 183b 1ac7 e33a 2455 d2bb
00000350: 82db 883b 7a28 64bb 8b84 a43b bfb5 293b
00000360: 765c 31ba 987b 8a3b 941c 76bb 157a f0ba
00000370: e5cf 1aba 701b ccb5 63e0 55bb 1f3d a73a
00000380: 693f cbb9 ccb1 11bb 0cd3 1abb 4ce9 113b
00000390: 25e6 8e3b 72f9 403a f9ee 033b de84 5e3b
000003a0: a350 83bb 73ab 92ba 0447 ee3a 36ae e9ba
000003b0: 2276 0b3a 6b93 3839 1f5e 79b9 1259 0ebb
000003c0: 53d6 f53a 8967 253a bca4 023b 28a2 a2b7
000003d0: 44b9 1a3b 859b 5439 223e 213b 24c3 e7b9
000003e0: 60d0 1fbb 21e6 a7bb c6c0 4f39 5024 043b
000003f0: 4aae bebb 5fbb 9dba eeae 22ba 3926 493a
