checkpoints/checkpoint_epoch_50.pt (torch, 212555 bytes, 18 tensors)

fc1.weight f4 [64, 128]
000000 c4 1f 44 bc 46 8d 8e 3d 02 59 00 3e 51 d3 ba b9
       -0.011970464 0.069605395 0.12533954 -0.00035634128
000010 03 fe 09 be 35 4c a6 bd fd 0f 39 bd 04 71 e4 3c
       -0.13475804 -0.08120004 -0.045181263 0.027885921
000020 be 92 85 3d b3 db 38 bc df f9 9f bc 85 d4 85 bc
       0.065221295 -0.011282849 -0.019528328 -0.016336689
000030 6a 75 ab 3c 22 7f 22 3d 5a e7 a0 3b 3c cc 2f bd
       0.02093001 0.039672025 0.0049103918 -0.042919382
000040 70 91 50 3d 02 62 f8 3c a3 1a e2 3d 56 86 3c bd
       0.05091995 0.030320171 0.11040237 -0.04602655
000050 d5 3b 54 bd 45 14 aa bd 23 69 77 bc 96 8e 0c be
       -0.051814873 -0.08304647 -0.01510075 -0.13726267
000060 21 93 b5 bd be 45 4c 3d 06 b5 f3 3d 8a 7d ed 3d
       -0.08865953 0.0498712 0.11899762 0.1159621
000070 c1 ea 96 bd 6f 9b 98 bd ba 60 d7 3c 14 fb b7 bd
       -0.073689945 -0.074515216 0.02629124 -0.08983436
000080 f7 aa a9 bd 32 f7 48 3d cb 0a ba bc 1b 53 0d bd
       -0.08284562 0.04906387 -0.022710225 -0.034503084
000090 68 16 90 3c 44 1f dc bd 97 67 61 3d c0 be c2 3c
       0.01758881 -0.10748151 0.05503043 0.023772597
0000a0 5d 6e 4c bd ba 8e e7 bc f3 3b bc 3d c9 78 c3 3c
       -0.049909938 -0.0282663 0.09191122 0.023861306
0000b0 9c 0b c6 3c 68 a7 fc 3c 73 7e d1 3d e5 7f 35 3d
       0.024175458 0.030841544 0.102291964 0.044311423
0000c0 ce b6 b5 3c 53 da 12 bd 34 0f 80 bd 74 77 d2 bc
       0.022181895 -0.03585274 -0.062529 -0.025691725
0000d0 af e6 04 3c ed 4f 7b bd 55 73 bf 3c 9a 49 00 3d
       0.00811164 -0.06135552 0.023370424 0.031320192
0000e0 10 fd a3 bd 61 c2 81 bd dc 9c 1e 3d ec 52 8b bd
       -0.08007252 -0.06335903 0.03872381 -0.068029255
0000f0 c6 a9 94 3b f3 88 93 3d 7e 29 0d bd 08 19 63 3d
       0.00453684 0.07203855 -0.0344634 0.055443794
000100 36 62 14 3c ae 05 4e bd 5e 42 5d 3d 79 bb 54 bd
       0.009056618 -0.050298385 0.05401837 -0.0519366
000110 92 fe 1c bd c1 5f 6f bd 18 65 0b bd 6c c5 71 3d
       -0.038328715 -0.058440927 -0.034031957 0.059026167
000120 5e 7f 04 be 60 26 a5 3d 73 8f b9 3d fe 29 7e bd
       -0.12939212 0.0806396 0.09060564 -0.062051766
000130 d4 ef 83 bd 49 44 de bd ae 5a 9b 3c 2a 27 8a bd
       -0.06442228 -0.10852868 0.018964138 -0.06745751
000140 1c ee ed bc ea 7d cf bc 99 8e 97 bd 9b 53 17 bd
       -0.029044203 -0.025328595 -0.07400245 -0.036944967
000150 85 28 a6 3d a0 ae 93 bc e9 15 02 be 8b 14 fd 3d
       0.08113197 -0.018027604 -0.1270367 0.12357434
000160 02 6a 11 bd d2 dd cc 3d 27 f1 8d 3d d2 53 37 3d
       -0.035501488 0.10003246 0.06930762 0.04475767
000170 f6 23 8c 3d e4 69 94 bd 03 96 a6 bd d4 a2 73 3d
       0.068427965 -0.072467595 -0.08134081 0.059481457
000180 ec 76 4b bb 53 c6 d5 3d 4d 54 86 3d 66 9f e7 bc
       -0.0031046225 0.10438218 0.06559048 -0.02827425
000190 10 e5 b0 bd 4b ee 3f bd 0d 62 c4 3d b0 da b2 bd
       -0.0863744 -0.046858113 0.09589014 -0.087331176
0001a0 b4 9c 0d 3e 19 30 a5 bd c6 d8 bf bd 03 ba ad bc
       0.13829309 -0.080658145 -0.09367518 -0.021206861
0001b0 dc 85 09 3d ec c4 10 3d 12 50 aa bd 43 85 7e 3d
       0.033574924 0.03534405 -0.083160535 0.062138807
0001c0 68 a9 e7 bd 9c 60 70 bd 06 29 1c bd ff 8e ea 3c
       -0.113116086 -0.058685884 -0.03812506 0.028632639
0001d0 19 20 3e 3d 1a 12 3e bc 94 50 8f bc 1c 15 23 3c
       0.04641733 -0.011600995 -0.017494477 0.009953763
0001e0 30 db 3b 3d 3d 84 d3 3c 15 de 6e bd 53 c1 eb bd
       0.04586333 0.025819892 -0.058317263 -0.11511483
0001f0 7f 22 b8 3d 81 f8 d1 bc c6 11 d2 bc 46 50 66 3d
       0.089909546 -0.025631191 -0.02564324 0.0562289
000200 15 09 39 bc 35 3e 5e 3d d8 21 a6 bb bd d6 a7 3d
       -0.011293669 0.054258544 -0.0050699525 0.08195255
000210 d9 b3 0f bc c8 80 a2 3d 19 af 1b 3d f1 3d d7 bc
       -0.008770906 0.07934719 0.038008783 -0.026274653
000220 22 fc a1 3d 51 72 13 3e 79 fc d8 bd 12 e2 6e bc
       0.07909419 0.14399077 -0.1059503 -0.014580267
000230 b5 b8 b7 bd 21 28 45 3d 8d e8 99 bc 7e e8 b0 bc
       -0.08970777 0.048133973 -0.018787647 -0.021595236
000240 12 da 19 bd f2 3c 03 3e 50 69 a8 3d 2f c7 48 3d
       -0.037561484 0.12816218 0.08223212 0.04901808
000250 33 76 37 bd 86 46 68 3d 02 56 ae 3d bc b5 d1 bc
       -0.044790458 0.05670788 0.085124984 -0.025599353
000260 73 45 a9 3d 35 b1 14 bc 40 9d 59 bd 20 97 9c bd
       0.082651995 -0.009075453 -0.05312848 -0.07646012
000270 15 6d 21 bd 86 2a cf 3b a4 1a 9e bd f8 91 ab 3c
       -0.03941067 0.006322208 -0.07719925 0.020943627
000280 bd ca a7 3d 43 d3 eb 3d 17 36 85 bc 54 09 9e 3d
       0.08192966 0.11514904 -0.016261144 0.07716623
000290 42 1d fb 3d 55 bd fb bc 03 e8 0d 3d 37 f9 32 bc
       0.1226144 -0.030729929 0.03464509 -0.010923675
0002a0 e1 15 d6 3d 97 a4 83 3c 29 21 08 3e f7 a2 08 bc
       0.10453392 0.016069693 0.132939 -0.008339635
0002b0 c6 32 12 3e 7a 62 05 3e 95 16 20 3c 55 c4 db bd
       0.14277181 0.13025847 0.009771009 -0.10730807
0002c0 70 5b 2b 3d ce 91 eb 3d d1 0d b5 3b 25 20 8b 3c
       0.04183525 0.115024194 0.0055253287 0.016983101
0002d0 26 d8 ae bb 27 1c 94 3d d2 8d 5d bd a1 7c 4c 3d
       -0.0053358255 0.07231932 -0.05409033 0.049923543
0002e0 8a 5c d2 3b 36 66 c5 bd d3 e0 90 bd 5d 0f 1f bc
       0.006419723 -0.09638636 -0.07074132 -0.009708253
0002f0 a7 aa b0 3c 51 0a d9 3c 39 65 68 bc 1f 05 e5 bd
       0.021565748 0.026494177 -0.01418429 -0.111826174
000300 f4 07 c9 3a 4b f5 82 bc b1 bc 95 3b c4 0d b1 3d
       0.0015337453 -0.015986105 0.004569613 0.08645204
000310 16 56 d4 bd 8d da 99 bc 54 41 b5 3d c1 f7 c4 3d
       -0.10367982 -0.018780971 0.08850351 0.09617568
000320 1c 1b 69 3d a1 43 94 3d 83 93 33 3d 75 67 c9 3d
       0.05691062 0.07239462 0.04384185 0.09834186
000330 76 20 e8 3d a6 20 86 3d ea 27 ae 3d a8 08 9e 3d
       0.113343164 0.06549196 0.08503707 0.07716495
000340 dc 0b 07 bd 97 90 3e bc ef 3d d8 3d 84 ab b5 3d
       -0.032970294 -0.011631153 0.10558688 0.08870605
000350 e8 ff 2c bd 8b d2 21 3d f8 5f ae 3d 9c 1a e8 bd
       -0.04223624 0.03950743 0.08514398 -0.113332
000360 a0 fd 61 bd 99 06 91 3d 83 16 88 3d 5a 97 ad 3c
       -0.055173516 0.070813365 0.06644919 0.021190334
000370 97 8d 91 bc db f6 10 be bf 4e c7 3b 7b fc 93 bc
       -0.01776771 -0.14156668 0.0060823853 -0.018064728
000380 af fc 75 bc 88 ab 90 3d ea e0 27 bc 6a 39 57 3d
       -0.015013858 0.07063967 -0.010246495 0.05254499
000390 ff 0d c4 bd d2 17 d5 3d 1c ba 9b bc c1 ca b5 3c
       -0.09572982 0.10404934 -0.019009642 0.022191407
0003a0 15 5d 45 3d 22 46 3f bc 0e 4d dd 3d c3 79 4e bd
       0.048184473 -0.011674436 0.10805713 -0.05040909
0003b0 39 35 85 bd 23 fd 02 3e fb 4f 94 bd 00 ff 8f 3d
       -0.06504292 0.12791876 -0.072418176 0.07031059
0003c0 14 8a 77 3d 4f 3d f5 bd 82 a3 87 3b a8 7d ef bd
       0.060434416 -0.11974584 0.0041393647 -0.11693889
0003d0 02 40 b5 bd e6 4f ac 3d 97 fd 85 bd 2e 1c f8 bd
       -0.08850099 0.08413677 -0.06542509 -0.1211475
0003e0 24 77 34 3c a0 60 00 be 6e 74 e0 3d f2 11 c1 3d
       0.011014733 -0.1253686 0.10959707 0.09427251
0003f0 bf da d2 3d 04 09 c5 3d 78 86 e0 bd 6e b0 88 3d
       0.10295629 0.0962086 -0.10963148 0.06674276

fc1.bias f4 [64]
000000 b5 5e 4e 3d f6 f2 4c 3d 77 98 db 3c 60 52 01 bd
       0.05038329 0.050036393 0.0268061 -0.0315727
000010 ba 77 c8 3d 1e ce f8 bc be f9 b8 3c 31 68 78 bc
       0.09788461 -0.030371722 0.022580024 -0.01516156
000020 64 74 80 b9 42 a1 d0 3d ce 4d a9 3d 1e 27 b2 3d
       -0.0002450078 0.101870075 0.08266793 0.08698867
000030 70 f3 e6 3a c5 61 d3 3d 64 24 3a 3c 01 88 9c 3d
       0.0017620157 0.103213824 0.011361215 0.07643128
000040 f6 49 88 39 b6 80 a5 3d 49 ff ca 3d e0 6f b3 3a
       0.00025995047 0.0808119 0.09911973 0.0013689958
000050 5d 12 60 3d 43 9d bf bc b6 61 06 bd 64 f6 b8 3d
       0.054705013 -0.023390418 -0.03280803 0.0903137
000060 74 58 9c bc 20 f1 07 3e cc 49 9e 3d 0f 71 9a ba
       -0.019085146 0.13275576 0.077289194 -0.0011782962
000070 44 71 95 3b e4 8c a5 bc 3c f1 80 3d 6f bc 71 3d
       0.0045606215 -0.020208783 0.06296012 0.059017595
000080 5a b6 70 3d 75 93 c5 3d 51 e7 de 3d 82 dd 66 bc
       0.058767654 0.09647266 0.10883964 -0.0140908975
000090 56 90 a0 3d 1d a5 8e 3d b0 68 91 3d 8a ce 87 3d
       0.0784003 0.069650866 0.07100046 0.06631191
0000a0 c5 36 e6 3d f0 40 6e 3c a2 1a 3d bc 5a e0 66 3c
       0.11240915 0.0145418495 -0.011541994 0.0140915755
0000b0 bc 69 98 bc 8d 1b ce 3d b5 1b b0 3d 83 2a 82 bc
       -0.018605106 0.10063849 0.08599035 -0.015889412
0000c0 4c ab a0 3d 54 57 44 3d fc f4 1f bd 8c c0 dd b9
       0.07845172 0.047934845 -0.039051995 -0.00042295863
0000d0 c6 df d7 bc 2c e5 f8 3d 5e e2 94 3d 10 f1 0a 3d
       -0.02635182 0.12153086 0.072697386 0.0339213
0000e0 62 a7 13 bd 8d 44 8a 3a 6f 01 72 3d 00 c5 ac 3d
       -0.0360483 0.0010548994 0.0590834 0.08436012
0000f0 93 d2 ae 3d e7 34 a5 3d 81 cd 10 bd d4 bf a6 3d
       0.085362576 0.08066731 -0.035352234 0.08142057

fc2.weight f4 [1, 64]
000000 7a 55 ff bd 0b 95 23 3e e1 28 c0 bd ec 9f c8 bd
       -0.12467475 0.15974824 -0.09382797 -0.09796128
000010 75 0a 1c 3e b9 58 31 3e bd 90 26 3e 83 23 da bd
       0.15238364 0.17319001 0.16266151 -0.106513046
000020 a2 e7 b0 bd 95 d6 ae 3d db f1 c9 3d 86 aa de 3d
       -0.086379305 0.08537022 0.098605834 0.108723685
000030 e6 2a 35 3e 2b 0c 9e 3d 15 c8 a1 bd d3 95 c1 bc
       0.17692146 0.077171646 -0.07899491 -0.023631012
000040 c4 57 05 3e df 38 86 bd 4e 9d e4 3d 30 ff 12 bd
       0.13021761 -0.06553816 0.11162816 -0.035887897
000050 4d 14 13 3e d4 b4 1a 3e 78 d6 82 bd 42 37 1a be
       0.14363213 0.15108043 -0.06388563 -0.15060142
000060 62 b5 1d 3e 5f 5c dc 3d d5 d9 0c bd 97 73 dc 3d
       0.15401223 0.10759806 -0.03438743 0.107642345
000070 77 12 2c bd cd 5c e8 bc f0 c4 39 bd 8f e5 c4 bd
       -0.042009797 -0.028364563 -0.04535383 -0.09614097
000080 ee 3b eb bd f1 ed ff 3d 30 5b 09 3e 3e 34 01 3e
       -0.1148604 0.124965556 0.13413692 0.12617585
000090 0b e4 24 3e d3 16 10 3e cd ca 05 be 21 79 c4 bd
       0.16102616 0.14071207 -0.13065644 -0.09593416
0000a0 78 61 37 bd de 83 cb 3d 57 a2 92 3d 17 e4 e7 3d
       -0.044770688 0.09937261 0.0715987 0.113228016
0000b0 bb f8 82 bd 2a 40 18 be 36 3e c4 3d 0e e5 d1 3d
       -0.06395098 -0.14868227 0.09582178 0.10248767
0000c0 61 de a0 bd 85 df 0d be 37 71 f8 bd 31 82 04 3e
       -0.078549154 -0.13854797 -0.12130969 0.12940289
0000d0 d5 6f 10 bd 2a 95 b2 3d b6 e4 b5 3d 81 06 5f 3d
       -0.0352629 0.08719857 0.08881514 0.054449562
0000e0 97 ac 24 bd 85 4c fc bd 26 e8 9b bd a0 5c a1 bd
       -0.040203657 -0.123192824 -0.07612638 -0.07878995
0000f0 ff 7a ef 3d 11 89 82 bd 30 0d c5 bd fb 83 94 3d
       0.116933815 -0.063737996 -0.09621656 0.07251736

fc1.weight f4 [64, 128]
000000 2b e5 62 bd c9 ad 03 3d ed 24 a8 bd 0b 1f 38 3d
       -0.055394333 0.032148156 -0.08210168 0.04495148
000010 ec 3b 1d bb f4 96 71 3d e8 49 44 bd 93 c2 eb bc
       -0.0023992015 0.05898185 -0.047922045 -0.028779304
000020 93 7e 98 bd 3a 18 eb 3c 96 af b9 3d b6 b9 a4 3c
       -0.07446017 0.028698076 0.090666935 0.020108085
000030 5b 0c 9b 3c 22 1f 45 3d 86 b2 ea bc e0 cc d0 3d
       0.01892679 0.048125394 -0.02864958 0.10195327
000040 4e 22 6a bc d3 d9 4a 3d ec 72 d8 bc 33 16 18 3b
       -0.014290405 0.04952414 -0.026421987 0.002320659
000050 64 35 5b 3d 41 95 14 bb 3c dd 05 3c ad fb 5c 3d
       0.053517714 -0.002267197 0.008170422 0.053950954
000060 8e c2 ec 3b 22 32 34 bd 92 3e 22 bd 25 d5 76 3d
       0.007225341 -0.043993123 -0.039610453 0.060261864
000070 b4 ae d3 3c 00 f4 88 bd bc 63 ca 3d 6f 12 aa bc
       0.02584014 -0.06687164 0.09882304 -0.020760743
000080 34 7f 65 3d 07 e2 9b bc bd 37 72 3c 38 f6 57 3d
       0.056029513 -0.019028677 0.014783797 0.052725047
000090 d1 0b cd 3b 9a d0 1e 3d 42 b3 91 bd 2b d9 92 3d
       0.006257512 0.038773157 -0.07114269 0.07170328
0000a0 b3 4c 65 3d 0b 9b 7a bd 1c f9 31 bd 5c 5f 85 bd
       0.05598135 -0.061183017 -0.04345046 -0.06512329
0000b0 d6 7f 03 bc 40 f9 04 3b d7 8a 45 3b 6c 15 95 3b
       -0.008026084 0.0020290166 0.003014257 0.004549673
0000c0 07 7b 96 3d 3f 70 1d 3d e3 6d 28 3d 4d 6f c8 3d
       0.07347684 0.038437124 0.04112042 0.09786854
0000d0 3c 8c 35 bd 80 f2 6d bc c8 c7 3b bc a1 56 aa 3d
       -0.04432319 -0.014523149 -0.011461206 0.083173044
0000e0 6e a7 8c 3d 48 05 90 bc 9d 81 f8 3b 4b 2a 83 bb
       0.06867872 -0.017580643 0.0075838105 -0.0040028444
0000f0 16 a7 2b bd 70 3e ff 3c 11 44 8f bd d2 0a 28 3d
       -0.041907392 0.031157702 -0.069954045 0.041025944
000100 50 44 74 bc e5 b1 cf bc b4 f9 67 3d 30 90 45 bc
       -0.014908865 -0.025353381 0.05663462 -0.012058303
000110 00 dc 4f bd 78 b3 e7 bd 71 47 a7 bc 7c c7 6c bd
       -0.050746918 -0.11313528 -0.020419808 -0.05780743
000120 32 59 14 bb 1d 05 c9 bd 82 f6 4d bd 35 95 9c 3b
       -0.0022636172 -0.098154284 -0.050283916 0.004778529
000130 b2 28 8c bc 73 3d 3b 3d 3f 82 a5 bc 12 94 e4 3b
       -0.017109249 0.0457129 -0.020203708 0.006975659
000140 15 0f ef 3c e7 6c ba 3d 30 99 f6 bc c7 8a 15 bd
       0.029181996 0.09102803 -0.030102342 -0.0365093
000150 59 d4 9b 3c bb 5b 05 bd a2 4f 8f 3c d9 96 d6 3c
       0.019022154 -0.032558184 0.017494027 0.026194977
000160 26 b1 a8 bb da e9 56 3d 3c 42 38 bd f1 bd 02 3d
       -0.005148071 0.052469112 -0.04498504 0.031919423
000170 7d 76 f5 bc b8 5f e4 3c 46 c4 93 ba 7d 82 98 bd
       -0.029963726 0.027877674 -0.0011273704 -0.07446764
000180 e3 7d b7 bd 4d d7 31 3d 96 35 9a ba 83 a9 a4 3d
       -0.08959558 0.043418217 -0.0011765237 0.08040144
000190 51 e1 66 3c 43 d0 cc 3c 2e 97 a8 3d 96 ee 70 3d
       0.014091806 0.02500165 0.0823196 0.058821283
0001a0 ab 94 54 3d c5 2a 7f bd 59 e8 72 3d b4 df 0c 3d
       0.051899593 -0.062296648 0.059303615 0.034393027
0001b0 23 75 2e bd 55 a5 86 bd 79 99 96 bd 28 24 09 3c
       -0.04259218 -0.06574503 -0.07353491 0.008370437
0001c0 bb dc 44 bc 43 87 9d 3d d1 1a 31 bd 2a 62 19 bd
       -0.012015517 0.07691815 -0.043238465 -0.037447132
0001d0 a3 3e 71 3d 9c d8 37 3c 6a 27 cd bc fc 0d 30 bd
       0.058897626 0.011221077 -0.025043208 -0.042982087
0001e0 c3 20 c7 3c ea e6 a1 bd ea 0f a9 bc 8a 6a ce 3d
       0.024307614 -0.079053715 -0.020637471 0.100789145
0001f0 3f fe 1c bd fa d4 aa bd d8 00 37 3d 9d b9 81 bd
       -0.038328405 -0.08341403 0.04467854 -0.06334231
000200 ca 4e ee bc 95 76 de bd a2 bd 80 3d 27 98 f6 3d
       -0.029090304 -0.108624615 0.062861696 0.120407395
000210 1f c9 57 bd 92 7b cf 3d f3 ca 65 bd 72 1b 01 3e
       -0.05268204 0.10130991 -0.05610175 0.12608126
000220 dd 9a 14 bd b7 75 85 3d fc c7 a3 bd b2 b3 0f 3d
       -0.0362805 0.06516593 -0.07997128 0.03508348
000230 af 2f e5 bc e1 d3 f5 3d ea 74 b4 3c 12 e5 05 be
       -0.027976839 0.12003303 0.022028405 -0.13075665
000240 6d bd 89 3c a9 52 11 3e c1 b2 10 3e f7 36 1b 3c
       0.016813958 0.14191689 0.14130689 0.009473554
000250 84 54 1e 3d 91 c5 a0 3c 46 bd 8a 3c 55 60 e4 3d
       0.03865482 0.019625457 0.016935956 0.111511864
000260 43 67 14 bd c9 7d 57 bd cd 10 09 3d e5 dc b6 ba
       -0.03623129 -0.052610192 0.033463288 -0.001395133
000270 dd 76 99 bd f7 d8 c7 bd de b3 ad 3c d2 27 c3 bc
       -0.074933745 -0.0975818 0.021203931 -0.023822699
000280 48 42 45 bd df 95 f3 bd 5c 19 6a 3a 75 20 11 3d
       -0.048158914 -0.1189382 0.00089301704 0.035431344
000290 e2 43 f9 3d b8 3e 00 3c 87 12 b4 3c f7 2f b5 bd
       0.12171151 0.007827453 0.02198149 -0.08847039
0002a0 43 aa c6 bd 69 7a f1 bb cc ed ca 3d 74 94 92 bc
       -0.097004436 -0.0073693288 0.099086374 -0.017893054
0002b0 b5 89 76 bd df 74 bf 3d 97 91 29 bc 25 ca 3b 3d
       -0.06018992 0.09348463 -0.010349653 0.045847077
0002c0 f6 ec ad bc 35 60 ae bd 86 67 16 bd c8 9c e4 3b
       -0.021231156 -0.08514444 -0.03671982 0.0069766976
0002d0 01 bb 02 be 54 1d 59 3d 6f 30 79 3d 62 0a 95 bd
       -0.12766649 0.053006485 0.060837205 -0.07277371
0002e0 39 11 a3 bc 33 35 d3 3d f9 02 8c 3d 29 cc 86 3d
       -0.019905673 0.10312881 0.068365045 0.06581909
0002f0 d0 c2 02 bd 53 ab 80 3b 9e c7 89 bc 84 83 5f 3d
       -0.03192407 0.0039266734 -0.016818818 0.054568782
000300 44 9a fb bd 60 33 c4 bc a4 54 8e bd 17 ac 30 3d
       -0.12285283 -0.023950279 -0.06949738 0.043132868
000310 2d 3b d6 bc 3f 7b 09 3e 53 1f 75 bd 9f c4 4a 3d
       -0.026151264 0.13425921 -0.059844326 0.04950392
000320 ba aa 14 3d 89 b9 ac 3c ac f9 bc 3c bc 70 fe 3c
       0.03629563 0.021084564 0.023068272 0.031059615
000330 71 be f2 bd fd a0 07 be e9 5e bc bd ec 54 58 3c
       -0.1185273 -0.13245006 -0.0919779 0.013203841
000340 39 4f b6 3d ad c0 fd bd d7 21 d5 bd d4 35 e7 3d
       0.08901829 -0.123902656 -0.10406845 0.11289564
000350 74 cf 21 bc 8e 51 f7 3d 56 26 4c bb 24 8f ad bd
       -0.009876121 0.12076102 -0.003115078 -0.084745675
000360 dd cd 9a 3d 69 64 e3 bd a6 22 04 3e 20 f4 0b 3e
       0.075587966 -0.11103136 0.12903842 0.13667345
000370 76 cd 7b 3d c0 0a 49 3d 1d 19 a7 3d e1 50 eb 3c
       0.06147524 0.049082518 0.08159087 0.02872509
000380 21 9a aa 3d 57 8d ed 3d 10 54 4e bc d1 c7 f6 bc
       0.08330179 0.11599224 -0.012593284 -0.030124577
000390 f5 db 70 bd 7e 62 b1 bd b3 24 13 bd 7e 3e 4c bd
       -0.058803517 -0.08661364 -0.03592367 -0.049864285
0003a0 8a 60 b5 3d 1f a3 aa 3d a6 50 ff bc db e5 d3 bc
       0.08856304 0.08331894 -0.031166386 -0.02586644
0003b0 9e 28 4b 3d 47 3d 1f 3d b1 2d 8c bc 10 bd 85 3d
       0.049599282 0.038876798 -0.017111631 0.065302014
0003c0 34 11 cd bd 6d 8c 95 bc cf 23 db bd 74 8d 47 bd
       -0.10013047 -0.018255437 -0.10700189 -0.048718885
0003d0 c0 15 b1 bc 26 a2 29 3a 66 0e 4e bc 1a a9 10 3d
       -0.021616817 0.00064710004 -0.012576675 0.035317518
0003e0 cb 36 9a 3d b0 a2 99 3d a2 ea b5 3c 18 75 8f bd
       0.07529982 0.07501733 0.022206608 -0.07004756
0003f0 e4 3b e2 bc bb 5b 0c bd 77 52 f3 bc 54 04 86 bd
       -0.027616449 -0.03426717 -0.029702408 -0.06543794

fc1.bias f4 [64]
000000 bb c0 34 3d 27 f0 b1 3d 92 02 b1 3b 77 33 8c bc
       0.044129115 0.086883835 0.0054019177 -0.017114384
000010 fd 17 d2 3b 8e a7 08 3d 09 90 da 3a cb 85 fb bb
       0.006411551 0.033362918 0.0016675006 -0.0076758615
000020 3f 02 ca 3d 7c 18 26 3d 70 b2 43 3d b7 d6 08 3e
       0.0986371 0.040550694 0.047777593 0.13363157
000030 f4 b9 41 3c 03 ac 8d bd bc b7 04 3e 33 13 82 bc
       0.01182412 -0.06917574 0.12960714 -0.015878296
000040 14 56 2e bd 83 20 bc 3d 7a 8f ec bb 6f 46 42 bd
       -0.04256256 0.091858886 -0.007219252 -0.047430452
000050 55 bd 7f bd 1c a2 eb bc af 4e a5 bd 7d 49 3c bb
       -0.06243642 -0.028763823 -0.08071648 -0.0028730326
000060 ee fc 03 bd 65 33 a3 3a 2e a9 31 3d 60 e0 36 3d
       -0.032223634 0.001245123 0.043374233 0.044647574
000070 fc 5f 98 bc 31 c7 9e 3c 5a 71 0f 3d a2 f5 b8 bc
       -0.018600456 0.019382091 0.03502021 -0.022578064
000080 0f d4 b2 bd 83 1a e6 bc 63 ae a9 3d 0b 71 e4 ba
       -0.08731853 -0.028088814 0.08285215 -0.0017428709
000090 72 85 84 ba e8 8d 31 3d fc 5c b5 3d 25 69 4d bd
       -0.0010110571 0.043348223 0.08855626 -0.0501491
0000a0 ac f7 e1 3d bd 3a db bc 9f ea 99 3d 75 0d 35 bd
       0.11033568 -0.026761407 0.075154535 -0.044202287
0000b0 b9 95 1a bd 53 41 ba 3d db 58 e4 bc f0 a4 03 bc
       -0.037740443 0.09094491 -0.0278744 -0.00803493
0000c0 37 56 82 bc 65 19 a6 bc d8 aa ed 3d 17 59 d4 3d
       -0.015910251 -0.02027578 0.116048515 0.10368555
0000d0 cf 50 01 3d 6e 13 bd bd d7 3b de bc 18 96 96 3b
       0.031571206 -0.092322215 -0.027128143 0.0045955293
0000e0 28 f8 ea 3d ba 32 41 3d f4 c5 bf bc ef 71 bb 3d
       0.11473113 0.047167517 -0.023409821 0.091525905
0000f0 46 8b 25 bd e9 e8 de 3d 76 49 8b bb 96 d9 43 bc
       -0.040416025 0.10884268 -0.0042507006 -0.011953732

fc2.weight f4 [1, 64]
000000 4d 5c 26 bc 83 a7 9e 3d f2 63 de bb 28 f9 1a bd
       -0.010153842 0.07746794 -0.0067868168 -0.03783527
000010 40 4f 34 3e da 91 91 3d 1e 86 01 3e 5d b9 cf bd
       0.17608356 0.07107897 0.12648818 -0.10142777
000020 86 cb d9 3d f2 a1 e3 bc 01 87 f4 bc 6a 05 03 3e
       0.10634522 -0.027787182 -0.029849531 0.12795034
000030 bd 26 b7 3d f7 78 20 bc 9e f9 75 3d eb 8c c4 bd
       0.089429356 -0.009794465 0.060052507 -0.095971905
000040 81 68 47 bd b6 ca c5 3d f0 c1 03 3e 53 e3 32 bd
       -0.048683647 0.09657805 0.1286695 -0.043673825
000050 ba 50 7c bb 12 ea a6 bd a3 c0 54 bd fd aa c4 3d
       -0.0038500265 -0.08150114 -0.051941525 0.09602926
000060 72 68 1b 3e 3f f0 dc 3d 4a 98 a6 bd f3 06 2d bd
       0.15176561 0.10788011 -0.081345156 -0.042242955
000070 d0 ce f2 3d 66 68 27 3e c0 da 3b 3e f2 49 f9 3d
       0.118558526 0.16348419 0.18345165 0.12172307
000080 c8 06 7d 3a 8f 78 eb 3d c4 9d 2d 3e ff ad bc 3d
       0.00096521946 0.11497604 0.16954714 0.092128746
000090 6a fd ce 3d fb 5d 2b 3e 9a 40 80 3d 18 43 7d bd
       0.10106929 0.1673507 0.06262322 -0.061831564
0000a0 5f 5e 99 3d 65 38 12 3e 88 e9 05 3e 5a 31 00 3d
       0.07488703 0.14279325 0.13077366 0.031297065
0000b0 f0 1d ee bc ee 3f 1b 3e fe 99 3a 3e 80 40 d0 3d
       -0.02906701 0.15161106 0.18222806 0.101685524
0000c0 17 ae b6 3d df 5a 81 bd 30 03 0f 3e d7 c7 f9 3d
       0.08919924 -0.063161604 0.1396606 0.121963196
0000d0 1b 61 3c bd 50 d6 1b bd 86 c9 25 3e 45 c2 ac bd
       -0.045991044 -0.03804618 0.16190156 -0.084354915
0000e0 c6 14 68 3d 00 e8 d3 3d 21 b7 c7 3d 7e e2 f7 3d
       0.056660436 0.10346985 0.09751726 0.12103747
0000f0 d7 e0 f6 bc ac 4e ed 3d 1d 25 d1 3b d9 a5 2a 3d
       -0.030136509 0.11587271 0.006382598 0.04166207

exp_avg f4 [64, 128]
000000 58 89 e1 37 e2 08 45 b7 19 4f ad b7 4e df 56 35
       2.6886046e-05 -1.1744183e-05 -2.066004e-05 8.0046163e-07
000010 e8 c9 52 37 03 4d ca 36 0e 74 43 37 90 a9 7e 36
       1.2563985e-05 6.0290345e-06 1.1649927e-05 3.7947648e-06
000020 1b 39 4d b6 51 57 7c b3 b8 3e 9d b7 f0 fd 1d 37
       -3.058062e-06 -5.8752736e-08 -1.8745064e-05 9.417054e-06
000030 7d d8 d3 37 57 4c 40 b7 fa 50 d7 b6 46 93 3d 37
       2.525397e-05 -1.1461866e-05 -6.416926e-06 1.1299568e-05
000040 df dd 1f 37 a8 27 46 36 3b 81 60 b7 8d e7 df 36
       9.528797e-06 2.9527382e-06 -1.3381529e-05 6.672874e-06
000050 4b 38 49 b6 d7 17 88 38 75 50 85 37 d1 09 a7 36
       -2.99841e-06 6.489426e-05 1.5892301e-05 4.9781306e-06
000060 9d 1c 29 37 cb 41 47 b5 e7 4e df b7 e7 74 33 b7
       1.0079847e-05 -7.422902e-07 -2.6620413e-05 -1.069645e-05
000070 d1 8a 08 37 d5 7c 16 37 c3 d4 a3 37 15 66 5b 37
       8.138552e-06 8.969761e-06 1.953019e-05 1.3077185e-05
000080 22 a8 9c 37 1b ff b9 b6 e5 a2 39 36 71 31 90 34
       1.8674942e-05 -5.543128e-06 2.7661965e-06 2.6858064e-07
000090 09 86 0b 36 8e a3 11 36 36 24 8f b7 72 7c 4d b7
       2.0790633e-06 2.1701885e-06 -1.706379e-05 -1.2247927e-05
0000a0 c0 4f d8 37 39 01 5d b6 ff ee 34 b7 79 6c 15 37
       2.5786343e-05 -3.2932278e-06 -1.0784482e-05 8.906348e-06
0000b0 6f e2 5c 37 3f a7 aa 35 ad 49 85 b7 a9 e4 d7 36
       1.31657425e-05 1.2714662e-06 -1.5889143e-05 6.434119e-06
0000c0 e2 a1 c9 33 20 f8 3e 37 e0 1d 32 37 59 5a 97 36
       9.389238e-08 1.1382654e-05 1.0616583e-05 4.5106685e-06
0000d0 79 11 1d 36 1d 30 6e 37 da e9 13 37 52 18 20 37
       2.3404993e-06 1.4197108e-05 8.816331e-06 9.542406e-06
0000e0 00 81 43 38 28 52 9f 35 77 70 16 b7 36 65 88 37
       4.6611764e-05 1.1870334e-06 -8.966882e-06 1.6259593e-05
0000f0 a6 67 23 b7 af 94 83 b6 19 75 6b 36 58 b9 42 b7
       -9.73969e-06 -3.9214133e-06 3.5085889e-06 -1.1606455e-05
000100 38 31 ac b7 b6 fa 15 36 04 29 2b b6 28 9b 38 b5
       -2.0526917e-05 2.2348663e-06 -2.550486e-06 -6.8771124e-07
000110 13 3e cb 36 1c b5 1d b6 a5 b9 14 37 dd 04 41 b6
       6.057098e-06 -2.3500243e-06 8.864711e-06 -2.8762072e-06
000120 26 47 eb 36 f1 f0 a4 36 cf ba 2f b6 a6 55 1a 37
       7.0118285e-06 4.91563e-06 -2.618577e-06 9.199057e-06
000130 14 02 3d 38 5c 5f 66 37 ce 46 6e 35 d4 a0 31 37
       4.5063047e-05 1.3731271e-05 8.8764943e-07 1.0587468e-05
000140 56 e9 7f b6 b8 5e 81 37 93 5b 39 b5 20 e3 69 37
       -3.813378e-06 1.5422105e-05 -6.905113e-07 1.3940764e-05
000150 91 e2 a6 36 a8 0d 7c 36 fa 80 9f 37 76 0e 14 b8
       4.9735613e-06 3.7558875e-06 1.9014336e-05 -3.5299418e-05
000160 59 3d 31 b6 74 de ca b6 06 93 62 b6 9b ad 68 b7
       -2.6410764e-06 -6.045966e-06 -3.3762203e-06 -1.3868698e-05
000170 30 2e 35 b7 51 0c 1f 35 a6 eb d2 36 d7 51 87 b7
       -1.0799195e-05 5.925004e-07 6.285921e-06 -1.6131364e-05
000180 3d 1e 66 36 a8 9d f1 b6 62 61 19 b7 7d 33 54 37
       3.4290272e-06 -7.2007133e-06 -9.142184e-06 1.2648173e-05
000190 33 f3 ec 37 7f 21 11 37 67 09 45 b7 a1 68 fe 37
       2.824664e-05 8.650472e-06 -1.1744304e-05 3.0327881e-05
0001a0 15 c5 a9 b7 48 2f d5 36 43 61 de 36 75 71 65 b7
       -2.0238143e-05 6.353399e-06 6.6274383e-06 -1.367588e-05
0001b0 57 c6 ea 35 5e 54 92 35 3e a2 46 36 3d 95 1b b6
       1.7492083e-06 1.0902402e-06 2.9598737e-06 -2.3183668e-06
0001c0 ca b4 d1 37 87 dc d5 36 f2 4a 85 37 aa 50 56 b5
       2.4998928e-05 6.3735674e-06 1.5889735e-05 -7.9838594e-07
0001d0 11 86 36 b6 15 1b 6d b7 52 16 a3 b6 72 0c fc 36
       -2.719815e-06 -1.4132606e-05 -4.860377e-06 7.511634e-06
0001e0 3c 9f c2 34 5a 03 df b7 9d 6e 7e 36 09 5e 97 37
       3.6251174e-07 -2.6585232e-05 3.7913335e-06 1.8044391e-05
0001f0 94 0b c6 b7 fb f1 db b7 0f a0 91 b7 ff d1 c0 b5
       -2.360883e-05 -2.6219515e-05 -1.735988e-05 -1.4366232e-06
000200 b0 97 f9 b7 6a c5 73 b6 27 2f d7 36 01 ce f1 b6
       -2.9753748e-05 -3.6324732e-06 6.4129886e-06 -7.2063417e-06
000210 3f c6 a8 b6 34 6c 4f b7 fd 21 dd b4 fd 31 6b b7
       -5.029869e-06 -1.23633545e-05 -4.1189188e-07 -1.401873e-05
000220 3b 54 3c 35 c7 4b 8d b7 12 59 d7 37 71 31 01 36
       7.015803e-07 -1.6843796e-05 2.5671474e-05 1.9251277e-06
000230 99 7e 26 37 bb dd 75 36 b0 f5 3f 37 a1 c8 59 37
       9.923847e-06 3.663691e-06 1.1441691e-05 1.29809205e-05
000240 5c d8 dc 36 d2 82 89 b7 13 c3 d1 b7 68 09 a9 35
       6.5816985e-06 -1.639259e-05 -2.500558e-05 1.2594219e-06
000250 c7 42 fa b4 4a 0d f9 b7 6c 96 4d b7 59 af b0 b7
       -4.6614716e-07 -2.9689301e-05 -1.2253975e-05 -2.1062488e-05
000260 90 0b bc b7 4b 8b 9d 36 77 2c b2 37 9c d7 f5 37
       -2.241673e-05 4.6951805e-06 2.123996e-05 2.9306677e-05
000270 f0 ac 53 35 0d 9f 85 36 b4 be 20 b7 15 c2 21 b6
       7.885528e-07 3.982225e-06 -9.581145e-06 -2.410384e-06
000280 99 73 ce 36 d3 7b 56 36 32 33 de b7 de 24 42 b6
       6.1527358e-06 3.196056e-06 -2.6488302e-05 -2.8929712e-06
000290 98 d4 80 b6 31 98 84 b8 38 8d ae 36 8f 79 6c 36
       -3.8394464e-06 -6.322598e-05 5.202044e-06 3.5237497e-06
0002a0 c7 84 0f b7 5a 61 c3 b6 38 c3 a9 b7 c4 44 29 b6
       -8.554379e-06 -5.822786e-06 -2.0237276e-05 -2.522299e-06
0002b0 86 88 e6 b7 17 a5 32 b6 97 30 c3 36 bc a2 3c 38
       -2.748171e-05 -2.6620162e-06 5.8171095e-06 4.497425e-05
0002c0 3e 66 f1 36 e5 ec a7 b6 2b eb 92 b6 d9 49 32 37
       7.1942623e-06 -5.004566e-06 -4.378516e-06 1.0626821e-05
0002d0 53 3a 4f 37 7f b6 89 b6 6e 79 46 36 72 ee 51 36
       1.2351741e-05 -4.1041635e-06 2.957498e-06 3.128222e-06
0002e0 b4 bc ab b7 0b 06 09 37 be 85 7f 36 5e db ea 36
       -2.047266e-05 8.167243e-06 3.807581e-06 6.999281e-06
0002f0 5a 9e 95 37 b3 94 a7 b7 30 65 90 b8 3e 49 49 37
       1.7835922e-05 -1.9977195e-05 -6.885303e-05 1.1997587e-05
000300 af af 3c 38 cf ff 5d 36 90 33 b2 b7 7e bd 15 b6
       4.498631e-05 3.3080466e-06 -2.1243264e-05 -2.231303e-06
000310 5e 52 94 36 85 4b 6f b7 9d 84 9f b7 b7 b5 7b b6
       4.4203325e-06 -1.4263093e-05 -1.901603e-05 -3.7507687e-06
000320 f4 86 04 b7 35 64 65 b6 7e 75 d1 b6 17 2c 2f 37
       -7.899234e-06 -3.4181987e-06 -6.2423633e-06 1.0441078e-05
000330 02 5f 90 b7 a0 33 7b 35 91 90 62 b6 0c 12 f1 b5
       -1.721038e-05 9.357991e-07 -3.3760773e-06 -1.7961152e-06
000340 4a a0 0e 37 fc 23 be 36 37 eb eb b6 de 97 44 b8
       8.50118e-06 5.6666304e-06 -7.0309284e-06 -4.687148e-05
000350 f0 81 28 37 c8 71 37 b7 b2 28 20 38 c1 09 ae 35
       1.0043834e-05 -1.0934142e-05 3.8184873e-05 1.2966849e-06
000360 da ae 2f 36 26 5d 54 b7 8f 4b ac b6 db 3b 90 36
       2.617881e-06 -1.26578725e-05 -5.1347956e-06 4.2985025e-06
000370 dd 18 bd b6 49 d2 4a 37 41 a2 0d b8 53 88 13 b6
       -5.6355334e-06 1.2089099e-05 -3.376813e-05 -2.1984058e-06
000380 ea 8c 99 b6 bf 4e 51 35 9d ff 91 36 42 f2 39 37
       -4.57616e-06 7.797316e-07 4.351094e-06 1.1083264e-05
000390 d2 62 9c 37 78 8f 44 b7 b9 7a a7 37 d8 a3 ed 37
       1.8642666e-05 -1.1715914e-05 1.9965099e-05 2.8328897e-05
0003a0 3e a6 90 b7 ee f2 01 b7 92 53 d5 b7 77 5a 3a 37
       -1.724355e-05 -7.745561e-06 -2.5430494e-05 1.1107527e-05
0003b0 65 d3 72 37 5a d3 1d b7 d5 3f 7e 36 40 ec 94 b7
       1.4473543e-05 -9.407138e-06 3.7886105e-06 -1.7752987e-05
0003c0 9d c2 d8 b6 b4 2f 2f 37 9d 9d ae b4 d1 63 19 36
       -6.4599576e-06 1.044192e-05 -3.2524704e-07 2.2856877e-06
0003d0 49 42 07 37 48 8c 2f 36 de 2c e1 37 d3 bb 43 37
       8.06206e-06 2.6158687e-06 2.6842983e-05 1.1666637e-05
0003e0 e5 26 2e b7 67 4a b2 37 7f 9d 28 b7 31 ab a0 b7
       -1.0380264e-05 2.12539e-05 -1.005025e-05 -1.9153204e-05
0003f0 31 89 bc 36 09 df 9b b7 30 ae 49 37 2a 2f 08 37
       5.618808e-06 -1.8581299e-05 1.202109e-05 8.117213e-06

exp_avg_sq f4 [64, 128]
000000 cc f4 8c 2d c7 ad 54 2c 74 2b 3b 2d 6a 5e 83 2c
       1.6024869e-11 3.0223478e-12 1.0639368e-11 3.733726e-12
000010 33 24 a2 2c 4f b2 e6 2b 3c 0f 1e 2d 78 d6 0a 2b
       4.608336e-12 1.6391973e-12 8.984643e-12 4.9325084e-13
000020 17 8b 13 2c d7 db 08 2a 9b 76 02 2d 97 b2 0a 2c
       2.0967167e-12 1.2155499e-13 7.41598e-12 1.9710117e-12
000030 e2 6e 86 2d f1 39 92 2c 49 6f 07 2c 92 c3 5f 2c
       1.5283278e-11 4.1560024e-12 1.924643e-12 3.179877e-12
000040 10 8d 8c 2c 58 f3 d0 2b 9d e9 07 2d 81 4e e2 2b
       3.9947004e-12 1.484683e-12 7.725734e-12 1.6080055e-12
000050 84 e6 86 2b a8 a7 bf 2e a6 a4 b4 2c 9d 13 5e 2b
       9.585254e-13 8.715456e-11 5.1341873e-12 7.889746e-13
000060 03 a3 23 2c 4f 63 01 2b 59 be 80 2d c0 9c 2d 2c
       2.3254183e-12 4.5967825e-13 1.4636447e-11 2.4671792e-12
000070 3c 46 16 2c 44 65 52 2c 3d 19 0c 2d b6 28 91 2c
       2.135527e-12 2.9899009e-12 7.963683e-12 4.1256677e-12
000080 74 94 21 2d e5 59 ca 2b ee 04 73 2c 60 16 fc 29
       9.184754e-12 1.4377914e-12 3.4535113e-12 1.11949295e-13
000090 28 71 89 2b 8c f5 e1 2b e5 d0 fc 2c be 67 a5 2c
       9.765843e-13 1.6055365e-12 7.1854627e-12 4.7010998e-12
0000a0 bc e1 8e 2d fb 4c 47 2b 94 2f 73 2c 4f 01 85 2c
       1.6243777e-11 7.0805834e-13 3.4558788e-12 3.7802326e-12
0000b0 8e 72 98 2c e3 fb 6a 2a b8 39 d7 2c cd 35 59 2c
       4.332818e-12 2.0870766e-13 6.1170756e-12 3.086742e-12
0000c0 b4 f8 17 2c aa 45 82 2c 42 2d 26 2c 74 da f2 2b
       2.1596449e-12 3.7025565e-12 2.3615142e-12 1.7255767e-12
0000d0 e5 3f 9f 2c 77 f4 93 2c 85 0f 41 2c f0 a6 4b 2c
       4.5261455e-12 4.2051323e-12 2.7435565e-12 2.8940704e-12
0000e0 63 20 44 2e 28 b4 41 2b 5d ab e4 2b 57 3d bf 2c
       4.4594006e-11 6.881739e-13 1.6247937e-12 5.4353566e-12
0000f0 fb 93 47 2c fd fc 62 2b 17 8c 49 2b 40 d6 6c 2c
       2.8361747e-12 8.064242e-13 7.160396e-13 3.365655e-12
000100 0a da 37 2d 98 af af 2a 6c 7e a2 2b 15 dc c5 2a
       1.045076e-11 3.1208087e-13 1.1545881e-12 3.5146942e-13
000110 32 7a ea 2b 74 9f ae 2b b4 4e 60 2c 34 23 a9 2b
       1.6660616e-12 1.2407701e-12 3.1876004e-12 1.2017943e-12
000120 26 7b 0a 2c df 41 19 2c 11 2c 2c 2b 0c f8 2d 2c
       1.967934e-12 2.1779174e-12 6.116783e-13 2.4722472e-12
000130 f6 d5 45 2e 38 57 8c 2c 74 fb 69 2b 45 09 af 2c
       4.498265e-11 3.9887225e-12 8.312719e-13 4.9748283e-12
000140 6d 1e 91 2b 0e ba eb 2c 5b 9a 37 2c 88 31 c3 2c
       1.0311315e-12 6.699758e-12 2.6091549e-12 5.5477324e-12
000150 e9 08 80 2b 21 cf f5 2b 7c 45 4a 2d 3d 5b f2 2d
       9.09742e-13 1.7465787e-12 1.1497799e-11 2.7552733e-11
000160 36 7c b5 2b d5 86 27 2c 34 a9 10 2c 4b 0c 8b 2c
       1.2895299e-12 2.3806974e-12 2.0557557e-12 3.9519824e-12
000170 0b 03 49 2c 4e 95 0a 2b a0 ab 92 2c a5 6f e7 2c
       2.8565507e-12 4.923465e-13 4.1686238e-12 6.57781e-12
000180 c9 d6 d3 2a 36 33 ce 2b d1 21 09 2d e8 85 90 2c
       3.7630166e-13 1.4651394e-12 7.795057e-12 4.1075927e-12
000190 81 3b 90 2d 94 fb 27 2c 80 72 c2 2c 17 0a b6 2d
       1.639733e-11 2.3871781e-12 5.5265237e-12 2.0695485e-11
0001a0 d7 4b 21 2d 9b d5 9e 2c cc 0c f8 2b df 8d 96 2c
       9.16863e-12 4.514345e-12 1.7625012e-12 4.2790073e-12
0001b0 12 9b 35 2b 10 19 76 2b 86 28 bb 2a fe 8a 33 2c
       6.451932e-13 8.743154e-13 3.3245992e-13 2.5514586e-12
0001c0 ad 94 6d 2d 0f 5c a5 2c be c6 bb 2c 2e 29 20 2c
       1.3504903e-11 4.6998026e-12 5.3369245e-12 2.2760227e-12
0001d0 a0 17 ec 2b 31 8f 98 2c b2 87 21 2c 27 dd c7 2b
       1.6775366e-12 4.3359973e-12 2.2954802e-12 1.4201183e-12
0001e0 f4 2e bb 29 e2 6a 84 2d 8d d7 e4 2a fc 2d de 2c
       8.312613e-14 1.5054128e-11 4.0650504e-13 6.314725e-12
0001f0 1b c3 5d 2d 57 9b 97 2d 90 2a ee 2c f0 61 28 2c
       1.2605718e-11 1.7235697e-11 6.7690922e-12 2.3928602e-12
000200 95 cf 9d 2d 50 57 a0 2a 2c 5f 8f 2b b5 7d ea 2b
       1.7941018e-11 2.8482295e-13 1.0187177e-12 1.6661591e-12
000210 54 b8 69 2b 6c 02 79 2c e6 33 2a 2c 4f de b7 2c
       8.3034035e-13 3.5386373e-12 2.4187262e-12 5.225854e-12
000220 dc 36 87 2a d8 cf f1 2c 27 59 70 2d 1c b7 13 2b
       2.4018884e-13 6.8727073e-12 1.3662216e-11 5.2479006e-13
000230 16 21 a3 2c 2a e3 25 2b a5 ba 43 2c 9a b7 82 2c
       4.636412e-12 5.893503e-13 2.7814775e-12 3.715206e-12
000240 0e 4b b5 2b 9a de f7 2c 2a 5b 87 2d 09 cb 72 29
       1.2881655e-12 7.044876e-12 1.5388208e-11 5.39109e-14
000250 b0 8d 96 29 da eb a3 2d 47 38 5c 2c 09 a0 36 2d
       6.685917e-14 1.8635694e-11 3.129512e-12 1.0381037e-11
000260 cf 72 40 2d 1b 69 17 2b 85 60 5b 2d 79 a0 ab 2d
       1.0939429e-11 5.379184e-13 1.247014e-11 1.9511713e-11
000270 ac 48 44 2b 63 12 86 2b a4 ff 16 2c e7 7d d7 2a
       6.973404e-13 9.526376e-13 2.1458191e-12 3.8279034e-13
000280 4a c4 c2 2b 85 1c 85 2b 0a 71 8c 2d 04 5c 17 2b
       1.383901e-12 9.458134e-13 1.5966357e-11 5.3773674e-13
000290 23 fe 2d 2b 27 55 c0 2e d5 92 63 2b c3 09 f8 2a
       6.181463e-13 8.746275e-11 8.085037e-13 4.4060423e-13
0002a0 f1 94 ea 2b a9 05 69 2b a0 ff 20 2d ed 44 1d 2b
       1.666804e-12 8.2786084e-13 9.151707e-12 5.587326e-13
0002b0 fe 04 b9 2d d5 6a 70 2a 67 1d 62 2b bb 7d 58 2e
       2.1034282e-11 2.1353347e-13 8.0332133e-13 4.9224385e-11
0002c0 39 d4 0b 2c 59 cd 5e 2b 78 5e 40 2b 15 70 31 2c
       1.9870895e-12 7.915522e-13 6.8343204e-13 2.521543e-12
0002d0 85 3f 7b 2c cd 64 ed 2a 21 b1 52 2b 26 75 7f 2a
       3.5704506e-12 4.2169602e-13 7.4852803e-13 2.2689194e-13
0002e0 a8 93 1e 2d 60 a2 c4 2b 04 a1 cd 2a 65 b7 00 2c
       9.0140465e-12 1.3971706e-12 3.6527042e-13 1.8291698e-12
0002f0 08 08 23 2d a6 83 24 2d e1 21 eb 2e 8e 8f 43 2c
       9.267261e-12 9.3515525e-12 1.0692581e-10 2.7790856e-12
000300 1e 17 39 2e cc e1 a0 2a 68 ab 27 2d ba 53 4e 2a
       4.2084662e-11 2.8578387e-13 9.530911e-12 1.8325524e-13
000310 ae b6 19 2b ae 15 ac 2c ae 04 11 2d 56 75 45 2b
       5.461004e-13 4.890941e-12 8.243335e-12 7.0151296e-13
000320 51 a9 dd 2b 1b 6e dc 2a a7 a4 a2 2b 6b f6 25 2c
       1.5749989e-12 3.9156251e-13 1.1556493e-12 2.35847e-12
000330 54 26 e3 2c ca b9 04 2b 4a 02 6b 2b cb cd 97 2a
       6.4559833e-12 4.7153655e-13 8.349195e-13 2.6965786e-13
000340 ca c7 f5 2b 13 ec a4 2b f2 0f b0 2b d7 a6 56 2e
       1.746375e-12 1.1718425e-12 1.2509978e-12 4.880615e-11
000350 56 f8 5b 2c 47 8c 86 2c ef 76 06 2e 45 d5 96 2b
       3.1259626e-12 3.824083e-12 3.0573707e-11 1.0717335e-12
000360 d7 52 80 2a 31 0f 93 2c 4a e0 25 2b 0d f4 ee 2a
       2.279485e-13 4.179678e-12 5.893104e-13 4.2446637e-13
000370 6a d2 70 2b ae 69 70 2c 66 44 e6 2d e2 3a 46 2a
       8.5557136e-13 3.4164715e-12 2.6178348e-11 1.7606362e-13
000380 02 7b 01 2b 02 23 7b 29 03 cb 0c 2c 5f d4 37 2c
       4.6000714e-13 5.576356e-14 2.000789e-12 2.6123754e-12
000390 32 e9 29 2d 3a 55 44 2c 7c 8f 25 2d a4 82 b9 2d
       9.6583175e-12 2.7900585e-12 9.411024e-12 2.1090081e-11
0003a0 b6 9a 15 2d 5a 8e f5 2b e8 58 80 2d bd 2c 43 2c
       8.504022e-12 1.7447808e-12 1.4591398e-11 2.7736001e-12
0003b0 2b 09 c0 2c 60 72 16 2c f6 d2 f3 2a 9e a5 00 2d
       5.457986e-12 2.1379773e-12 4.3311855e-13 7.312732e-12
0003c0 39 10 b2 2b ec 3c 51 2c 7f 00 a7 28 0b 82 2c 2b
       1.2652163e-12 2.9734505e-12 1.854094e-14 6.1287146e-13
0003d0 b8 ba 8a 2c 92 cd d5 2a ca 33 8e 2d 94 4e 51 2c
       3.942926e-12 3.7979044e-13 1.616653e-11 2.9744306e-12
0003e0 7e 22 44 2c 9b e1 41 2d bc e2 36 2c 8d aa 0a 2d
       2.7872422e-12 1.1020874e-11 2.5989618e-12 7.882262e-12
0003f0 42 19 8e 2b 3a 09 1c 2d a9 c9 68 2c 70 1f 29 2c
       1.0096717e-12 8.869622e-12 3.3081127e-12 2.4033796e-12

exp_avg f4 [64]
000000 dd fe 08 b9 46 d2 fa b8 45 6a f4 b8 80 7e ae b8
       -0.00013064915 -0.000119600954 -0.00011654621 -8.320529e-05
000010 66 78 41 b9 fc 11 60 b8 07 79 b6 b8 83 7b f9 b8
       -0.00018450766 -5.342251e-05 -8.7009794e-05 -0.00011896251
000020 67 7e 55 b8 40 be 81 b8 9a 07 de b8 51 ed 2b b8
       -5.090088e-05 -6.186636e-05 -0.00010587201 -4.0990595e-05
000030 bc 42 2b b9 75 b8 ae b8 96 1d 84 b8 2a eb 72 b7
       -0.00016332691 -8.331324e-05 -6.299761e-05 -1.4479077e-05
000040 8b 78 ac b6 ad d0 97 b8 6a 4d 9f b8 62 e2 1d b8
       -5.1400325e-06 -7.23911e-05 -7.59613e-05 -3.7642552e-05
000050 48 59 22 b9 25 06 21 b9 ed 30 0e b8 85 b6 22 b9
       -0.00015482784 -0.00015356446 -3.3901004e-05 -0.00015517518
000060 44 6d 43 b8 0a c7 0b b9 f1 8d f2 b7 a2 bd 2d b8
       -4.6593384e-05 -0.00013330221 -2.8914745e-05 -4.1423024e-05
000070 36 ae c4 b7 18 fb d4 b7 96 09 2b b8 10 78 8b b8
       -2.3446144e-05 -2.5389294e-05 -4.0778505e-05 -6.6504e-05
000080 93 c4 d5 b8 22 92 0d b9 55 30 30 b9 ed 04 fe b8
       -0.00010193246 -0.00013501247 -0.00016802673 -0.00012112581
000090 e6 29 17 b9 df 08 42 b9 01 72 d2 b8 00 44 ba b8
       -0.0001441609 -0.00018504586 -0.00010034815 -8.881837e-05
0000a0 c9 fc 4b b8 2b d2 76 b8 21 14 56 b8 64 8e 06 b9
       -4.8634396e-05 -5.8846705e-05 -5.1040322e-05 -0.0001283228
0000b0 09 b1 80 b7 76 57 28 b9 3c 7e b5 b8 cd 65 76 b8
       -1.5341227e-05 -0.0001605431 -8.6542655e-05 -5.874578e-05
0000c0 f4 47 a8 b7 c1 29 04 b9 11 5a ad b8 1a 61 36 b9
       -2.0060666e-05 -0.00012604056 -8.266059e-05 -0.00017393046
0000d0 74 68 16 b7 7b 0c bd b8 70 b7 89 b8 b0 f1 47 b8
       -8.965017e-06 -9.014547e-05 -6.566837e-05 -4.7670386e-05
0000e0 07 4d 29 b7 d3 2e 1d b9 3a b8 6c b8 e4 9b 9d b8
       -1.0091119e-05 -0.0001499013 -5.643836e-05 -7.51538e-05
0000f0 2a ab f2 b8 50 91 63 b8 d8 88 82 b8 1c a8 a2 b8
       -0.00011571341 -5.425635e-05 -6.224372e-05 -7.756075e-05

exp_avg_sq f4 [64]
000000 ee 5f c2 2f 2d 62 b7 2f 48 4c 9f 2f b1 4c 48 2f
       3.5356557e-10 3.3357264e-10 2.8976133e-10 1.821714e-10
000010 5e 72 61 30 4f 4b ce 2e bd 29 55 2f 75 77 aa 2f
       8.201705e-10 9.381173e-11 1.9387066e-10 3.10077e-10
000020 22 ca 8f 2e 51 38 d8 2e a8 15 a8 2f da 0e ab 2e
       6.538793e-11 9.8325466e-11 3.057441e-10 7.778818e-11
000030 87 28 3d 30 95 aa 37 2f 50 3f c6 2e ac 81 03 2d
       6.881539e-10 1.6704356e-10 9.015244e-11 7.475281e-12
000040 31 da 0d 2e 6e 92 09 2f b9 3b 40 2f 38 ae 00 2e
       3.225348e-11 1.25121e-10 1.7483516e-10 2.9258568e-11
000050 72 58 3a 30 c3 c9 12 30 0a 55 dc 2d ff 60 12 30
       6.7792094e-10 5.340121e-10 2.504887e-11 5.325233e-10
000060 69 ed 91 2e b5 ad e5 2f 31 bd ac 2d 6c 76 3b 2e
       6.636009e-11 4.1778284e-10 1.9638154e-11 4.2624057e-11
000070 ec 1a 42 2d 5f 0e 90 2d 73 bd 12 2e 82 11 1a 2f
       1.1033601e-11 1.6377287e-11 3.336482e-11 1.4012438e-10
000080 d2 64 83 2f 7e e1 0a 30 ac 68 3c 30 6d 81 c2 2f
       2.3900398e-10 5.052455e-10 6.854275e-10 3.5380357e-10
000090 39 88 2f 30 3b 33 59 30 e4 f8 7f 2f 93 c1 4f 2f
       6.3858213e-10 7.9016943e-10 2.3280539e-10 1.8895312e-10
0000a0 f0 b1 55 2e 5d de cb 2e b9 ae 7c 2e e0 29 d2 2f
       4.8588633e-11 9.270871e-11 5.745335e-11 3.8228531e-10
0000b0 1d 58 af 2c ce 08 14 30 87 84 37 2f b1 3c 9a 2e
       4.9835817e-12 5.38546e-10 1.6690836e-10 7.01389e-11
0000c0 75 72 8a 2e 88 d8 f2 2f bf 93 18 2f 6b 16 2a 30
       6.295845e-11 4.4173398e-10 1.387681e-10 6.18775e-10
0000d0 d2 26 20 2c 0d 80 69 2f 14 78 02 2f d8 13 4d 2e
       2.2758917e-12 2.123672e-10 1.1866091e-10 4.6629228e-11
0000e0 9c 5d 1b 2c 38 11 13 30 01 19 f9 2e 8e e0 15 2f
       2.2078788e-12 5.350276e-10 1.13276506e-10 1.3631249e-10
0000f0 8f b0 c2 2f b8 1f b1 2e d3 fc d0 2e f3 96 20 2f
       3.5413847e-10 8.0546625e-11 9.5036555e-11 1.4605543e-10

exp_avg f4 [1, 64]
000000 66 ae 18 3a ab 37 bc b9 30 5f ca 38 4e 4b 3d 39
       0.0005824327 -0.0003589963 9.649841e-05 0.00018052498
000010 0b 33 12 ba c5 23 83 b9 28 a5 e2 b9 bf fc b7 38
       -0.0005577064 -0.00025012917 -0.0004322913 8.7731976e-05
000020 9b 1c fa 39 81 ca 6b ba 27 af 5a ba 2c ab e9 b9
       0.0004770503 -0.0008994714 -0.000834214 -0.00044568756
000030 04 cb f7 b9 de fd 85 ba 59 c5 67 39 0b ac 89 39
       -0.0004726277 -0.0010222753 0.00022103394 0.00026258858
000040 81 52 66 b9 39 5c 92 39 fc e0 18 ba 88 55 7d 39
       -0.00021965244 0.00027916 -0.0005831865 0.00024159823
000050 e4 24 45 ba f0 10 e3 b9 12 1a c3 39 f3 47 1b 3a
       -0.0007520451 -0.00043309433 0.00037212722 0.0005923502
000060 8e e7 45 b9 63 ca 70 ba ab d0 82 39 05 6c a5 b8
       -0.00018873645 -0.00091854314 0.00024951002 -7.887933e-05
000070 0c f2 80 39 f7 ae da 38 3b 4f e2 39 df 4d bd 39
       0.00024594401 0.0001042764 0.0004316511 0.00036106908
000080 91 8d d0 39 c3 34 47 ba 4a 58 45 ba 5c 00 0c ba
       0.00039778327 -0.00075991097 -0.00075281097 -0.000534063
000090 06 d6 70 ba 29 1a 43 ba f5 6e 16 3a fb 04 8b 39
       -0.00091871654 -0.0007442558 0.000573858 0.00026515857
0000a0 18 94 02 3a 39 c6 eb b9 c2 d9 aa b9 ac bb 2b ba
       0.0004981174 -0.0004497038 -0.0003258717 -0.00065510976
0000b0 1e 29 b1 38 7b bd eb 39 11 f7 45 ba 93 24 89 b9
       8.4476764e-05 0.00044963867 -0.00075517694 -0.00026157926
0000c0 b2 61 3a 39 3e c2 bd 39 b7 94 d0 39 e5 5f 0a ba
       0.00017774737 0.0003619361 0.00039783653 -0.00052785716
0000d0 50 28 27 38 c6 36 1a ba ce 2f ef b9 21 32 38 ba
       3.9853447e-05 -0.00058827957 -0.0004562125 -0.0007026513
0000e0 db 6e 23 38 33 0b 8d 39 b6 59 95 39 a0 61 48 39
       3.896547e-05 0.0002690196 0.00028486334 0.00019109854
0000f0 32 e1 55 ba 62 b6 45 39 d1 93 cc 36 d4 ee 54 ba
       -0.0008158862 0.00018855327 6.096882e-06 -0.00081227464

exp_avg_sq f4 [1, 64]
000000 c8 96 e3 31 9a 89 3c 31 dc 50 3d 31 17 45 b4 31
       6.6237114e-09 2.7435818e-09 2.7549083e-09 5.246544e-09
000010 31 8a d9 31 c5 2c af 30 b0 a4 88 31 63 f8 ae 31
       6.3312418e-09 1.274565e-09 3.9768437e-09 5.092305e-09
000020 66 20 9b 31 74 b5 9a 32 9d 8f 84 32 d5 19 8b 31
       4.514777e-09 1.8010475e-08 1.543213e-08 4.048369e-09
000030 d6 b5 9e 31 7d ec c7 32 9a de bc 31 d6 ab 8b 31
       4.6190776e-09 2.3274191e-08 5.496827e-09 4.064968e-09
000040 e5 b0 85 30 c3 f3 a3 31 e7 78 f2 31 91 50 9a 31
       9.7273e-10 4.771637e-09 7.056872e-09 4.4911492e-09
000050 df f3 4d 32 54 a6 86 31 73 1b 38 31 1f e5 ec 31
       1.198802e-08 3.9188226e-09 2.6791127e-09 6.894552e-09
000060 b4 15 42 30 7f 16 a0 32 e9 18 b1 31 41 c5 08 2f
       7.060763e-10 1.8636682e-08 5.15421e-09 1.2439207e-10
000070 54 98 9e 30 19 d6 d5 31 f2 84 75 31 a8 93 04 32
       1.1539307e-09 6.223456e-09 3.5727763e-09 7.716984e-09
000080 e5 30 f9 31 da fb 57 32 a0 3e 55 32 98 d6 d0 31
       7.2524124e-09 1.25719115e-08 1.2412471e-08 6.077993e-09
000090 b2 4d a0 32 27 dc 4e 32 2d d9 de 31 50 c1 94 31
       1.8661783e-08 1.2040835e-08 6.4857404e-09 4.329344e-09
0000a0 01 6a 04 32 b9 c3 8d 31 96 b2 13 31 31 b3 1f 32
       7.707514e-09 4.125891e-09 2.149283e-09 9.2957615e-09
0000b0 19 31 16 2f 2e 06 15 32 42 f1 52 32 26 07 bb 30
       1.3659864e-10 8.674347e-09 1.22784645e-08 1.3608072e-09
0000c0 bf 06 81 31 71 4d c7 31 4d 3b 55 31 85 f6 c1 31
       3.755161e-09 5.8004663e-09 3.1029288e-09 5.6450653e-09
0000d0 9e 25 28 2e 8c 31 fa 31 2c f5 94 31 49 13 36 32
       3.8232188e-11 7.2815904e-09 4.3352397e-09 1.0598179e-08
0000e0 8a dd 05 2e 1b af c6 31 74 d0 97 31 25 20 af 31
       3.0437465e-11 5.7824656e-09 4.4183768e-09 5.0968247e-09
0000f0 8d 7e 75 32 9c ee 99 31 be e8 d0 31 3d 48 72 32
       1.4289651e-08 4.480013e-09 6.0800565e-09 1.4102679e-08
