checkpoints/checkpoint_epoch_70.pt (torch, 213451 bytes, 18 tensors)

fc1.weight f4 [64, 128]
000000 05 10 27 bd f4 b1 cc 3d 63 a4 1e 3e 18 ff 82 3c
       -0.04078676 0.09994879 0.15492396 0.015990779
000010 96 3f 29 be f8 f8 c4 bd 63 1f 93 bd 60 58 8d 3c
       -0.16528162 -0.096177995 -0.07183721 0.017254055
000020 40 ba 98 3d 0e ef 68 3c 9e 82 b5 3b db 52 04 bd
       0.07457399 0.014217151 0.0055392524 -0.03230558
000030 ff f9 1a bc 1d 5e 92 3d 50 fd ee 3c 9e 7b 96 bd
       -0.009459018 0.07146857 0.029173523 -0.07347797
000040 7c 0a d7 3c 9c b1 14 3d 2b 90 0d 3e 79 29 9a bd
       0.026250117 0.036302194 0.13824527 -0.075274415
000050 f6 eb 1e bd 0b 95 e9 bd 25 1d 46 bd 66 98 10 be
       -0.03879925 -0.11405381 -0.04836764 -0.14120635
000060 6b 82 ef bd 29 67 fb 3c 38 f6 10 3e 22 e6 0a 3e
       -0.11694797 0.030688839 0.14156425 0.13564351
000070 6f 7e d7 bd f7 01 d3 bd a8 eb 28 bb b4 b6 fb bd
       -0.10522162 -0.10303109 -0.0025775228 -0.12290707
000080 46 fd e6 bd a9 30 82 3d ee af 4b bc 52 e8 44 bd
       -0.11278777 0.063569374 -0.012432082 -0.04807312
000090 ba 8a d0 3c 16 58 b2 bd de a3 b1 3d 00 35 47 3d
       0.025456775 -0.08708207 0.08673833 0.04863453
0000a0 15 f8 a2 bd 0f db 9b bc 11 f9 fc 3d 92 4d 90 bb
       -0.07957474 -0.019025354 0.12352193 -0.0044037784
0000b0 ca 53 96 bb 97 4d 14 3d 6c 68 03 3e e6 7c d2 3c
       -0.004587625 0.036206808 0.12832803 0.025694322
0000c0 57 d0 2d 3c d6 7c 7b bd 7a b1 be bd cb 8d 52 bd
       0.010608754 -0.06139835 -0.09311195 -0.051404756
0000d0 7a a3 1c 3b 94 e5 bc bd aa 9c d5 3c 21 3c 01 3c
       0.002390115 -0.09223476 0.02607568 0.007887871
0000e0 b3 2e e2 bd 27 2a 5e bd 5b 28 93 3d 7f 5d cc bd
       -0.110440634 -0.05423942 0.071854316 -0.099787705
0000f0 49 b4 0b 3d 4a 21 d1 3d c1 38 7a bc d4 74 b1 3d
       0.03410748 0.102114275 -0.01527232 0.08664861
000100 16 30 0f 3d ea 75 96 bd c8 4d 90 3d b9 21 0a bd
       0.034957968 -0.07346709 0.070460856 -0.033723567
000110 5d b5 01 bd bd fa 13 bd d8 49 68 bd dc 4a 9e 3d
       -0.031667102 -0.036127795 -0.056711048 0.07729122
000120 28 c9 0f be 7d 9e 82 3d 35 18 ef 3d 05 b3 b2 bd
       -0.14041579 0.063778855 0.11674539 -0.087255515
000130 d9 44 c5 bd e1 36 10 be 1f a5 bc 3c c3 8b c1 bd
       -0.09632272 -0.14083435 0.023027955 -0.094504856
000140 bd 08 16 bd d7 12 66 bd 5c 70 70 bd ad 5a 45 bd
       -0.036629427 -0.05617031 -0.058700904 -0.04818218
000150 e7 32 4b 3d b8 6b a4 bb 15 3f 1a be d3 29 1e 3e
       0.04960909 -0.005017724 -0.15063126 0.15445642
000160 4e f1 a5 bc 4c 18 fb 3d 1e 36 9c 3d 1e c3 9b 3d
       -0.020256665 0.12260494 0.076275095 0.07605575
000170 7c cc ca 3d 94 5a 5e bd b1 d2 af bd dc 0f ab 3d
       0.099022835 -0.0542856 -0.08585108 0.08352634
000180 32 1a 97 bc e8 85 07 3e 2b d3 99 3d 47 c0 76 bd
       -0.018445108 0.13234675 0.0751098 -0.060241964
000190 be a8 f3 bd 65 38 9c bd 7d d9 f8 3d d1 3f f2 bd
       -0.118974194 -0.07627944 0.121508576 -0.11828578
0001a0 aa cb 2d 3e 7b 8e b8 bd f2 5d f1 bd 72 4b 4a 3c
       0.16972223 -0.09011551 -0.11785497 0.012347089
0001b0 3a 94 36 3d 6e e5 03 3d 51 30 c9 bd 0e b1 b0 3d
       0.044574954 0.032201223 -0.09823669 0.086275205
0001c0 0f 35 0c be e9 90 a2 bd 1d 91 92 bd 1d e6 14 3c
       -0.13692115 -0.07937796 -0.071565844 0.009088066
0001d0 8f 09 85 3d 98 df a5 3c 0e c8 9e bc c8 03 84 bc
       0.06495964 0.02024822 -0.019382503 -0.016115084
0001e0 5a 12 87 3d c5 e0 6a 3d 05 31 4f bd 9a db 15 be
       0.06595297 0.057343263 -0.050583858 -0.14634553
0001f0 69 14 f2 3d 88 a2 71 3b d3 1e 85 bb c8 2b 37 3d
       0.11820299 0.0036870558 -0.0040625124 0.044719487
000200 6f d0 37 3c 97 d8 96 3d 86 3a 1a bd f8 d6 7b 3d
       0.011219128 0.0736553 -0.03765347 0.061484307
000210 68 49 98 3c 53 58 c7 3d 04 8c 80 3d 8e 73 c2 bc
       0.01858969 0.097336434 0.06276706 -0.023736741
000220 69 f2 59 3d eb 49 10 3e 2d 79 06 be 2f ca b0 bc
       0.053209696 0.14090697 -0.13132162 -0.021580784
000230 78 16 e0 bd 31 50 a8 3c c3 31 8d bc cf 23 56 bd
       -0.109417856 0.02054605 -0.017235642 -0.052280243
000240 a8 05 9e bc 6a a9 ee 3d 79 72 9c 3d 84 6e 88 3d
       -0.019289806 0.11653407 0.076390214 0.06661704
000250 0a 95 6e bd 42 a7 84 3d a8 d6 e0 3d fb 1a a9 bc
       -0.058247603 0.064772144 0.109784424 -0.020642748
000260 ea 28 ce 3d 4c 36 56 bc 8f 52 23 bd ee 36 98 bd
       0.100663975 -0.013074469 -0.039873656 -0.07432352
000270 a4 4e 8f bc aa b5 e5 bb 8e c8 6e bd 1a 84 3e 3d
       -0.017493553 -0.0070101814 -0.058296733 0.0465127
000280 f1 8d 97 3d 7a 2a bb 3d 1e e3 85 3a 6b 1f 84 3d
       0.0740012 0.09138961 0.0010214781 0.06451305
000290 85 c1 02 3e 09 cb 80 bc 64 0c fa 3b 32 ec 1b 3c
       0.12769134 -0.015721815 0.0076308716 0.009516763
0002a0 59 28 0b 3e 85 dc f1 3c 39 06 03 3e 91 81 a8 3c
       0.1358961 0.029524097 0.12795343 0.020569595
0002b0 42 55 25 3e 56 80 e1 3d 3a 8a 60 3b 2c f6 fe bd
       0.16145805 0.11010806 0.0034262077 -0.12449297
0002c0 30 86 d2 3c 68 5e 0b 3e 2c 01 ee 3c 26 bc 09 bc
       0.025698751 0.13610232 0.029053293 -0.0084066745
0002d0 52 c7 9e 3b 2a 1f 8a 3d 15 68 aa bd 83 af 00 3d
       0.004845538 0.06744225 -0.08320633 0.03141738
0002e0 5e e0 05 3d c6 03 f7 bd 9d 9d a2 bd 5b 48 26 bc
       0.032684676 -0.120612666 -0.079402186 -0.010149087
0002f0 99 3f c5 3c ee 46 a2 3c c1 a0 2f bb c9 ce 11 be
       0.024078177 0.019809213 -0.0026798698 -0.14239039
000300 c9 21 83 bc 42 77 c1 bb 9a d6 ae 3c fe 92 a0 3d
       -0.016007321 -0.005904109 0.021342564 0.078405365
000310 2b 13 03 be 65 9b d2 bc 1e 2b c9 3d f6 ca b0 3d
       -0.12800281 -0.025708864 0.09822677 0.08632462
000320 c7 d1 60 3d 54 5f d2 3d 7d 44 6d 3d cd 8e 98 3d
       0.05488756 0.10272089 0.057926644 0.07449112
000330 30 35 00 3e c7 0d 26 3d 1a 3b b2 3d 0b c0 d8 3d
       0.1252029 0.040540483 0.08702679 0.10583504
000340 c5 4b 4c bd 66 20 ae ba 97 a3 c8 3d 3b 93 d0 3d
       -0.049876947 -0.0013284802 0.09796827 0.10184332
000350 70 f5 f8 bc d0 e1 11 3d 43 6d 80 3d 76 e9 da bd
       -0.030390471 0.035615742 0.0627084 -0.106890604
000360 85 3c b1 bd e5 6b 94 3d 53 f8 65 3d c5 91 87 3c
       -0.08654121 0.07247142 0.056145024 0.016549
000370 04 bf f3 bc b5 54 2d be ad ca f3 3c 5c 8d 30 3c
       -0.02975417 -0.16926844 0.02975973 0.01077589
000380 7b c5 4b bc 87 9e 4a 3d 5e 63 3e 3c 46 d4 b7 3c
       -0.01243722 0.04946759 0.011620371 0.022440087
000390 b9 79 cf bd 3b 1c f2 3d 0a bf e5 bc fc c6 bd 3c
       -0.10130639 0.11821791 -0.028045196 0.023166172
0003a0 07 29 31 3d 59 3b 42 3c 7e 56 fd 3d 93 89 a6 bd
       0.043252017 0.01185497 0.12370013 -0.08131709
0003b0 05 c4 8d bd ee 01 f7 3d 72 1f 8f bd 68 d9 85 3d
       -0.069221534 0.12060915 -0.069884196 0.065356076
0003c0 09 6e 3e 3d 63 c5 17 be ee 41 d5 3c b6 92 c0 bd
       0.046491656 -0.14821391 0.026032414 -0.09402983
0003d0 36 00 b8 bd 0e 36 67 3d d8 73 8e bd 98 84 03 be
       -0.08984415 0.056448035 -0.06955689 -0.12843549
0003e0 62 8c 46 3c 6b 4d fe bd 34 5b c7 3d da 92 ef 3d
       0.012118431 -0.1241711 0.097341925 0.116979316
0003f0 63 15 94 3d 9e a1 b9 3d 7d 5e f9 bd 46 f2 a6 3d
       0.07230642 0.09064029 -0.12176225 0.08151679

fc1.bias f4 [64]
000000 ec 6c aa 3d b8 5b 76 3d 79 47 74 3d 58 2d 24 ba
       0.083215564 0.060146064 0.059638474 -0.000626286
000010 bc 16 dd 3d b9 fc 92 bb 0c 39 01 3d 9c bb 86 3c
       0.10795352 -0.0044856933 0.031548545 0.016446881
000020 d2 7b 00 3d a0 3f e9 3d 6b 45 bb 3d 8a aa a4 3d
       0.031368084 0.11389089 0.091441 0.0804034
000030 03 1a 49 3c f7 2a f3 3d 87 ce 35 3d ff bb df 3d
       0.012274268 0.11873429 0.044386413 0.10924529
000040 6e 7a 43 3a 05 79 e4 3d 55 0e da 3d ba fc 0e 3d
       0.0007456903 0.11155895 0.10647265 0.034908988
000050 b9 d1 8e 3d 9d 18 1f bc c8 76 6a 3a c7 01 fc 3d
       0.06973595 -0.009710458 0.00089440914 0.123050265
000060 ed 40 bc 3b e0 b5 17 3e 95 33 e3 3d e9 9b bf 3c
       0.0057450444 0.14815474 0.11093823 0.023389773
000070 00 5e 1f 3d e5 c7 36 3c 5c 4f c7 3d d3 0e ba 3d
       0.038908005 0.011156057 0.097319335 0.09084859
000080 e5 1f bb 3d c2 04 e1 3d 38 9d f6 3d 4e 15 7d 3a
       0.09136943 0.109872356 0.12041706 0.0009654359
000090 3b 86 b7 3d 0f 82 b3 3d e3 b2 d4 3d 42 67 c8 3d
       0.08961149 0.08765041 0.103856824 0.0978532
0000a0 9a 2f 15 3e 4d 7c 15 3d b4 30 d6 3b 5b 1d dd 3c
       0.1456894 0.036495496 0.0065365676 0.026991537
0000b0 f4 b8 80 3c 2a d1 08 3e 82 00 da 3d 62 26 bd ba
       0.015713193 0.1336104 0.10644628 -0.0014430995
0000c0 b9 36 dc 3d 86 57 a1 3d 1a 94 be bb 6c c6 8c 3c
       0.10752625 0.07878022 -0.005815995 0.017184459
0000d0 63 b0 e9 3b ef 1b 05 3e 99 b3 b2 3d fd 2a 3e 3d
       0.0071316226 0.12998937 0.08725662 0.046427716
0000e0 8a cc 0b bb 9f 18 00 3d 96 c9 b6 3d 33 5b ee 3d
       -0.0021331632 0.03127348 0.08925168 0.116384886
0000f0 aa c7 d2 3d 52 d8 e6 3d 2e 57 35 bb 65 96 c5 3d
       0.10291989 0.112717286 -0.0027670371 0.09647826

fc2.weight f4 [1, 64]
000000 dd 4b 21 be a9 62 27 3e d6 1d ec bd d9 25 f3 bd
       -0.15751596 0.1634623 -0.11529128 -0.11872453
000010 1a 06 34 3e 30 61 51 3e 3c 70 39 3e 29 ee fc bd
       0.17580453 0.2044723 0.1810922 -0.12350113
000020 82 fd f1 bd 3f 57 cf 3d c4 c4 e7 3d 04 93 04 3e
       -0.11815931 0.10124063 0.11316827 0.12946707
000030 ac 0f 41 3e 85 0d c3 3d 2c 5f cd bd b1 9f 4f bd
       0.18853635 0.09524063 -0.10027918 -0.050689403
000040 7c 00 1c 3e ba 39 ba bd e6 c4 03 3e 3a 16 7b bd
       0.1523456 -0.09093042 0.1286808 -0.061300494
000050 18 80 25 3e 73 30 1d 3e ef 80 c5 bd 22 ee 3b be
       0.16162145 0.15350513 -0.09643733 -0.18352559
000060 46 16 3f 3e 06 57 fd 3d e3 9e 76 bd 07 f6 0f 3e
       0.1866084 0.12370114 -0.06021012 0.14058696
000070 aa 91 9a bd 87 c0 2e bd a7 3b a2 bd 5a 8e f9 bd
       -0.075473145 -0.042664077 -0.07921534 -0.121853545
000080 50 cc 10 be 11 d6 0d 3e c6 f7 18 3e 3e d0 0a 3e
       -0.14140439 0.13851191 0.14938268 0.13556
000090 ca b4 38 3e 64 e2 1e 3e 8b 28 27 be 2c 43 f8 bd
       0.18037716 0.15516049 -0.1632406 -0.12122187
0000a0 77 43 99 bd 6a 10 f7 3d 14 67 c2 3d 3b b6 07 3e
       -0.07483571 0.120636776 0.09492317 0.13253109
0000b0 b5 ca ca bd a7 e9 34 be 6f c3 e2 3d 1e 34 02 3e
       -0.099019445 -0.17667256 0.11072432 0.12715194
0000c0 c7 45 d4 bd c1 8c 29 be 59 cb 1d be 88 6c 18 3e
       -0.103648715 -0.165576 -0.15409602 0.14885151
0000d0 a2 84 8e bd 7b 1b d3 3d 06 46 cc 3d 55 11 95 3d
       -0.069588915 0.10307976 0.099742934 0.072786964
0000e0 e6 d8 99 bd 96 16 16 be 5c 01 d2 bd 6c e8 cc bd
       -0.07512073 -0.14657053 -0.102541655 -0.100052685
0000f0 d1 bc 0a 3e f2 36 b1 bd 4a d0 d3 bd 5d 25 ba 3d
       0.1354859 -0.08653058 -0.10342462 0.09089158

fc1.weight f4 [64, 128]
000000 d8 c7 66 bd 57 df f6 3c e7 f5 a5 bd f0 75 33 3d
       -0.05634293 0.030135794 -0.08103543 0.043813646
000010 5a 6c 40 bb 7d 59 6a 3d 92 58 3b bd ea db f7 bc
       -0.0029361458 0.05721425 -0.045738764 -0.03025623
000020 16 aa 98 bd 9d 3f dc 3c d7 25 be 3d 82 03 74 3c
       -0.07454316 0.026885802 0.09284561 0.014893414
000030 66 21 9d 3c 0f fa 34 3d 0d 49 e3 bc 4d ce d2 3d
       0.019180965 0.044183787 -0.027744794 0.10293255
000040 29 f5 63 bc d4 7e 41 3d bf 34 e6 bc 95 b1 3c 3b
       -0.013913431 0.047240093 -0.028101323 0.002879237
000050 1c d6 5e 3d a1 57 03 bb 6a fb 1d 3c 0a 31 55 3d
       0.05440341 -0.0020041245 0.009642461 0.05204872
000060 97 62 eb 3b 43 c9 30 bd a3 b7 17 bd 6b 49 80 3d
       0.0071833837 -0.043160688 -0.037040364 0.06264003
000070 d4 4c da 3c 83 6a 86 bd 7a 7b c3 3d 05 9d aa bc
       0.026647963 -0.06563284 0.09545036 -0.020826826
000080 85 34 6b 3d 64 77 90 bc 47 87 3d 3c 8c 20 5a 3d
       0.057423133 -0.017635055 0.011567897 0.053253695
000090 6b 37 9c 3b b2 28 17 3d 7b ae 93 bd f5 06 93 3d
       0.0047673485 0.036904044 -0.07211014 0.07179061
0000a0 60 d5 64 3d 61 04 7a bd 25 ff 3d bd 30 2c 7f bd
       0.055867553 -0.061039332 -0.046385903 -0.062298
0000b0 7f 45 e6 bb da 8c 77 ba 19 3e 17 3b f5 44 a4 3b
       -0.0070273275 -0.0009443291 0.0023077785 0.005013103
0000c0 64 58 99 3d 9d 78 1b 3d 6e ac 23 3d 75 f4 c7 3d
       0.07487562 0.037956823 0.039959364 0.09763423
0000d0 d4 23 36 bd 0c 93 83 bc 2f 10 64 bc db 9e ab 3d
       -0.044467762 -0.016061328 -0.013919874 0.08379909
0000e0 6b a4 86 3d 53 68 98 bc 24 9b b3 3b f9 f5 9f bb
       0.06574329 -0.018604433 0.0054811407 -0.004881617
0000f0 b9 ba 2d bd 50 d6 f0 3c 82 f4 91 bd 50 26 23 3d
       -0.0424144 0.029399067 -0.07126714 0.03983146
000100 8e 06 55 bc 56 dd d6 bc c4 7d 4a 3d c6 bc 47 bc
       -0.013002051 -0.026228588 0.049436346 -0.012191003
000110 72 8d 55 bd 87 e8 ee bd ba 32 b5 bc 84 6f 6a bd
       -0.052136846 -0.11665445 -0.022118915 -0.057235256
000120 1c b6 bf ba ce 12 ca bd 4e 9e 5e bd 2d a6 bf 3b
       -0.0014626416 -0.09866868 -0.05435019 0.005848667
000130 33 c2 85 bc bd 0d 44 3d da 1c a9 bc 4f bd ed 3b
       -0.016327953 0.047864664 -0.02064364 0.0072552334
000140 79 90 05 3d 02 08 c0 3d a3 0c 02 bd 7c 61 1d bd
       0.032608483 0.09376527 -0.031750333 -0.038423046
000150 18 c5 aa 3c ca 61 0a bd a9 77 a2 3c 93 c3 ca 3c
       0.020845935 -0.033784665 0.019832449 0.02475146
000160 2c 0c 9d bb 71 8c 4c 3d c4 c5 39 bd 27 09 fd 3c
       -0.0047927108 0.049938623 -0.04535462 0.030888153
000170 bb f0 01 bd c6 57 d1 3c c3 92 1a bb b8 7f 96 bd
       -0.03172372 0.025554549 -0.0023586012 -0.07348579
000180 a3 1a c1 bd 4e d3 2c 3d cb 60 fc ba 24 36 a9 3d
       -0.09428909 0.042193703 -0.0019254921 0.0826228
000190 e6 92 77 3c 8c 1a c7 3c 57 a9 aa 3d 16 29 76 3d
       0.015110707 0.02430465 0.0833308 0.060097776
0001a0 a4 93 4f 3d f2 0d 81 bd aa c5 70 3d e0 4b f3 3c
       0.05067791 -0.06301488 0.058782257 0.029699266
0001b0 aa b7 2c bd c4 f7 87 bd 3d 74 9c bd a5 1a 92 3b
       -0.042167343 -0.066390544 -0.07639358 0.0044587427
0001c0 63 01 61 bc d0 36 a0 3d 3f 98 31 bd 78 50 10 bd
       -0.013733241 0.07822955 -0.043358084 -0.03523299
0001d0 bb 8a 66 3d d1 12 56 3c 04 1c c0 bc 4b ac 1f bd
       0.056284647 0.01306601 -0.023450859 -0.03898267
0001e0 63 13 bb 3c 4b 55 a2 bd 20 45 ca bc 83 3d ce 3d
       0.022836393 -0.079264246 -0.024691164 0.10070326
0001f0 3c 53 1f bd 84 f0 ad bd 53 60 42 3d 9a d2 76 bd
       -0.038897738 -0.0849314 0.047455143 -0.06025944
000200 f4 8d dd bc 6a 70 d6 bd 0b c9 9a 3d e8 6b 0e 3e
       -0.027045228 -0.1047066 0.07557877 0.1390835
000210 ed ec e4 bc a0 f3 cf 3d 6c 5c 26 bd 2a 5e 17 3e
       -0.027945006 0.1015389 -0.040615484 0.14782014
000220 b0 7b 88 bd 4e 27 ad 3d 37 23 df bd 0b a9 2c 3d
       -0.066642165 0.084547624 -0.108953886 0.0421534
000230 8a 33 52 bd 8f a1 fe 3d c4 67 28 3d 1c 61 1d be
       -0.051318683 0.124331586 0.041114584 -0.15369076
000240 ac 47 a8 3c 2c 1f 16 3e 0d 1b 17 3e d5 17 9a bc
       0.020541988 0.14660329 0.14756413 -0.018810192
000250 23 62 ce 3c e7 96 25 3a 6e 5c 0a 3c 27 a0 f6 3d
       0.02519328 0.00063167367 0.0084448885 0.120422654
000260 b7 39 72 bd fb 57 2a bd 82 08 81 3d 42 5f 2e bc
       -0.059137072 -0.04158781 0.06300451 -0.010642828
000270 dd 97 c6 bd 99 31 e5 bd 59 00 be 3c 5c 23 81 3b
       -0.09696934 -0.111911006 0.023193525 0.0039409827
000280 1f 75 88 bd d1 b4 0e be 10 e3 58 bc ce 92 b5 3c
       -0.06662964 -0.13936163 -0.01323773 0.022164728
000290 38 ae 04 3e c5 ab fa 3c f3 46 32 3d 58 fa b7 bd
       0.12957084 0.030599484 0.043524694 -0.08983296
0002a0 d3 ed e3 bd 3b d2 1d 3b 1b 07 00 3e b8 bf 6c 3c
       -0.11129346 0.0024081606 0.1250271 0.014450006
0002b0 1d 10 3c bd 9b db ab 3d 47 40 38 3c ed b5 c4 3c
       -0.045913804 0.08391496 0.011245794 0.02401253
0002c0 5f 36 dc bb ac f0 db bd 71 ef 3c bd c8 d6 86 bc
       -0.0067203487 -0.10739264 -0.046126787 -0.016459838
0002d0 ba 85 0e be e7 b4 6b 3d 5d e4 31 3d ad 69 ad bd
       -0.139182 0.05754557 0.043430675 -0.08467422
0002e0 de a9 22 bd 93 a1 fb 3d e6 7e 9c 3d 33 77 06 3d
       -0.03971278 0.12286677 0.076413915 0.03282852
0002f0 b6 84 60 bd 86 a4 ad 3c df 8e aa 3b bb 92 6f 3d
       -0.054814063 0.021196615 0.00520502 0.058489542
000300 bc ef 0c be bc 31 41 bb d3 b3 b0 bd a6 a8 24 3d
       -0.13763326 -0.0029479107 -0.08628049 0.0401999
000310 34 86 a2 bb fd c6 12 3e 71 35 ab bd c7 87 fc 3c
       -0.004959846 0.1433372 -0.083598025 0.030826462
000320 94 3d 25 3d 71 e5 b4 3c 22 2d 09 3d 43 ee 96 3c
       0.04034193 0.022082062 0.033490308 0.018424159
000330 4f a4 0b be a2 3d 22 be 76 67 e3 bd 9d cb 5f bc
       -0.13636898 -0.15843824 -0.11103718 -0.013659385
000340 a1 b0 c5 3d 8f 8b 0f be 8e 52 de bd de 3a 05 3e
       0.0965283 -0.14018081 -0.1085559 0.13010737
000350 8e 4d c8 bc 24 f0 11 3e a7 05 d9 bc 2a ad d7 bd
       -0.024451043 0.14251763 -0.026491953 -0.10531075
000360 e4 5d 66 3d 81 83 fe bd 24 13 15 3e 85 85 1e 3e
       0.056241885 -0.12427426 0.14558083 0.15480621
000370 84 b6 ad 3d 71 14 a0 3d 5d fc c4 3d 45 71 ca 3c
       0.08482078 0.07816399 0.09618447 0.024712214
000380 8c 29 a0 3d e3 bf 06 3e ef 5d 19 3c f2 c8 32 bd
       0.078204244 0.13159136 0.009360774 -0.043648668
000390 b2 29 9c bd 22 52 a7 bd 98 08 30 bd 1c 36 85 bd
       -0.0762514 -0.081699625 -0.042976946 -0.06504461
0003a0 72 fb d2 3d bc f1 db 3d 68 e0 3f bd 0c e2 c8 ba
       0.10301866 0.107394665 -0.04684487 -0.0015326156
0003b0 06 94 e3 3c 14 71 60 3c 36 0b 4c 3c 01 78 9b 3d
       0.027780544 0.013698835 0.012453845 0.07591248
0003c0 ff e4 e8 bd ba 93 96 bc 8c 05 04 be 98 95 9d bd
       -0.113718025 -0.018380988 -0.12892741 -0.07694548
0003d0 b9 e4 2a bd 12 0d e5 bc 72 46 1c bd d1 5b 39 3d
       -0.041722033 -0.027960334 -0.03815312 0.04525358
0003e0 3f 12 b4 3d 98 41 bb 3d c0 28 ea bb e1 59 c6 bd
       0.08792543 0.091433704 -0.007145971 -0.09685112
0003f0 a1 cd 06 bc 75 34 c2 bc 0e db 5b bb fa 72 ae bd
       -0.008227737 -0.023706654 -0.0033547315 -0.08518024

fc1.bias f4 [64]
000000 9a 91 30 3d 6c 8a db 3d 9f 5e 9b 3b f0 af 91 bc
       0.043107606 0.10719761 0.0047415043 -0.017784089
000010 4c 57 c1 3c 83 3a 60 3d 37 2e bd 3c c1 e6 0a bc
       0.023601197 0.0547433 0.023093326 -0.008477868
000020 b3 50 ea 3d 7e a4 22 3d 13 6a 40 3d 16 77 18 3e
       0.114411734 0.039707653 0.04697616 0.14889178
000030 28 06 04 3d 31 6b 8f bd 2c f0 18 3e 2c 0a 8f bc
       0.032232434 -0.07002867 0.14935368 -0.017460905
000040 34 d1 32 bd fe c7 e2 3d d5 6a 2c 3c fd 38 45 bd
       -0.043656543 0.11073302 0.010523518 -0.04815005
000050 65 8e 81 bd 85 66 f2 bc dc 52 a7 bd 6e 73 91 3c
       -0.06325988 -0.0295899 -0.08170101 0.017755236
000060 f8 12 91 bc dd 3c 97 3c fd 50 2b 3d be d9 32 3d
       -0.01770924 0.018461639 0.041825283 0.043664686
000070 56 7c ec ba 8c b0 0c 3d 17 43 5a 3d a9 35 9a bb
       -0.0018042426 0.034348056 0.053286638 -0.004706104
000080 6a 48 b3 bd e1 65 e7 bb 7e 13 cd 3d 70 ad 94 3c
       -0.08754046 -0.0070617055 0.100134835 0.018149108
000090 72 a1 92 3c 30 54 73 3d 9c ce e4 3d d3 b2 51 bd
       0.017899249 0.05940646 0.1117222 -0.05119593
0000a0 58 2c 05 3e e4 e4 f2 bb 8d 68 bb 3d ea 1b 99 bc
       0.13005197 -0.00741254 0.09150801 -0.018690068
0000b0 7c ab 1d bd 9a bc d8 3d 5e 5a f1 bb e5 69 33 3c
       -0.03849362 0.10582848 -0.007365509 0.01095054
0000c0 34 47 ce 3b 06 1b ae bc 1a f1 06 3e 35 1e f6 3d
       0.006295109 -0.02125312 0.1317791 0.1201748
0000d0 3b 2b f3 3c 45 70 be bd df c6 0c bc 0c 2e 78 3b
       0.0296837 -0.092987575 -0.008592336 0.0037869243
0000e0 39 15 0c 3e bd 0e 80 3d 07 64 10 bb 35 79 de 3d
       0.13679971 0.06252811 -0.0022032277 0.10862962
0000f0 86 80 29 bd e1 7a 00 3e 3c e5 4e ba eb 94 70 3c
       -0.041382335 0.12546875 -0.0007892435 0.014683942

fc2.weight f4 [1, 64]
000000 37 30 13 bc ca 17 c7 3d fe c7 d7 bb 58 1a 1e bd
       -0.008983663 0.09721334 -0.00658512 -0.038599342
000010 c6 26 46 3e b7 18 b7 3d b1 c6 18 3e c1 22 d0 bd
       0.19350728 0.08940261 0.14919545 -0.10162879
000020 59 af fc 3d 6a df e1 bc ae a2 f4 bc eb 40 14 3e
       0.123381324 -0.027572352 -0.029862728 0.14477889
000030 45 fc e5 3d 87 e7 35 bc 83 ef 9d 3d b4 52 c8 bd
       0.11229757 -0.011102564 0.07711699 -0.09781399
000040 81 9c 54 bd b0 b6 e6 3d f0 dc 17 3e f4 18 35 bd
       -0.051907066 0.112653136 0.14830375 -0.04421325
000050 b7 aa fd bb 80 9e a8 bd a6 05 5d bd b7 ef f3 3d
       -0.007741298 -0.082333565 -0.053960465 0.11910956
000060 3e 5d 2d 3e da fa 03 3e 5a 2c a5 bd ca b0 2b bd
       0.169301 0.12888661 -0.080651 -0.041916646
000070 a7 6a 0b 3e 34 e2 38 3e 5a 17 54 3e 6f f0 0d 3e
       0.13614903 0.1805504 0.20712033 0.1386125
000080 3e 09 c0 ba 13 af 08 3e ca 37 41 3e d2 fd ea 3d
       -0.0014651192 0.13348036 0.18868938 0.11474194
000090 17 af f1 3d b3 46 3d 3e 00 63 ad 3d 7f d1 80 bd
       0.11800974 0.18484001 0.084661484 -0.06289958
0000a0 d7 73 c2 3d 6f 7c 26 3e fb ac 18 3e a4 c9 5a 3d
       0.09494751 0.16258405 0.14909737 0.053414956
0000b0 5e 34 ef bc 1c d3 2d 3e 07 a4 4e 3e d8 89 f2 3d
       -0.029199775 0.16975063 0.20179759 0.11842698
0000c0 75 39 e5 3d 72 0e 81 bd e4 ee 22 3e 44 d7 0e 3e
       0.111926 -0.06301583 0.15911442 0.13949305
0000d0 8a a5 38 bd 6e 4d 20 bd 4c d2 3c 3e 63 73 ad bd
       -0.045079745 -0.039136343 0.18439597 -0.08469274
0000e0 04 5e 99 3d f8 e9 f3 3d 26 8e ed 3d 26 92 0e 3e
       0.07488635 0.119098604 0.11599378 0.13922939
0000f0 16 53 f6 bc a1 ea 07 3e 10 7b 47 3c ef a5 89 3d
       -0.030068915 0.13273098 0.0121753365 0.067211024

exp_avg f4 [64, 128]
000000 f3 a6 e2 37 4e d7 87 b7 55 81 48 b8 f3 81 c7 b7
       2.7019041e-05 -1.6193513e-05 -4.7804166e-05 -2.3783161e-05
000010 f1 12 08 38 df 90 77 36 58 8c 05 38 51 0a a6 36
       3.2442567e-05 3.6890194e-06 3.1840376e-05 4.9483865e-06
000020 41 2a 9d b6 64 f0 62 b7 18 26 2a b7 3e 5f 04 b7
       -4.6838836e-06 -1.352662e-05 -1.0141659e-05 -7.889988e-06
000030 37 ad 32 38 f7 43 3f b8 1d c2 b8 b7 3d 69 e7 37
       4.2599826e-05 -4.5601246e-05 -2.20249e-05 2.7586351e-05
000040 c8 e5 53 37 11 98 26 b7 c2 fb 18 b8 4f 10 7a 37
       1.263008e-05 -9.929777e-06 -3.647409e-05 1.4904958e-05
000050 a6 f8 16 b6 04 7c bf 38 89 65 23 38 0f 3a 30 b7
       -2.2496474e-06 9.1306894e-05 3.895679e-05 -1.0503935e-05
000060 25 c5 36 37 59 2d a0 37 bb 0b b0 36 31 46 fb b5
       1.0893947e-05 1.9094603e-05 5.2465743e-06 -1.8721386e-06
000070 fa 45 20 38 8d 42 ba 37 67 bb 84 37 01 61 53 38
       3.8212143e-05 2.2203918e-05 1.5822892e-05 5.0396662e-05
000080 e6 53 36 38 09 09 3f b4 a7 32 22 b7 3d bb 93 33
       4.3470318e-05 -1.7791548e-07 -9.667746e-06 6.8792794e-08
000090 96 57 28 b7 7c 39 d5 b7 3c de 34 b8 a0 f2 fe b6
       -1.0033973e-05 -2.5418347e-05 -4.3122316e-05 -7.598035e-06
0000a0 d5 70 0d 38 84 88 08 b7 b3 4c 1d b8 77 fc ab 37
       3.3722103e-05 -8.138017e-06 -3.750315e-05 2.0502352e-05
0000b0 02 20 60 37 25 8a 1e b6 1f 42 8d b6 0e 87 22 37
       1.3358893e-05 -2.3624245e-06 -4.209825e-06 9.687397e-06
0000c0 00 21 48 37 5d ba 1b 37 ac dd a0 37 20 93 fb 37
       1.1928612e-05 9.282111e-06 1.917671e-05 2.9990042e-05
0000d0 a8 c6 ac 36 ff 70 b6 37 ff 10 20 b7 da 6a 10 37
       5.149126e-06 2.1748709e-05 -9.5407e-06 8.607947e-06
0000e0 35 a9 6f 38 34 80 3e b7 d9 96 ae b7 37 fa e1 37
       5.7139627e-05 -1.1354732e-05 -2.081266e-05 2.6938606e-05
0000f0 75 92 a6 b7 23 42 a8 b7 8c b3 08 b8 96 cf 03 b8
       -1.9856941e-05 -2.0057958e-05 -3.2592143e-05 -3.1426163e-05
000100 57 08 91 b7 1f a9 2a 36 5c 2b b4 36 5c 16 32 b7
       -1.728923e-05 2.5430415e-06 5.3694657e-06 -1.0614833e-05
000110 b0 67 02 b8 d1 2f e2 b6 11 5c 95 37 07 5b bb b6
       -3.109098e-05 -6.7408914e-06 1.7805056e-05 -5.5836313e-06
000120 6a 6f 3a b7 c6 7c 4e 36 89 31 7e b7 8a 98 93 36
       -1.11124045e-05 3.076902e-06 -1.5151113e-05 4.3986993e-06
000130 73 62 de 38 03 04 fb 37 2a 16 05 b7 08 56 ca 37
       0.000106041225 2.99234e-05 -7.932578e-06 2.4120338e-05
000140 0c a9 e7 36 f7 27 2d 38 cd b8 c9 b5 df b5 79 b7
       6.904016e-06 4.1283634e-05 -1.5029451e-06 -1.4883902e-05
000150 db 89 34 38 a2 c1 0d b8 97 28 1e b7 ff 20 62 b8
       4.3043732e-05 -3.3797354e-05 -9.426984e-06 -5.391333e-05
000160 17 46 04 b7 32 0c 46 b5 84 a9 ee 36 36 e3 96 b7
       -7.884132e-06 -7.3778494e-07 7.112687e-06 -1.7987197e-05
000170 0e 3a 8a b7 fd 2f 32 b7 29 ff a5 b7 41 ee e0 b4
       -1.6477916e-05 -1.06208e-05 -1.9788351e-05 -4.1896604e-07
000180 7d 64 a8 b5 07 dc 82 b7 16 5e 05 37 2f fc 2d 38
       -1.2546221e-06 -1.5599666e-05 7.949324e-06 4.148128e-05
000190 7d 59 77 38 60 14 b6 37 6e f3 8c b7 f0 d7 32 38
       5.897273e-05 2.1705579e-05 -1.6802656e-05 4.2639615e-05
0001a0 96 39 17 b8 fb db fb b5 8e ac ae 37 71 7b 5f b8
       -3.6054837e-05 -1.876498e-06 2.0822768e-05 -5.3282307e-05
0001b0 a8 ca 9e b7 6a 81 2c b5 02 cc d2 b5 4d be b2 b7
       -1.8929437e-05 -6.4263315e-07 -1.5705593e-06 -2.130787e-05
0001c0 ba 74 86 36 75 49 ac 37 1f 00 49 38 a8 31 cd 37
       4.0071e-06 2.0538204e-05 4.7922247e-05 2.4461027e-05
0001d0 a0 58 e7 b6 ba f4 da b7 8f 3a 5f b6 ae 15 ab 34
       -6.894654e-06 -2.6101585e-05 -3.3263675e-06 3.1867006e-07
0001e0 8c b5 d0 b6 f1 98 81 b8 6e b9 fe b6 d0 54 c4 37
       -6.220018e-06 -6.179687e-05 -7.5913767e-06 2.3404515e-05
0001f0 d6 b7 03 b8 65 87 00 b8 9e 90 3e 36 c6 58 81 36
       -3.1404044e-05 -3.0643674e-05 2.8396385e-06 3.854834e-06
000200 ac 18 fe 35 0c a7 ac b6 c6 2e c9 37 8c 8e 14 38
       1.8931655e-06 -5.1454463e-06 2.3982848e-05 3.5418707e-05
000210 e6 99 99 b7 72 e4 79 36 6d 25 f5 b7 c3 64 19 37
       -1.8310686e-05 3.7236864e-06 -2.9223704e-05 9.142971e-06
000220 08 17 80 37 be 00 7c 37 8e d9 81 37 c5 a8 ce b6
       1.5269514e-05 1.5020543e-05 1.5479305e-05 -6.1589258e-06
000230 00 37 15 37 56 ae bd 37 4d 53 2c 35 d5 16 af 37
       8.893898e-06 2.2611737e-05 6.419621e-07 2.0872258e-05
000240 8c 72 c4 b7 ed 23 ba 37 89 ea 0e 38 c8 04 4b b6
       -2.341836e-05 2.2189657e-05 3.4073866e-05 -3.025214e-06
000250 44 f1 4c 36 d3 78 d4 36 bb 14 3f b7 72 da 82 37
       3.0538804e-06 6.332158e-06 -1.1389314e-05 1.559893e-05
000260 36 78 2c b7 0f 2c 80 b7 55 5e 4e b8 cf 12 d8 b7
       -1.0279988e-05 -1.5279305e-05 -4.920208e-05 -2.5757965e-05
000270 f5 ea 76 b7 18 44 74 37 2c b1 6e b7 b3 4d a3 b7
       -1.4717448e-05 1.4559388e-05 -1.42271565e-05 -1.9467296e-05
000280 37 b5 14 37 91 cb 50 35 cd 87 95 b6 4d 95 6f 37
       8.86368e-06 7.7782266e-07 -4.4563553e-06 1.4280272e-05
000290 18 8f 94 36 7c b0 1c 37 88 05 e8 36 c2 0d bb b7
       4.427402e-06 9.339416e-06 6.9147827e-06 -2.2298544e-05
0002a0 f2 db b2 b7 1c 8b 49 37 b6 4d af 37 cf 85 fc b7
       -2.1321674e-05 1.20129225e-05 2.0897813e-05 -3.010305e-05
0002b0 5a 63 a9 b6 3e 85 49 37 33 1e 90 b7 ed 5e b2 36
       -5.0481585e-06 1.20115565e-05 -1.71802e-05 5.315864e-06
0002c0 ea 3b 76 37 a5 d6 65 b6 e6 08 d8 b6 21 27 f2 37
       1.4676692e-05 -3.4248599e-06 -6.4383376e-06 2.8866869e-05
0002d0 72 97 6f b7 0b 9c 02 37 ff bd e0 37 6a ec 1b b6
       -1.4280771e-05 7.784935e-06 2.6791355e-05 -2.323441e-06
0002e0 05 05 c1 b7 56 a5 a5 35 63 66 20 b7 0b 0f 13 b5
       -2.300973e-05 1.2341577e-06 -9.560582e-06 -5.478366e-07
0002f0 70 85 a9 b7 ce 8e ec 37 5f 3e b3 37 a3 8c c5 37
       -2.0208507e-05 2.8199891e-05 2.1367507e-05 2.354972e-05
000300 e5 28 ef b6 b3 4c 7a b5 42 94 13 37 c2 84 b5 36
       -7.127516e-06 -9.324387e-07 8.796402e-06 5.4096754e-06
000310 0f 4c 6b 37 77 31 a2 37 7c f4 4b 37 78 43 b2 36
       1.40248e-05 1.9334939e-05 1.2156666e-05 5.312668e-06
000320 a8 d5 01 38 ae aa 5d b7 c6 87 fe b6 e7 32 0a 37
       3.095498e-05 -1.3212366e-05 -7.585596e-06 8.237293e-06
000330 99 47 81 35 58 3d 83 37 a7 ce 64 36 e7 48 d4 b7
       9.632087e-07 1.5644982e-05 3.4094935e-06 -2.5306317e-05
000340 b5 03 9a 35 d9 f3 24 b7 0e 54 0e 37 93 9d 65 37
       1.1474973e-06 -9.831937e-06 8.48343e-06 1.3686152e-05
000350 38 ba c4 b7 ab d6 32 35 85 c9 8c 37 0c e7 46 b7
       -2.3451736e-05 6.662255e-07 1.678314e-05 -1.18555145e-05
000360 ac e0 d1 37 60 5e eb b5 62 59 ad 37 17 c1 9c 35
       2.5019363e-05 -1.7536331e-06 2.066483e-05 1.1679102e-06
000370 aa 15 17 37 ed 69 4b 37 c3 30 8d b7 a9 dd 57 b7
       9.005345e-06 1.2124406e-05 -1.6831216e-05 -1.2866608e-05
000380 61 3a 0e 36 ec 3c 4b 36 db 7c f0 b7 e9 f6 5a 37
       2.119363e-06 3.0284818e-06 -2.866837e-05 1.3051301e-05
000390 ad 37 66 36 ab fe b0 34 29 e5 2e b7 06 16 07 b8
       3.4305078e-06 3.296785e-07 -1.0424564e-05 -3.220702e-05
0003a0 2c 29 99 37 2b 64 97 b6 12 d4 9c 34 13 74 9b 37
       1.8258193e-05 -4.5118118e-06 2.9211566e-07 1.8531491e-05
0003b0 6c 0f 57 b7 9e 42 0f 37 6e 93 ab b6 9a 96 0e 38
       -1.2818589e-05 8.538975e-06 -5.11336e-06 3.3995697e-05
0003c0 ff 73 19 37 6e 8e d6 37 40 c3 26 b5 10 d3 0b b8
       9.146518e-06 2.5577112e-05 -6.2123945e-07 -3.333675e-05
0003d0 5b 13 3c b7 85 77 c7 36 05 56 25 b7 e7 ea 28 35
       -1.121018e-05 5.944576e-06 -9.854794e-06 6.2926705e-07
0003e0 be 7a 99 37 cf 42 55 b7 6c 36 ed 36 7f a8 07 b6
       1.8296178e-05 -1.2711344e-05 7.069486e-06 -2.0214645e-06
0003f0 7e 1e bb 37 51 b9 2e 38 0a f3 4f b7 d9 c5 de b7
       2.2306336e-05 4.1657422e-05 -1.2394748e-05 -2.6556592e-05

exp_avg_sq f4 [64, 128]
000000 e4 26 4a 2e 67 29 71 2d 40 0f 81 2e fb 45 9c 2d
       4.5964024e-11 1.3708457e-11 5.86895e-11 1.7766224e-11
000010 74 88 f5 2d 7e 78 68 2c cc fb 43 2e e0 c4 c2 2b
       2.7913873e-11 3.303607e-12 4.4561507e-11 1.3839173e-12
000020 cd 39 bf 2c 57 84 a2 2c 2e f0 7a 2d 3c e9 02 2d
       5.4349637e-12 4.6190096e-12 1.4264185e-11 7.441433e-12
000030 56 69 88 2e d4 2a 4a 2e c5 9d 54 2d b0 87 a1 2d
       6.2032754e-11 4.596752e-11 1.2085837e-11 1.8363838e-11
000040 01 d9 4e 2d ce bb cd 2c b2 c3 36 2e 9b 7c 16 2d
       1.1757929e-11 5.847301e-12 4.155582e-11 8.554181e-12
000050 7b cf 0a 2c b8 99 9e 2f 3c 8e 1f 2e bc 64 b5 2c
       1.9726154e-12 2.8849256e-10 3.6278744e-11 5.155513e-12
000060 0b 8d 31 2d 71 0c 11 2d a3 83 1f 2e 10 07 bb 2c
       1.0092603e-11 8.245058e-12 3.626933e-11 5.3156438e-12
000070 9b 00 07 2e 3f f2 88 2d 86 6f bb 2d 05 17 66 2e
       3.0695984e-11 1.5568989e-11 2.1308965e-11 5.231639e-11
000080 df 04 63 2e 53 9d 6d 2c 18 fe 32 2d 2d 4f 20 2b
       5.161815e-11 3.3767058e-12 1.0174549e-11 5.69533e-13
000090 02 92 8d 2c 84 98 b9 2d 26 6a 48 2e 17 d5 7c 2d
       4.023671e-12 2.1099796e-11 4.5569014e-11 1.4371857e-11
0000a0 f6 16 7a 2e 81 c9 7a 2c 06 af 15 2e 1f d0 b8 2d
       5.6863812e-11 3.5638994e-12 3.403413e-11 2.1010802e-11
0000b0 fb e1 a3 2d 8d 4a 0a 2b cb 08 9f 2d 76 a8 29 2d
       1.863131e-11 4.913091e-13 1.8080112e-11 9.643944e-12
0000c0 83 d7 f3 2c 95 27 1a 2d d3 ce 27 2d 2e 44 b5 2d
       6.930402e-12 8.7626755e-12 9.538775e-12 2.0607595e-11
0000d0 d9 fb 36 2d 52 7f 88 2d f1 4e df 2c a5 ef 2f 2d
       1.0401424e-11 1.5517952e-11 6.3468055e-12 1.000081e-11
0000e0 db 30 15 2f fe 3a 87 2c da bd 47 2d ba c5 d8 2d
       1.3568828e-10 3.8434802e-12 1.1353996e-11 2.4644165e-11
0000f0 a2 c5 55 2d 05 d2 31 2d fc df d8 2d 93 61 c7 2d
       1.21515315e-11 1.0107919e-11 2.4655826e-11 2.2667012e-11
000100 4b c0 b4 2d ac 7b 98 2b a0 31 21 2d 63 25 4a 2c
       2.0549026e-11 1.0834575e-12 9.162809e-12 2.872668e-12
000110 d4 bf dc 2d 1f 88 cc 2c 79 98 42 2d ac 3c 68 2c
       2.5096293e-11 5.813141e-12 1.1061479e-11 3.3002863e-12
000120 3a 1f 1d 2d fd 02 aa 2c e9 76 e0 2c 41 6a f1 2c
       8.9313505e-12 4.8320224e-12 6.3796646e-12 6.8614285e-12
000130 e9 f5 90 2f 20 4c cd 2d de 6e 6b 2c b4 b4 b2 2d
       2.6368177e-10 2.3339608e-11 3.3457052e-12 2.0316505e-11
000140 fa fe 7d 2c 0b a9 44 2e c7 e8 22 2d 15 41 ba 2d
       3.6095003e-12 4.471538e-11 9.260321e-12 2.1174654e-11
000150 52 47 24 2e f4 88 f6 2d 8f a2 8a 2e 2b fb f4 2e
       3.7352628e-11 2.8027781e-11 6.3043896e-11 1.1140452e-10
000160 c1 f4 90 2c 87 3d f8 2d 58 23 1c 2d 63 b0 96 2d
       4.1198993e-12 2.822166e-11 8.875421e-12 1.7131357e-11
000170 00 24 55 2d 14 bd 74 2c f3 91 c0 2d bf a4 a1 2d
       1.2115642e-11 3.4779445e-12 2.1892687e-11 1.8376743e-11
000180 8c 27 5b 2b c0 48 07 2d 04 7e 9e 2d 07 cf 24 2e
       7.785931e-13 7.690015e-12 1.8018483e-11 3.747316e-11
000190 34 d7 c3 2e 7a 3a 62 2d e9 3b b2 2d 78 67 ae 2e
       8.905801e-11 1.2859597e-11 2.0262863e-11 7.9309836e-11
0001a0 e1 79 3d 2e a7 61 1f 2d b7 0d 3f 2d 7a 42 86 2e
       4.3081875e-11 9.059787e-12 1.0860138e-11 6.105423e-11
0001b0 6e 96 20 2d da 6a ef 2b 82 8b 8e 2b 66 64 98 2d
       9.128349e-12 1.7011629e-12 1.0128428e-12 1.7324985e-11
0001c0 16 8e df 2d 98 2e 8e 2d 8e 91 5b 2e 28 23 89 2d
       2.5415264e-11 1.6164223e-11 4.9924113e-11 1.559071e-11
0001d0 f7 be ec 2c 7c e3 aa 2d 91 53 b3 2c d6 e3 c1 2c
       6.7287248e-12 1.9427786e-11 5.0967637e-12 5.510685e-12
0001e0 f3 18 af 2b e0 a8 ba 2e 8c 39 1b 2c 82 66 bf 2d
       1.2441423e-12 8.488299e-11 2.205877e-12 2.1759709e-11
0001f0 6d f8 1c 2e 87 c0 85 2e 60 07 7e 2d 92 68 e8 2c
       3.569094e-11 6.0823395e-11 1.4439866e-11 6.6054462e-12
000200 21 9d 1e 2e 4d fd 83 2b 04 5e 50 2d 65 66 2d 2e
       3.60646e-11 9.378415e-13 1.1844307e-11 3.942659e-11
000210 30 e9 ee 2d 7b 1b e3 2c 83 b1 0f 2e ee ab 28 2d
       2.7161023e-11 6.454779e-12 3.2672098e-11 9.58787e-12
000220 e6 60 96 2d 3a 6f 80 2d 2e c9 bb 2d 38 e4 1b 2d
       1.7096057e-11 1.460131e-11 2.134878e-11 8.861405e-12
000230 16 09 33 2d 0c 20 09 2e ed b7 fe 2c db 61 3b 2e
       1.01769895e-11 3.1178657e-11 7.239534e-12 4.260579e-11
000240 87 89 94 2d 65 b0 f1 2d f6 bb 51 2e 03 52 bf 2b
       1.6886726e-11 2.7476863e-11 4.768804e-11 1.3594129e-12
000250 7b 01 bd 2a 32 c5 d0 2d e1 3a d0 2c 36 d5 bb 2d
       3.3574172e-13 2.3734435e-11 5.9182524e-12 2.1354123e-11
000260 42 74 8b 2d 53 52 09 2d 8d b4 9f 2e 16 51 34 2e
       1.58541e-11 7.805828e-12 7.262555e-11 4.099928e-11
000270 1d 16 e6 2c 80 1a d4 2c d1 ff 0f 2d ad 6a 96 2d
       6.5394482e-12 6.0283445e-12 8.1854115e-12 1.71004e-11
000280 24 1a b7 2c a4 ab ec 2c 4b 67 a4 2d ba 2c c0 2c
       5.204075e-12 6.7265794e-12 1.8690513e-11 5.461934e-12
000290 0c 88 28 2c 40 4e f6 2e 8b 4a ba 2c 61 06 4b 2d
       2.3949757e-12 1.1200685e-10 5.294714e-12 1.154063e-11
0002a0 df ea 85 2d ea b6 7e 2d 67 a4 d7 2d d1 1e df 2d
       1.5224653e-11 1.44788435e-11 2.451568e-11 2.536585e-11
0002b0 4b 23 18 2e 64 a5 8d 2c 27 bc 3e 2d 68 b1 81 2e
       3.4592145e-11 4.025823e-12 1.0842028e-11 5.8977545e-11
0002c0 ae 38 00 2d 32 db bf 2b 3a d6 fb 2b fa 4c a5 2d
       7.288543e-12 1.3632205e-12 1.7894082e-12 1.8792513e-11
0002d0 0e 79 6d 2d 1e 39 ca 2c 7c d2 d5 2d 89 29 e9 2c
       1.349877e-11 5.7475266e-12 2.430877e-11 6.6268696e-12
0002e0 d1 26 a7 2d 49 63 f1 2c 2b 8b ca 2c de 17 5d 2c
       1.900294e-11 6.860655e-12 5.756636e-12 3.1419238e-12
0002f0 ed e9 b8 2d 47 93 05 2e 6b c8 1d 2f b7 89 b4 2d
       2.1022262e-11 3.0371507e-11 1.435027e-10 2.0524788e-11
000300 30 52 97 2e 59 ab 94 2c c3 1e b0 2d 7b 9a a7 2b
       6.8812844e-11 4.2254364e-12 2.0022544e-11 1.1908941e-12
000310 8d cf 08 2d 8c 0d 86 2d 54 68 a5 2d ac f8 1c 2c
       7.7767905e-12 1.5240052e-11 1.880466e-11 2.2306974e-12
000320 ed 12 d5 2d 12 f3 c0 2c 10 2a 44 2c 18 06 13 2d
       2.4223701e-11 5.4839544e-12 2.7876625e-12 8.357336e-12
000330 62 81 36 2d 24 bf 06 2d 26 3a 3f 2c b6 f7 a3 2d
       1.0374231e-11 7.65946e-12 2.7175011e-12 1.864096e-11
000340 d5 3f 49 2c 7a f8 ab 2c d1 dc 0c 2d 4d dd 99 2e
       2.8599252e-12 4.8876988e-12 8.00711e-12 6.9969454e-11
000350 92 fe 95 2d 2b 38 1d 2d c5 6a 2e 2e db d1 14 2d
       1.705239e-11 8.9368886e-12 3.965785e-11 8.459423e-12
000360 ae e3 8a 2d 57 e9 46 2d 43 ce c6 2d a9 fb e1 2b
       1.5789894e-11 1.1306809e-11 2.2601592e-11 1.6057061e-12
000370 8e 49 08 2d c5 19 97 2d bc b6 2f 2e dc ae af 2c
       7.747037e-12 1.7178156e-11 3.9952694e-11 4.9932124e-12
000380 ab 00 d5 2b a1 b2 87 2c 64 09 3d 2e 8f 65 53 2d
       1.5134746e-12 3.8567626e-12 4.2981965e-11 1.2016512e-11
000390 63 9b 82 2d c8 1a c2 2c 24 ac a4 2d f6 d8 5e 2e
       1.4848294e-11 5.516785e-12 1.8721087e-11 5.0669656e-11
0003a0 01 99 a6 2d 44 05 8e 2c 86 aa 9a 2d 3f 17 64 2d
       1.8939962e-11 4.0364673e-12 1.75835e-11 1.2965461e-11
0003b0 bd 02 45 2d 27 63 d8 2c f9 5b c0 2b 78 1f 2b 2e
       1.11987615e-11 6.1500974e-12 1.3667948e-12 3.890885e-11
0003c0 11 b2 99 2d 5c ab 81 2d c6 13 ef 2b 22 e2 7e 2e
       1.7473164e-11 1.4741701e-11 1.698746e-12 5.795376e-11
0003d0 03 86 51 2d 5f 2e e4 2b 51 6f d4 2d 8b c9 8c 2c
       1.1910031e-11 1.6213245e-12 2.4151044e-11 4.001415e-12
0003e0 8c be 72 2d 3d c8 b8 2d a8 a3 6e 2d 17 b3 76 2d
       1.3798417e-11 2.1007302e-11 1.3565073e-11 1.4023247e-11
0003f0 9c fe 6f 2d 55 31 66 2e e4 0c 35 2d 58 f6 a8 2d
       1.3642112e-11 5.233976e-11 1.0291521e-11 1.9208787e-11

exp_avg f4 [64]
000000 ff a3 a0 b9 96 93 9e 38 77 8e 96 b9 a3 6e 4b b9
       -0.00030639765 7.561517e-05 -0.00028716374 -0.00019400804
000010 4a 61 0f 39 da 0a 8c b8 c9 83 ce 38 62 0b 68 b9
       0.00013673786 -6.6777415e-05 9.847392e-05 -0.00022129485
000020 a3 82 09 b9 dd ca 3a 38 6f 78 c0 38 2d 1d d4 38
       -0.00013114004 4.4534787e-05 9.177706e-05 0.00010114382
000030 cc 5b aa 38 0d 68 e3 37 c3 e6 47 b9 54 88 bc b8
       8.12333e-05 2.7108961e-05 -0.00019064084 -8.989932e-05
000040 d9 f3 2d b7 9a a7 1c b9 c8 06 b8 38 a2 08 ea b8
       -1.0368379e-05 -0.00014939756 8.775067e-05 -0.000111595975
000050 f2 4c 18 38 be fc 87 38 08 21 06 b9 95 ce db b9
       3.6311285e-05 6.4843785e-05 -0.00012791541 -0.0004192485
000060 0a 79 4a b8 49 a6 fa 37 9e 01 e7 b8 24 3e 09 b8
       -4.827328e-05 2.9879755e-05 -0.000110152396 -3.272122e-05
000070 2d 32 fa b8 66 c0 79 b8 14 71 2e b9 46 96 79 b9
       -0.00011930275 -5.954541e-05 -0.00016636058 -0.00023802472
000080 32 bf 8c b9 a8 f5 54 38 c0 d6 bb 38 67 37 84 38
       -0.00026845332 5.0773524e-05 8.956855e-05 6.30457e-05
000090 9b 61 92 38 ca a3 2b 37 72 f0 9b b9 7b d3 72 b9
       6.980003e-05 1.0230529e-05 -0.0002974305 -0.00023157701
0000a0 ce e4 13 b9 73 2d 93 37 a9 1c 86 37 30 17 c5 38
       -0.00014104249 1.754493e-05 1.598739e-05 9.398011e-05
0000b0 21 19 bb b8 c6 fc d0 b9 d5 fb 23 36 58 0b 73 38
       -8.9215355e-05 -0.00039861182 2.4435478e-06 5.794628e-05
0000c0 66 24 64 b9 8f ff a9 b9 32 70 89 b9 a8 24 d6 37
       -0.00021757334 -0.00032424598 -0.00026214268 2.5527857e-05
0000d0 89 fc b3 b8 63 92 88 38 b2 f2 29 38 61 e6 33 38
       -8.5824235e-05 6.512252e-05 4.0518767e-05 4.2891483e-05
0000e0 22 da 54 b8 1f f0 8b b9 9b 92 3b b9 9d 9a 55 b9
       -5.074789e-05 -0.0002669105 -0.00017888325 -0.00020370861
0000f0 71 57 fa 37 26 e6 2a b9 b2 d6 32 b9 e3 d9 06 38
       2.984304e-05 -0.000162982 -0.00017055383 3.2151012e-05

exp_avg_sq f4 [64]
000000 38 56 1e 31 27 72 34 30 33 8b 07 31 b5 73 7d 30
       2.3041036e-09 6.564584e-10 1.9724211e-09 9.2205293e-10
000010 e4 44 e4 30 88 69 8f 2f 20 b2 4d 30 58 d6 ba 30
       1.6608763e-09 2.6086533e-10 7.4831696e-10 1.3594201e-09
000020 12 25 ef 2f 0a e4 a1 2f de 8b 3c 30 3f 53 00 30
       4.3500187e-10 2.944776e-10 6.8592765e-10 4.668443e-10
000030 22 ab 92 30 f4 be a5 2f d1 3b 5e 30 f7 2c 3c 2f
       1.0671537e-09 3.0149006e-10 8.0848134e-10 1.7114475e-10
000040 14 00 7b 2e 91 6e 1b 30 bf 61 1a 30 dc 84 96 2f
       5.7070862e-11 5.6545796e-10 5.616378e-10 2.7379243e-10
000050 47 1a 93 30 eb e8 7c 30 aa a7 c7 2f f6 0c 91 31
       1.0703126e-09 9.200806e-10 3.6317022e-10 4.221529e-09
000060 a0 0f 16 2f 99 d4 36 30 1b 04 94 2f 3f 2a 03 2f
       1.3647972e-10 6.6513334e-10 2.692396e-10 1.192939e-10
000070 51 9e 9e 2f 75 ae c7 2e 7c e8 26 30 e1 0f b0 30
       2.8852523e-10 9.080462e-11 6.072083e-10 1.2810198e-09
000080 dc 9a f2 30 71 a6 6c 30 c9 8e aa 30 3f 58 49 30
       1.7651831e-09 8.609283e-10 1.240971e-09 7.324878e-10
000090 72 cf a3 30 fd f8 a3 30 b1 08 0c 31 ed 37 ae 30
       1.191877e-09 1.1930578e-09 2.0377622e-09 1.2676061e-09
0000a0 cd c0 e8 2f be 7d af 2f ec 33 0f 2f 9a 02 75 30
       4.2337547e-10 3.192166e-10 1.302422e-10 8.913418e-10
0000b0 16 5b 2c 2f b9 2a 80 31 6c c6 b6 2f 19 b7 8a 2f
       1.5675669e-10 3.7301473e-09 3.3246594e-10 2.5232152e-10
0000c0 15 8e 91 30 95 75 2b 31 f7 85 f5 30 e4 b3 94 30
       1.0590521e-09 2.4950613e-09 1.7864171e-09 1.0819545e-09
0000d0 fa bc 3a 2f 79 dd ea 2f 7f a2 a2 2f 4b ee 20 2f
       1.698374e-10 4.2721718e-10 2.958309e-10 1.4636574e-10
0000e0 84 4a 68 2e c0 47 08 31 8f cc 55 30 14 0f 84 30
       5.2816876e-11 1.983139e-09 7.7779644e-10 9.60855e-10
0000f0 5f ea 39 30 90 6b 2c 30 c7 8d 45 30 7a a1 a2 2f
       6.763567e-10 6.272609e-10 7.186966e-10 2.9582364e-10

exp_avg f4 [1, 64]
000000 34 38 8c 3a 4d 13 62 39 4c 45 06 3a c6 bb 05 3a
       0.0010697902 0.0002156023 0.00051220204 0.0005101528
000010 70 ab 95 b7 d0 78 b1 b9 1c ba a1 38 15 94 e8 39
       -1.7842016e-05 -0.00033850083 7.711744e-05 0.00044360818
000020 16 21 28 3a 01 bf 77 39 02 92 8f 39 f8 81 b1 37
       0.00064136216 0.0002362691 0.0002738387 2.1160566e-05
000030 81 fb 8d 39 0a da 03 39 9c 41 e7 39 05 20 2f 3a
       0.00027081 0.0001257436 0.00044108636 0.00066804915
000040 fb b6 e5 b8 ba f1 10 3a 31 ce 44 39 08 b7 29 3a
       -0.00010953654 0.0005529184 0.00018768829 0.0006474112
000050 f1 39 ff 38 b6 e0 b7 39 41 25 1a 3a c6 11 95 3a
       0.0001217014 0.00035071903 0.0005880185 0.0011373095
000060 c0 68 b6 b9 e6 92 66 39 ea 76 42 3a bb 95 45 b9
       -0.0003479179 0.00021989233 0.0007418232 -0.00018843163
000070 74 53 05 3a 1f af a6 39 be 1e 8d 3a 65 fc 44 3a
       0.0005085983 0.00031792463 0.0010766608 0.00075144164
000080 5f 2b 36 3a 45 09 9a 39 90 77 36 39 cb 7f af 39
       0.0006949212 0.00029380075 0.00017401413 0.00033473814
000090 cb ec 93 38 68 94 62 39 03 dd 80 3a 06 be 05 3a
       7.053612e-05 0.00021608325 0.0009831492 0.0005101863
0000a0 78 e7 83 3a 69 7a 02 39 81 45 cc b8 6b 34 d5 38
       0.001006349 0.00012443367 -9.740424e-05 0.00010166395
0000b0 70 80 f2 39 98 29 7c 3a 69 3b 5e 39 0e 7a a0 38
       0.0004625353 0.0009619235 0.00021193702 7.652129e-05
0000c0 a4 bc 27 3a 75 9a 27 3a 33 55 36 3a 6e bb fa 38
       0.0006398654 0.00063935603 0.00069554447 0.000119558405
0000d0 73 a0 98 39 d7 19 49 39 7c 05 52 39 82 3d c2 38
       0.00029111243 0.0001917848 0.00020029204 9.2620976e-05
0000e0 fc 99 a4 39 a9 fb 05 3a ba 51 15 3a 6f 01 01 3a
       0.00031395245 0.00051110476 0.0005696077 0.0004921173
0000f0 54 40 02 39 62 64 00 3a 77 80 75 39 60 71 03 39
       0.0001242173 0.00048977707 0.00023412878 0.00012535369

exp_avg_sq f4 [1, 64]
000000 b9 93 17 33 e6 ae a7 31 f6 82 0f 32 59 5d 42 32
       3.529178e-08 4.8802233e-09 8.353473e-09 1.1313511e-08
000010 3b 26 6a 32 23 33 b7 31 64 9c f6 31 cb dc 25 32
       1.3629285e-08 5.3318145e-09 7.177322e-09 9.654467e-09
000020 0a c7 a3 32 bd eb f2 32 95 f0 d1 32 bc 5b 04 32
       1.906621e-08 2.827971e-08 2.4440206e-08 7.704269e-09
000030 40 c1 17 32 1c d1 17 33 df bf 3d 32 ef cf 7c 32
       8.833297e-09 3.534761e-08 1.1044874e-08 1.4715609e-08
000040 75 75 cc 30 e3 96 5b 32 d0 e6 63 32 ab 2f 72 32
       1.4876337e-09 1.2781785e-08 1.326562e-08 1.4097092e-08
000050 80 23 a4 32 45 ed 0a 32 d3 00 70 32 87 8d 22 33
       1.9108256e-08 8.086606e-09 1.3970026e-08 3.7847283e-08
000060 cb 88 87 31 1c 0f f7 32 42 14 9a 32 d8 f3 b8 30
       3.9445687e-09 2.8761455e-08 1.7937172e-08 1.3457067e-09
000070 c0 a4 14 32 fb 3b 1b 32 49 f3 fc 32 f6 38 b8 32
       8.652194e-09 9.035825e-09 2.9447294e-08 2.1446322e-08
000080 be 98 a9 32 d3 9e af 32 c1 0c 9e 32 a1 16 43 32
       1.9743648e-08 2.0444906e-08 1.839942e-08 1.1355639e-08
000090 10 d7 01 33 e5 23 9c 32 9a 8f 0a 33 65 f5 43 32
       3.023075e-08 1.8177113e-08 3.2261234e-08 1.140629e-08
0000a0 97 b3 07 33 6c 9f 30 32 b4 15 80 31 1e 23 92 32
       3.1595473e-08 1.0280797e-08 3.7277577e-09 1.7012606e-08
0000b0 de 22 8f 31 45 e2 fe 32 9c 0a a2 32 d4 13 c3 31
       4.1658117e-09 2.9672387e-08 1.8864107e-08 5.677501e-09
0000c0 95 dc 66 32 d2 ff 8f 32 f1 2e 92 32 42 2c 42 32
       1.3437917e-08 1.6763725e-08 1.7017983e-08 1.1302349e-08
0000d0 10 63 eb 30 49 cd 55 32 13 af f9 31 ea 7a 94 32
       1.7126656e-09 1.2444908e-08 7.2667574e-09 1.7285362e-08
0000e0 ad 49 03 31 b8 c2 61 32 5f 9a 62 32 f0 9f 3e 32
       1.9104889e-09 1.3140998e-08 1.3190031e-08 1.1095821e-08
0000f0 65 db c8 32 74 43 3f 32 2e 69 f8 31 81 cc c4 32
       2.3382833e-08 1.1133e-08 7.2297075e-09 2.29104e-08
