checkpoints/checkpoint_epoch_80.pt (torch, 213899 bytes, 18 tensors)

fc1.weight f4 [64, 128]
000000 b2 28 58 bd ab 02 e6 3d d7 de 2d 3e 0f 9f ff 3c
       -0.052773185 0.112309776 0.16979538 0.031203775
000010 80 0e 38 be d3 b3 d2 bd 42 f8 a0 bd a6 c3 30 3b
       -0.17974281 -0.10288205 -0.078598514 0.0026972084
000020 04 8f 86 3d 44 8d a2 3c c9 e2 cd 3b c9 aa a1 bc
       0.06570247 0.019842751 0.0062831384 -0.019734757
000030 ce 0b ba bc 7c e7 ae 3d 4a b4 42 3d b2 e6 b7 bd
       -0.022710707 0.08540246 0.04753522 -0.089795485
000040 09 09 ca 3c 9b b0 04 3d be f0 0f 3e 0a 32 b9 bd
       0.024662511 0.032394987 0.1405668 -0.09042747
000050 89 b3 23 bd e4 06 02 be ec 0b 85 bd f2 59 11 be
       -0.03996614 -0.12697941 -0.064964145 -0.14194468
000060 db 22 06 be 1a cc 57 3c 53 46 0d 3e 3e 7b 18 3e
       -0.13099234 0.01317122 0.13796358 0.14890763
000070 d1 f0 fb bd 69 36 eb bd d2 1c 76 bc 58 45 0d be
       -0.123017915 -0.11484987 -0.01502152 -0.13795984
000080 f2 08 e9 bd bc f2 87 3d 94 02 8e bc 0c 41 45 bd
       -0.11378659 0.06638095 -0.017335214 -0.048157737
000090 cf 84 1e 3d a4 92 ae bd f6 3b d3 3d 96 10 4c 3d
       0.038700875 -0.08524063 0.10314171 0.049820505
0000a0 0f f6 b7 bd 1c 65 9e bc cd fb 0b 3e 53 ec 2c bc
       -0.08982479 -0.019335322 0.13670273 -0.010554391
0000b0 a5 23 3f bc 0c e9 0d 3d 86 a3 01 3e 0b 89 f2 3c
       -0.011666213 0.03464608 0.12660035 0.029606363
0000c0 fa a6 e3 3b 57 10 86 bd 04 1a de bd db a8 88 bd
       0.0069473954 -0.06546085 -0.10844806 -0.066728316
0000d0 79 e7 d1 3b 51 64 db bd da 53 25 3d 50 05 50 3c
       0.0064057675 -0.10712493 0.04036317 0.012696579
0000e0 4c 5c fc bd ed e7 24 bd 45 66 b0 3d ab 84 ec bd
       -0.12322292 -0.040260244 0.08613256 -0.11548742
0000f0 d7 22 22 3d 0a 6f e5 3d dc 6d ae bb eb 74 cb 3d
       0.039584007 0.1120282 -0.005323155 0.0993441
000100 14 21 40 3d 58 e4 98 bd 63 24 80 3d 03 67 a0 bc
       0.046906546 -0.07465428 0.0625694 -0.01958037
000110 e1 57 60 bc 28 7f 28 bd bf 8c 96 bd 60 d7 ab 3d
       -0.013692827 -0.04113689 -0.07351064 0.08390689
000120 a4 20 00 be fe af 63 3d e2 7a ee 3d ad a9 a0 bd
       -0.12512451 0.05558776 0.11644532 -0.07844863
000130 91 35 e6 bd 70 ed 1e be ee a2 04 3d dc b2 dd bd
       -0.11240686 -0.15520263 0.032381944 -0.1082513
000140 cd 23 52 bd 32 95 8b bd 88 5a 57 bd 11 9e 50 bd
       -0.051303674 -0.06815566 -0.05257657 -0.050931994
000150 18 14 0f 3d 9b a0 34 3c 7c f9 0d be 49 e2 27 3e
       0.034931272 0.011024619 -0.13864702 0.16394915
000160 b1 14 95 bc 76 f8 f7 3d ef e0 84 3d 55 ad ad 3d
       -0.018198343 0.12107937 0.06488215 0.08480326
000170 63 11 d7 3d 04 e5 1c bd 68 3f a8 bd a3 09 a7 3d
       0.10501363 -0.038304344 -0.08215219 0.08156135
000180 75 86 d2 bc 2e 8d 08 3e 94 71 8b 3d 75 45 98 bd
       -0.02569888 0.13335106 0.06808773 -0.07435123
000190 7a 08 06 be 68 c9 bf bd 1c f0 0b 3e 6b 9f ff bd
       -0.13089171 -0.09364587 0.13665813 -0.124815784
0001a0 06 9e 31 3e 3a e7 ab bd eb 29 0a be b1 18 fb 3c
       0.17345437 -0.08393712 -0.13492553 0.030651422
0001b0 6f 5e 7e 3d 21 5c cc 3c 52 97 af bd 1f c9 c0 3d
       0.062101778 0.024946274 -0.08573784 0.09413361
0001c0 d5 ad 06 be 59 d7 ac bd 8e 78 b6 bd ca 93 ea bb
       -0.13152249 -0.08439512 -0.08909713 -0.007158731
0001d0 5b 1b 90 3d e0 3f 12 3d 80 22 21 bc e8 ec c3 bb
       0.07036468 0.035705447 -0.009834886 -0.005979169
0001e0 61 0d 82 3d a1 c1 95 3d f1 9c 5a bd 98 0b 24 be
       0.06350208 0.073123224 -0.053372327 -0.16020048
0001f0 fa 0b fd 3d 04 a4 1d 3c 61 15 2f bc 04 33 3c 3d
       0.123558 0.009621624 -0.0106862495 0.04594709
000200 fb c2 1a 3c 52 51 b8 3d 33 60 63 bd f1 51 45 3d
       0.009445901 0.089998856 -0.055511665 0.04817385
000210 cc d1 da 3c b9 56 c4 3d a6 07 9a 3d a9 2f 9f bc
       0.026711367 0.095868535 0.0752099 -0.019431906
000220 84 c9 4a 3d 79 dc 0b 3e 78 cc 10 be fd 6d b6 bc
       0.049508587 0.13658322 -0.14140499 -0.022269243
000230 eb b8 fa bd a3 30 94 3c a0 1a c0 bc bb 89 65 bd
       -0.122423016 0.018089598 -0.023450196 -0.056039553
000240 cf 08 05 bc b5 da e7 3d 15 15 8f 3d 55 f7 91 3d
       -0.008119776 0.11321012 0.06986443 0.07127253
000250 08 3d 94 bd 1e ab 87 3d 0c 29 f9 3d a7 7f a5 bc
       -0.07238203 0.06624435 0.12166032 -0.020202471
000260 18 b1 e1 3d f5 bc f2 ba 80 5f e5 bc 4d 64 8f bd
       0.11020106 -0.0018519448 -0.02799964 -0.07001553
000270 bc 55 1a bc 50 2d cb bc f5 77 3f bd 03 a4 74 3d
       -0.009419855 -0.02480188 -0.04674526 0.059726726
000280 44 bf 71 3d 83 42 c4 3d ff 8c 3d 3c a8 01 45 3d
       0.059020296 0.095829986 0.011569261 0.048097283
000290 ef 54 09 3e 48 e6 37 bc 46 60 80 3b 81 f2 db 3c
       0.13411306 -0.011224337 0.0039177267 0.026849033
0002a0 3b 90 1a 3e da 55 d0 3c 02 b1 f9 3d 3d cb fc 3c
       0.15094082 0.025431562 0.12191965 0.03085863
0002b0 fd 51 2e 3e 16 bb ca 3d bd 0b 89 3c 66 0d 06 be
       0.17023464 0.09898965 0.01672923 -0.13091049
0002c0 c4 f6 0c 3c 48 7c 1a 3e 45 9e 26 3d 25 18 d2 bc
       0.008603755 0.15086472 0.04067828 -0.025646279
0002d0 72 8c 59 3c 49 1c 93 3d 99 44 bf bd 35 25 e8 3c
       0.013278114 0.07183129 -0.09339256 0.028338054
0002e0 a6 b1 46 3d b4 a1 f4 bd e9 90 8f bd 37 b0 3b bc
       0.048509263 -0.11944905 -0.07010061 -0.011455587
0002f0 01 79 08 3d 38 a4 12 3c be 78 12 bb 48 c8 1b be
       0.033318523 0.008950286 -0.00223498 -0.1521312
000300 c2 f8 47 bc 19 55 cf ba 09 fb 9f 3c 2d 48 9d 3d
       -0.012205305 -0.0015818208 0.019528883 0.07679782
000310 59 e4 09 be 64 be 12 bd 98 15 cb 3d 27 94 b7 3d
       -0.13466014 -0.035826102 0.09916228 0.08963805
000320 43 7d 1e 3d 0a 02 f4 3d e3 3b 96 3d 27 16 8c 3d
       0.038693678 0.119144514 0.07335641 0.06840163
000330 f1 d7 02 3e c2 a6 f1 3c a7 1a bd 3d c0 41 f9 3d
       0.12777688 0.029498462 0.09233599 0.12170744
000340 84 cf 6d bd 44 4e 87 3b 0d b7 bd 3d b8 c8 d1 3d
       -0.05805923 0.004129203 0.0926343 0.10243362
000350 f5 eb d7 bc d1 0d 33 3d 76 19 54 3d 3b 3e d5 bd
       -0.02635763 0.04371435 0.051782094 -0.1041226
000360 e9 eb cd bd b4 3c a6 3d 66 2f 48 3d 11 95 bd 3c
       -0.10054762 0.08117047 0.048873328 0.02314237
000370 ec e0 1f bd 67 0a 37 be 81 83 28 3d be a6 aa 3c
       -0.03903286 -0.17875062 0.041141037 0.020831462
000380 e5 1f 02 bc 7a 63 30 3d 84 a8 a4 3c f8 db 32 3c
       -0.007942175 0.04306362 0.020099886 0.010916702
000390 91 8c e4 bd ae 3c ed 3d b1 12 e7 bc c6 78 f1 3c
       -0.111596234 0.11583839 -0.028207155 0.029476535
0003a0 19 0e 2c 3d ff 4a b0 3c c0 95 03 3e bd 4b c3 bd
       0.042005632 0.021520136 0.12850094 -0.0953593
0003b0 6b a0 77 bd 6a 75 e9 3d 90 9f 84 bd 1d 35 70 3d
       -0.06045572 0.11399348 -0.06475747 0.058644403
0003c0 c4 22 3a 3d 16 b0 2a be 79 e9 dd 3c 68 b0 aa bd
       0.04544331 -0.16668734 0.027088868 -0.08334428
0003d0 2d e8 b7 bd 0b c9 3a 3d 46 b8 8f bd 1d 16 09 be
       -0.08979831 0.045601886 -0.07017569 -0.13387342
0003e0 9c b3 ff 3b 83 33 fb bd 9c aa cf 3d fa 61 fa 3d
       0.0078033935 -0.122656845 0.10139963 0.12225719
0003f0 c2 a6 6f 3d a8 91 a1 3d 45 e4 e9 bd fb 45 c6 3d
       0.058508642 0.0788911 -0.11420492 0.096813165

fc1.bias f4 [64]
000000 47 73 c3 3d bd e0 6f 3d c8 95 93 3d f1 c8 5c 3c
       0.09543472 0.058563937 0.07206303 0.013475643
000010 46 ff dd 3d 9d 95 0b 3c 37 70 03 3d b9 aa e2 3c
       0.10839705 0.008519557 0.03208944 0.027669298
000020 72 be 29 3d 9d e7 ee 3d 23 49 b8 3d 54 ec a7 3d
       0.04144139 0.116652705 0.08998325 0.08199373
000030 9d c9 5f 3c 52 16 fe 3d e4 b2 70 3d c6 e8 fc 3d
       0.013658908 0.12406601 0.058764353 0.123490855
000040 01 1c 54 3c 11 b6 00 3e 03 7b db 3d 9c d7 46 3d
       0.01294613 0.12569453 0.10716822 0.048545465
000050 a0 b6 99 3d cc ef e5 bb e0 fc 49 3c ad 4b 0b 3e
       0.07505536 -0.0070171114 0.0123283565 0.13603087
000060 84 b4 98 3c 75 f7 1c 3e 52 b1 fd 3d ec ca 0c 3d
       0.018640764 0.15328772 0.12387337 0.03437321
000070 18 04 62 3d d4 91 d4 3c 23 ef e3 3d c5 85 d6 3d
       0.055179685 0.025948443 0.11129596 0.10474733
000080 77 e7 d3 3d eb a2 e9 3d 1e a9 fa 3d fa d1 86 39
       0.10346883 0.11408027 0.12239288 0.00025714916
000090 1b 8a c0 3d 2f cd c0 3d aa 8f f2 3d 09 27 e0 3d
       0.094013415 0.09414136 0.11843808 0.10944945
0000a0 d3 c0 22 3e 90 38 22 3d c9 ab 34 3c 58 08 cc 3c
       0.15893869 0.039604723 0.011027285 0.024906322
0000b0 fb 28 08 3d 4e 5e 15 3e 7d d9 e8 3d 48 cc 1c bb
       0.033242207 0.14586756 0.113696076 -0.0023925472
0000c0 7d a2 f7 3d 35 f1 ba 3d 4c ec fb 3b a5 4a af 3c
       0.12091539 0.09128038 0.007688081 0.021397898
0000d0 cc bf 9d 3c 14 16 07 3e b1 95 ba 3d 8e 95 47 3d
       0.019256495 0.13192016 0.091105826 0.04872661
0000e0 86 0e 72 3c 88 30 33 3d 95 9f d0 3d 95 0a 03 3e
       0.0147739705 0.043747455 0.10186688 0.12797005
0000f0 88 fd dd 3d e0 cc fe 3d 14 d5 39 3c 89 11 cf 3d
       0.10839373 0.124414206 0.011342306 0.101107664

fc2.weight f4 [1, 64]
000000 a2 d4 2d be 63 ff 2a 3e 75 7f 04 be cd 11 05 be
       -0.16975644 0.16698985 -0.12939246 -0.12995072
000010 4b 68 39 3e 78 2c 5d 3e 98 bb 3f 3e 45 ce 09 be
       0.18106191 0.21598995 0.18723905 -0.13457592
000020 ac 23 00 be 45 ef d4 3d 60 89 ed 3d 3e 93 0a 3e
       -0.12513608 0.103971995 0.11598468 0.13532731
000030 ff 0f 41 3e 39 3d cc 3d 7a c1 dd bd 38 b0 80 bd
       0.18853758 0.09972615 -0.10827918 -0.06283611
000040 92 08 28 3e 67 20 cf bd ac f4 05 3e fb ce 96 bd
       0.1640952 -0.10113602 0.13081616 -0.07363697
000050 d3 a1 29 3e 7b 5e 1d 3e d8 60 d6 bd f9 52 49 be
       0.16565637 0.15368073 -0.1046769 -0.19660558
000060 b5 ee 4d 3e a6 e3 01 3e ab 5b 95 bd 19 b3 1d 3e
       0.20110591 0.12684497 -0.07292875 0.15400352
000070 bb e9 af bd 4e a1 48 bd 7a 6c c0 bd d3 de 07 be
       -0.085895024 -0.048981957 -0.0939569 -0.13268594
000080 9d 1e 1b be be b0 0f 3e 45 61 1d 3e a5 93 09 3e
       -0.15148397 0.14032266 0.15369137 0.13435228
000090 30 89 3d 3e d6 97 21 3e 8e 0e 33 be 71 97 05 be
       0.18509364 0.15780577 -0.17486021 -0.13046052
0000a0 5c ef b3 bd 74 3f fb 3d 90 86 d7 3d 8b c5 0b 3e
       -0.087858886 0.12267962 0.10523713 0.13649575
0000b0 92 6f f1 bd c2 48 42 be 23 a5 e6 3d ab 8f 05 3e
       -0.117888585 -0.18973067 0.11261966 0.13043086
0000c0 a2 d4 ed bd ba 7c 33 be 14 ae 27 be cb c5 1b 3e
       -0.11612822 -0.17528048 -0.16375 0.15212171
0000d0 2f 7a b1 bd 57 03 d9 3d db e1 d4 3d ef 14 9c 3d
       -0.08665883 0.1059634 0.10394641 0.0762118
0000e0 4a 7a c0 bd c0 d1 1e be 97 11 e7 bd a0 f5 e1 bd
       -0.09398325 -0.15509701 -0.11282652 -0.110331774
0000f0 e7 ac 0e 3e ff 27 c3 bd f8 2c e2 bd 9b ee c1 3d
       0.13933145 -0.09529113 -0.11043733 0.094693385

fc1.weight f4 [64, 128]
000000 93 31 65 bd c6 ef f8 3c fd 88 a6 bd 89 e7 33 3d
       -0.05595548 0.03038777 -0.08131597 0.04392198
000010 1d b3 44 bb bc 65 6b 3d 67 1c 3d bd b2 fa f6 bc
       -0.0030013986 0.05747007 -0.046169665 -0.030148838
000020 e5 9a 98 bd b8 71 dd 3c 02 64 bd 3d e9 d2 83 3c
       -0.07451419 0.027031764 0.092475906 0.01609178
000030 e0 12 9e 3c 40 0c 37 3d 8b 58 e4 bc 94 de d2 3d
       0.01929611 0.044689417 -0.027874252 0.1029636
000040 02 fb 64 bc 9c ab 42 3d 9c 6c e5 bc 30 30 3b 3b
       -0.013975861 0.04752694 -0.02800589 0.0028562658
000050 94 42 5e 3d bb a4 ef ba 46 fb 1c 3c fb 1f 56 3d
       0.054262713 -0.0018283346 0.009581393 0.052276593
000060 5a b2 f5 3b 8e c6 32 bd 33 6b 19 bd 1c 48 7f 3d
       0.007498068 -0.043646388 -0.03745575 0.06232463
000070 4c 77 da 3c 0b 99 86 bd ac 40 c5 3d b1 76 ac bc
       0.026668213 -0.065721594 0.09631476 -0.02105269
000080 30 1b 6b 3d 2b 25 91 bc af 9f 46 3c 86 cf 59 3d
       0.057398975 -0.017717918 0.0121230325 0.053176425
000090 53 f5 a0 3b f3 da 17 3d a1 a4 93 bd a9 22 93 3d
       0.0049120574 0.03707404 -0.07209135 0.07184345
0000a0 c8 8d 65 3d 4f f3 7a bd 43 71 3c bd ce dc 80 bd
       0.056043416 -0.061267193 -0.046006452 -0.06292115
0000b0 d7 17 f6 bb a5 b1 0b ba a1 84 17 3b 1b cb a2 3b
       -0.007510166 -0.00053289003 0.0023119824 0.0049680597
0000c0 08 21 99 3d 76 a8 1c 3d 27 14 25 3d 2d ba c8 3d
       0.07477003 0.038246594 0.040302422 0.09801135
0000d0 a1 01 36 bd d3 4e 7f bc 10 0e 59 bc c0 c5 ab 3d
       -0.044435147 -0.015582758 -0.013247982 0.08387327
0000e0 8c 1d 88 3d fb 9d 99 bc a5 08 b3 3b 3f 5b 99 bb
       0.066462606 -0.018752089 0.005463677 -0.004680067
0000f0 fa a7 2c bd e8 1c f2 3c 5a ca 91 bd 39 45 23 3d
       -0.042152382 0.0295548 -0.071186736 0.039860938
000100 e4 da 57 bc 8d 66 d7 bc 59 94 51 3d 90 dc 47 bc
       -0.013174746 -0.026294017 0.051166866 -0.012198582
000110 13 6f 55 bd b9 dd ed bd 45 85 b0 bc 4c cf 6a bd
       -0.05210788 -0.11614556 -0.021547923 -0.0573266
000120 d9 6f 9e ba 0a dd c9 bd f4 1c 5c bd 96 b1 b2 3b
       -0.0012087777 -0.09856613 -0.05373855 0.005453299
000130 11 28 85 bc 26 94 43 3d f7 1d a9 bc 21 e4 eb 3b
       -0.016254457 0.047748707 -0.020644171 0.007198826
000140 1b 74 02 3d 41 2c bf 3d d0 fb 00 bd 02 9c 1c bd
       0.031849008 0.09334613 -0.031490147 -0.03823472
000150 42 79 a9 3c 87 19 0a bd ce 68 a0 3c 28 e6 cd 3c
       0.020687703 -0.03371575 0.019581225 0.025134161
000160 81 97 9a bb 5b e2 4d 3d 62 a9 39 bd 01 0e fd 3c
       -0.0047177677 0.050264698 -0.04532755 0.030890467
000170 5a 27 01 bd dc 29 d5 3c 61 b7 13 bb a8 c2 96 bd
       -0.03153167 0.026020937 -0.0022539722 -0.073613465
000180 2b 58 bf bd b0 ec 2c 3d ba 44 01 bb b2 34 a8 3d
       -0.093429886 0.04221791 -0.0019724802 0.08213176
000190 68 9b 78 3c 07 e3 c6 3c 07 76 aa 3d 8a ea 75 3d
       0.0151737705 0.024278177 0.08323293 0.060038127
0001a0 17 b4 4f 3d 54 d4 80 bd 43 cb 70 3d 08 d2 f8 3c
       0.050708856 -0.062904984 0.058787595 0.030373588
0001b0 c3 69 2c bd 6c c4 87 bd ef 87 9c bd e8 bf a4 3b
       -0.04209305 -0.066292614 -0.07643115 0.00502776
0001c0 9c 56 59 bc 69 df 9f 3d eb 10 32 bd 63 88 11 bd
       -0.013265278 0.07806284 -0.043473165 -0.03553046
0001d0 f5 97 69 3d 66 56 54 3c 3c 89 c0 bc ee 81 24 bd
       0.057029683 0.012960052 -0.023502938 -0.040162973
0001e0 86 b3 bb 3c be ea a2 bd 16 4c c2 bc dc fc ce 3d
       0.022912752 -0.0795493 -0.023717921 0.10106823
0001f0 34 b1 1f bd ed ae ad bd 8b d4 40 3d e4 a7 78 bd
       -0.038987353 -0.0848063 0.047077697 -0.060706988
000200 c4 ba 0b bd 87 d4 c7 bd fa b5 94 3d fc f3 16 3e
       -0.03411366 -0.09757333 0.07261272 0.1474151
000210 6f 5e 9c bc b3 3c be 3d 52 3d f3 bc d2 98 1e 3e
       -0.019087998 0.09288921 -0.029692326 0.15487984
000220 f3 8e aa bd 47 bf b5 3d 68 75 f3 bd 2d 1a 44 3d
       -0.08328047 0.08874374 -0.11887628 0.047876526
000230 47 3a 6b bd ab db ea 3d 3a c7 36 3d 03 b9 25 be
       -0.057428624 0.114676796 0.04462359 -0.16183858
000240 b8 12 07 3d 72 f3 0c 3e 6d 28 0f 3e 65 23 0d bd
       0.032976836 0.13764742 0.13980265 -0.034457583
000250 44 4b 79 3c c8 00 df ba e8 c5 4f 3c 99 47 e8 3d
       0.015215699 -0.0017013783 0.012681462 0.11341781
000260 9b a8 98 bd 57 3f e5 bc 82 4d 99 3d 91 ae ba bb
       -0.07454034 -0.027984304 0.074854866 -0.0056970795
000270 42 96 d2 bd 1e 3b eb bd e9 e2 81 3c 95 7c 5e 3c
       -0.10282566 -0.11485885 0.01585527 0.013579507
000280 8a fb 8f bd 4e 8c 15 be 08 6f d8 bc 86 01 81 3c
       -0.07030399 -0.14604303 -0.026420131 0.015747797
000290 3e f4 f6 3d 42 2e 16 3d dd 31 47 3d f7 21 a5 bd
       0.12058304 0.03666521 0.048631538 -0.08063119
0002a0 88 0d fc bd 30 72 31 ba 64 bf 0a 3e a3 34 fc 3c
       -0.123072684 -0.00067690294 0.13549572 0.030786818
0002b0 1c 72 39 bd e4 3c 8c 3d 1e 71 d8 3c 5f 58 94 3c
       -0.04527484 0.068475515 0.026421126 0.018108545
0002c0 47 32 bb 3b 91 cb ec bd 17 f8 2e bd 54 d5 b5 bc
       0.0057127806 -0.11562265 -0.042717066 -0.02219645
0002d0 a1 39 0a be fe 03 40 3d f3 2a 06 3d fd c8 a7 bd
       -0.13498546 0.046878807 0.032755803 -0.08192632
0002e0 3e 39 34 bd 8f b8 03 3e 51 cf a5 3d 79 0e 8d 3c
       -0.043999903 0.12863372 0.08096183 0.017218815
0002f0 2f bb 8f bd 9a 86 be 3c 8e b9 31 3c 0d c1 4b 3d
       -0.07018124 0.023257542 0.010847462 0.049744654
000300 4f a7 18 be 9c a3 06 3b 73 df b1 bd 34 58 eb 3c
       -0.14907573 0.0020544296 -0.08685198 0.028728582
000310 6e 03 31 39 f6 f4 0d 3e db b7 bc bd ad 2c 8a 3c
       0.00016881313 0.13862976 -0.09214755 0.016867006
000320 03 98 10 3d 47 eb 3d 3c ff c5 f3 3c 6c 2c b4 3c
       0.03530122 0.011591739 0.029757498 0.021993838
000330 8c 1b 0d be 5c 62 2c be 9a 05 00 be 70 05 c6 bc
       -0.1378004 -0.16834396 -0.12502137 -0.024172515
000340 02 20 c2 3d 76 0a 10 be 57 9a d5 bd 3c 08 06 3e
       0.09478761 -0.1406649 -0.104298286 0.13089079
000350 0e 0a c7 bc c1 8b 17 3e 5f 2f 04 bd 8c e0 dd bd
       -0.024296787 0.14799406 -0.03227174 -0.108338445
000360 1e f3 26 3d fc 98 fb bd 21 35 14 3e ea cb 23 3e
       0.0407592 -0.12285039 0.14473392 0.15995756
000370 f1 a5 bc 3d 56 69 bd 3d 35 e1 c1 3d a0 80 00 3d
       0.09211338 0.09248607 0.09466783 0.031372666
000380 a1 5a 88 3d 82 dd 05 3e e7 23 9e 3c 61 ed 2c bd
       0.06657911 0.1307278 0.019304229 -0.04221857
000390 c9 05 9e bd d5 85 92 bd 3f d6 14 bd 00 27 85 bd
       -0.07715947 -0.07154433 -0.036337133 -0.06501579
0003a0 c9 ce cf 3d 42 d0 ee 3d ec 8f 34 bd 26 2b e6 3b
       0.10146863 0.11660816 -0.044082567 0.0070241867
0003b0 cb fc 8d 3c 70 6d 5d 3a 8f f4 d3 3c 25 f6 92 3d
       0.017332455 0.00084467884 0.02587345 0.071758546
0003c0 fb 98 eb bd 8d 33 c6 bb 9b f9 0a be 16 05 b8 bd
       -0.11503788 -0.006048626 -0.1357178 -0.08985345
0003d0 c7 aa 3b bd 29 e4 20 bd 21 26 45 bd a1 46 30 3d
       -0.045817163 -0.03928009 -0.048132066 0.043036107
0003e0 cf cc ae 3d a9 76 bf 3d 98 c7 b8 bc 0e 9b de bd
       0.08535158 0.093488045 -0.022556111 -0.10869418
0003f0 df 01 a9 bb 8e 66 ae bc 67 af 86 3b 28 ed ba bd
       -0.0051576938 -0.021289136 0.004110265 -0.09127265

fc1.bias f4 [64]
000000 1a 81 30 3d fe 48 e4 3d 88 dc 98 3b 9c 8c 92 bc
       0.04309187 0.11146735 0.0046649612 -0.017889313
000010 ef f2 dd 3c 00 1c 73 3d e4 7b e9 3c fd d7 0c bc
       0.027093379 0.059352875 0.028501458 -0.0085964175
000020 5c cd f0 3d 1c 35 22 3d 6c fb 3f 3d 3a 92 1b 3e
       0.11757919 0.03960143 0.046870634 0.151925
000030 fc 5e 14 3d 3b b1 8f bd 64 2a 1d 3e 7c 62 91 bc
       0.036223397 -0.07016226 0.15348202 -0.017747156
000040 63 a4 33 bd fc fe ea 3d 8c 2e 5f 3c 77 ad 45 bd
       -0.043857943 0.11474416 0.0136219375 -0.048261132
000050 ca fe 81 bd 82 7a f3 bc e5 ac a7 bd ce ca b3 3c
       -0.06347425 -0.029721502 -0.08187274 0.02194729
000060 52 85 83 bc 2a 0a ae 3c c0 94 2a 3d ac 59 32 3d
       -0.016054783 0.021245081 0.041645765 0.04354255
000070 bf 11 db 3a fd 2f 17 3d 2b 39 68 3d f6 da 39 bb
       0.0016713663 0.036911 0.056695145 -0.002835927
000080 91 66 b3 bd f4 df 21 bb ea 25 d4 3d 04 13 b5 3c
       -0.08759797 -0.0024700137 0.10358794 0.022103794
000090 35 c7 b1 3c b0 2a 80 3d eb 74 ef 3d fe 62 52 bd
       0.021701435 0.06258142 0.11692222 -0.051363938
0000a0 6e 62 09 3e de 61 95 bb f6 21 c2 3d 70 ea 64 bc
       0.13416454 -0.004558786 0.09479134 -0.01397191
0000b0 eb 18 1e bd 4d c3 de 3d e5 07 51 bb ec f7 6c 3c
       -0.038597982 0.108770944 -0.0031895575 0.014463406
0000c0 56 de 47 3c b8 21 af bc 6e d5 09 3e 5d e0 fc 3d
       0.012199005 -0.021378383 0.13460323 0.123474814
0000d0 f2 68 f1 3c fc aa be bd 8e 85 8d bb e5 75 70 3b
       0.029468987 -0.093099564 -0.0043188995 0.0036691364
0000e0 05 19 11 3e 76 97 85 3d 23 01 c7 3a f0 8a e5 3d
       0.141697 0.065230295 0.0015182834 0.11208141
0000f0 49 02 2a bd 35 b6 03 3e c0 2b 8e 3a aa 67 89 3c
       -0.041506086 0.12862475 0.0010846779 0.016773064

fc2.weight f4 [1, 64]
000000 ae 52 11 bc 95 9a cd 3d a2 d7 d6 bb 09 80 1e bd
       -0.00886981 0.1003925 -0.006556467 -0.038696323
000010 2c e9 47 3e 98 53 bc 3d a1 4b 1e 3e f9 39 d0 bd
       0.19522542 0.09195632 0.15458538 -0.101673074
000020 83 a6 01 3e fc c7 e1 bc fe da f4 bc 4c 2a 17 3e
       0.12661175 -0.02756118 -0.02988958 0.14762229
000030 c5 ce f1 3d 88 6d 3a bc 47 e1 a4 3d d7 b4 c8 bd
       0.11807016 -0.011378653 0.08050781 -0.098001175
000040 8e 87 56 bd 1b b0 ea 3d 3e 10 1b 3e 42 58 35 bd
       -0.05237537 0.11459371 0.15142915 -0.044273622
000050 f7 b4 09 bc b8 cb a8 bd 40 98 5e bd f1 7c fe 3d
       -0.008404962 -0.08241981 -0.054344416 0.124261744
000060 54 9e 2e 3e e0 82 07 3e 84 0b a5 bd 2f 92 2b bd
       0.17052585 0.13233519 -0.08058837 -0.04188746
000070 64 9f 0d 3e 3c 08 3b 3e 4a 70 5a 3e 65 b8 0d 3e
       0.13830334 0.1826486 0.21331897 0.13839872
000080 87 c0 f0 ba d9 9c 0a 3e d7 f9 43 3e a8 47 f5 3d
       -0.0018367924 0.13536395 0.19138275 0.11976558
000090 5e 91 f3 3d 67 98 3f 3e 69 9d b7 3d 0e 28 81 bd
       0.11892961 0.1871048 0.089655705 -0.06306468
0000a0 d5 25 cb 3d 7e 61 29 3e e9 7f 1b 3e 4f e0 67 3d
       0.09919325 0.16541097 0.15185513 0.0566104
0000b0 fb 8b ef bc 0f 6e 31 3e c2 46 51 3e a9 7f f4 3d
       -0.029241553 0.1732714 0.20437148 0.11938412
0000c0 58 22 f1 3d fd 0e 81 bd fa 12 27 3e 69 eb 11 3e
       0.11774129 -0.06301687 0.16315833 0.14249958
0000d0 81 4e 38 bd d6 7a 21 bd 1a 4b 42 3e 15 a2 ad bd
       -0.044996742 -0.039423786 0.18973961 -0.0847818
0000e0 99 69 9f 3d 90 d7 f6 3d 1d 3c ee 3d 7a 7c 11 3e
       0.07783813 0.12052834 0.116325594 0.1420764
0000f0 83 68 f6 bc ae 6b 0a 3e b7 2e 7d 3c 25 9e 93 3d
       -0.030079132 0.13517639 0.015453032 0.07207898

exp_avg f4 [64, 128]
000000 22 66 37 38 1a 04 a6 b7 b2 fc 49 b8 37 54 f5 b7
       4.372572e-05 -1.9790652e-05 -4.8157475e-05 -2.9245492e-05
000010 7c c5 e0 37 e2 d6 db 36 26 66 48 35 34 82 6d 37
       2.6794842e-05 6.5517243e-06 7.465445e-07 1.4156616e-05
000020 ee 53 c4 37 0d 15 21 36 ce e2 dd 36 86 cc a6 b7
       2.3404104e-05 2.4003123e-06 6.612717e-06 -1.988398e-05
000030 39 6f 5c 38 c6 f1 f3 b7 f0 2d 5b b8 57 d0 0a 38
       5.255567e-05 -2.9080442e-05 -5.225645e-05 3.3095796e-05
000040 af 2f a4 b6 c9 88 92 37 85 cb 36 37 cd a0 a2 37
       -4.893132e-06 1.7468252e-05 1.0895431e-05 1.9386784e-05
000050 d7 f9 36 36 c6 bc b6 38 76 2d 3a 38 be 0e 09 37
       2.726554e-06 8.713598e-05 4.4388195e-05 8.169269e-06
000060 7e d4 19 38 97 87 d8 37 6e 64 0e 37 6b 34 22 b8
       3.667594e-05 2.5812345e-05 8.487243e-06 -3.8672628e-05
000070 92 5c 61 38 6d a0 60 37 c6 a4 f6 37 2d 9e 11 38
       5.3730393e-05 1.33887925e-05 2.9402214e-05 3.4718007e-05
000080 bc 9e c0 b7 31 c6 3e 36 d8 f0 01 38 8d 3a 20 b6
       -2.29621e-05 2.8427569e-06 3.09803e-05 -2.387594e-06
000090 c2 a6 4b b7 d0 e7 6c 37 2a 15 4f b8 67 e8 24 b4
       -1.2138569e-05 1.4120669e-05 -4.9372356e-05 -1.5358238e-07
0000a0 d2 6f f3 37 c8 02 bc 36 cf 19 cc b7 d3 96 02 36
       2.9019928e-05 5.6031604e-06 -2.4330713e-05 1.94593e-06
0000b0 98 aa 43 37 cd 11 f7 35 88 ca 03 37 97 80 5b b7
       1.1662625e-05 1.8408115e-06 7.855364e-06 -1.3083357e-05
0000c0 4f 90 58 b6 43 55 83 36 81 47 b2 37 fc ce c3 37
       -3.2270507e-06 3.91403e-06 2.125255e-05 2.3342196e-05
0000d0 45 81 9c b7 30 32 ed 37 9a ed b1 b7 55 6e a6 b7
       -1.8656845e-05 2.8275972e-05 -2.1210686e-05 -1.984012e-05
0000e0 5e 52 8a 38 62 cd 3a b7 dd 45 89 b7 95 55 23 38
       6.595695e-05 -1.1134283e-05 -1.6364205e-05 3.8941933e-05
0000f0 7f 7d 53 b6 c7 73 a2 b6 d7 7a 1d b7 56 5a c3 b7
       -3.1514498e-06 -4.8414545e-06 -9.38653e-06 -2.3287877e-05
000100 0d 89 01 b8 94 ed 6b b6 b1 80 83 37 17 fb 07 b7
       -3.0883635e-05 -3.5156017e-06 1.5676344e-05 -8.105088e-06
000110 f5 8b 80 b8 35 da b2 37 5c 7d 2d 38 7c 4b f6 b5
       -6.129585e-05 2.1320864e-05 4.1363164e-05 -1.8350397e-06
000120 ca d3 20 b8 1d e6 11 37 23 51 57 37 ae cb cd b7
       -3.8344217e-05 8.696251e-06 1.283389e-05 -2.453275e-05
000130 d4 67 e0 38 15 34 d4 37 4d 7a f6 b6 50 4e db 37
       0.00010700492 2.5296622e-05 -7.345609e-06 2.6143302e-05
000140 98 b7 9a 37 5f 84 f4 37 93 a3 f4 b6 36 ee ce 37
       1.8443723e-05 2.9148707e-05 -7.290809e-06 2.466804e-05
000150 a8 2d 03 38 6e fc 30 b8 89 77 b0 b8 12 36 eb b7
       3.1275355e-05 -4.2196763e-05 -8.414599e-05 -2.8039361e-05
000160 31 e4 06 35 4f 41 1d 37 12 48 d7 37 34 2e 25 b7
       5.025095e-07 9.373135e-06 2.5663558e-05 -9.845524e-06
000170 ad 4b 2f b6 ac 60 bb b7 6a 47 60 36 22 91 45 36
       -2.6121081e-06 -2.2337153e-05 3.342017e-06 2.9439766e-06
000180 13 37 b5 36 3a 13 b8 36 dd 88 8c 37 3a 13 fd 37
       5.400632e-06 5.4858656e-06 1.6753032e-05 3.0168903e-05
000190 4e 98 f8 37 e3 17 17 38 09 16 49 b8 08 55 14 37
       2.9634826e-05 3.602345e-05 -4.7942656e-05 8.841285e-06
0001a0 b5 9f f4 36 fc 7f 3c b7 34 a7 0f 38 de f5 a7 b8
       7.290359e-06 -1.1235472e-05 3.4249577e-05 -8.008977e-05
0001b0 ab 37 03 b8 b5 8c 26 37 07 50 4c b7 d7 ec 62 b6
       -3.128468e-05 9.927132e-06 -1.217798e-05 -3.3814483e-06
0001c0 6f 3c 72 b7 d6 5a 4b b6 fe c6 71 38 46 8e fb 37
       -1.4438395e-05 -3.030223e-06 5.7644203e-05 2.9987783e-05
0001d0 11 d6 39 b6 38 5e 02 b8 fb fa b0 b7 50 48 b0 b7
       -2.7691751e-06 -3.1082163e-05 -2.1097707e-05 -2.1014508e-05
0001e0 5f b1 fe 36 cb f2 7f b8 f4 67 5b 37 64 aa 01 38
       7.5904386e-06 -6.1022856e-05 1.3077621e-05 3.0914685e-05
0001f0 4c bc 28 b7 fa 03 88 b7 68 45 35 37 d0 19 01 b7
       -1.0057422e-05 -1.6214315e-05 1.0804601e-05 -7.695009e-06
000200 41 75 18 37 83 40 24 b7 04 d5 13 38 23 5f 05 38
       9.087206e-06 -9.790182e-06 3.5245917e-05 3.1798274e-05
000210 6b e0 5c b7 33 6a 60 b5 97 20 ce b7 70 0f 5d b7
       -1.3165273e-05 -8.3601043e-07 -2.457229e-05 -1.3176221e-05
000220 5a 30 f1 33 20 33 17 b3 5c bb b8 37 20 93 db 35
       1.1231232e-07 -3.5203925e-08 2.2021755e-05 1.635959e-06
000230 ad 1e df 37 2c 33 9b b6 ce 5e 6b 37 1f 79 dc b3
       2.6597956e-05 -4.625317e-06 1.4029165e-05 -1.026658e-07
000240 8c 5c 81 b7 fd 38 0f b6 a7 46 41 37 5b 6f 79 b5
       -1.5421094e-05 -2.1341832e-06 1.15201465e-05 -9.292177e-07
000250 8c 2e cb 36 09 56 40 b7 ae 3b 39 b7 b3 70 25 b7
       6.05529e-06 -1.1464123e-05 -1.10407545e-05 -9.861006e-06
000260 e0 2c a4 b7 95 6a 50 b7 f5 ef fb b7 aa 1f 07 36
       -1.957122e-05 -1.2422582e-05 -3.003327e-05 2.0134999e-06
000270 77 85 53 b6 b2 e4 13 38 45 70 93 b7 f3 47 cd b7
       -3.1519137e-06 3.526052e-05 -1.7576045e-05 -2.4471408e-05
000280 bf a9 06 38 3b 05 0c b7 21 6c 20 b8 e2 42 a3 37
       3.2106178e-05 -8.345868e-06 -3.8247676e-05 1.9462259e-05
000290 a3 12 43 b7 46 f5 13 b8 5f a4 d3 b5 05 4c 04 b8
       -1.1627245e-05 -3.527596e-05 -1.5768563e-06 -3.154205e-05
0002a0 b7 c2 f0 b7 b5 dc d5 36 f7 13 a5 36 88 0e 61 b7
       -2.87009e-05 6.3735883e-06 4.9197074e-06 -1.3414428e-05
0002b0 db a8 e5 b7 6b b8 d9 36 73 96 b0 b7 ea 7d d4 37
       -2.7377557e-05 6.488573e-06 -2.1050893e-05 2.5331003e-05
0002c0 5f 1d 18 38 70 24 85 b7 fc 85 05 b7 4a 46 1f 38
       3.6266978e-05 -1.5871803e-05 -7.958613e-06 3.7974016e-05
0002d0 e6 ee 41 b7 97 18 3d b7 4f 01 4a 37 da c7 b6 36
       -1.1559319e-05 -1.1271003e-05 1.2040443e-05 5.4472885e-06
0002e0 a6 0b 36 b8 5b cb 57 b6 1e 58 2d b7 39 46 d3 35
       -4.340303e-05 -3.2155865e-06 -1.033212e-05 1.5741163e-06
0002f0 4f 1c 83 b7 49 a1 9d 37 a3 a8 43 b7 42 d0 5a 37
       -1.56296e-05 1.8790963e-05 -1.16621695e-05 1.3042301e-05
000300 11 2b 91 b7 4d f1 06 b6 4d 28 c3 35 db 7d 36 34
       -1.7305401e-05 -2.0108012e-06 1.4540361e-06 1.6995857e-07
000310 1b 6f 69 36 12 6b 29 37 b6 99 3b b7 cd 40 82 b6
       3.4784377e-06 1.0098114e-05 -1.1181857e-05 -3.8818457e-06
000320 0c f5 24 38 87 01 b4 b7 85 08 c9 b7 81 87 06 37
       3.9328865e-05 -2.1458383e-05 -2.3965034e-05 8.018572e-06
000330 4f 54 4a b6 13 39 27 37 02 22 09 b7 07 3a 09 b8
       -3.014942e-06 9.967264e-06 -8.173754e-06 -3.2717388e-05
000340 e7 6f 2f 37 fd 31 ed b5 13 6c ea 36 7e 9a 2e b7
       1.0456867e-05 -1.7672425e-06 6.986325e-06 -1.0407179e-05
000350 d5 6b 45 36 c8 fe c4 b7 43 30 2d 38 fd 69 a9 b6
       2.9418054e-06 -2.3483663e-05 4.129136e-05 -5.048931e-06
000360 b6 10 b2 37 08 c4 fa b7 07 e8 07 37 0d c9 d1 b6
       2.1227035e-05 -2.9893607e-05 8.10065e-06 -6.2520908e-06
000370 7f 13 13 37 09 32 69 37 c1 08 26 b8 31 b1 e2 b6
       8.766422e-06 1.3899532e-05 -3.9585637e-05 -6.7559527e-06
000380 9a df b6 b6 be 5b 2e 36 bb a4 9e b7 c2 6a 90 37
       -5.4500533e-06 2.5981421e-06 -1.8911776e-05 1.721585e-05
000390 17 2a ef 37 9f a8 3f 36 ff 16 0e 37 85 41 45 b7
       2.851062e-05 2.8559368e-06 8.469214e-06 -1.175737e-05
0003a0 d2 56 ea b6 f5 fa 4d b7 fb 90 25 b7 a5 e6 ba 37
       -6.9838507e-06 -1.2277383e-05 -9.868522e-06 2.228033e-05
0003b0 40 25 2c b7 87 73 b2 36 5a cf f4 b4 59 ca 16 37
       -1.0260672e-05 5.3182625e-06 -4.559941e-07 8.987809e-06
0003c0 53 90 ce b6 47 b1 51 38 94 25 3f 35 d4 bb e2 b7
       -6.15608e-06 4.9994585e-05 7.120773e-07 -2.7028764e-05
0003d0 13 6a e4 b5 a9 b7 b2 36 18 96 f3 36 93 8d 0a 37
       -1.7018195e-06 5.3261942e-06 7.2594376e-06 8.258404e-06
0003e0 42 0d b3 35 ab 86 3b 36 70 72 9a b7 39 b0 11 b7
       1.3340398e-06 2.7943559e-06 -1.841152e-05 -8.6837035e-06
0003f0 fc 92 aa 37 db d9 fb 37 72 43 06 b7 06 43 f9 b7
       2.0334024e-05 3.0022979e-05 -8.002726e-06 -2.9714323e-05

exp_avg_sq f4 [64, 128]
000000 bd 0e ab 2e 00 b8 af 2d e8 d8 c2 2e 73 24 0b 2e
       7.778798e-11 1.9976909e-11 8.860629e-11 3.1637314e-11
000010 ab 10 20 2e e5 74 a6 2c 90 ca 63 2e 89 fe bb 2c
       3.6394592e-11 4.7309817e-12 5.1793736e-11 5.3431187e-12
000020 15 90 b7 2d 91 ab d5 2c 7a 93 a1 2d df 4a 96 2d
       2.0868677e-11 6.072872e-12 1.8369074e-11 1.7086275e-11
000030 7a 9b d4 2e 84 5b 60 2e 2d 46 7e 2e e0 aa 0a 2e
       9.668262e-11 5.1012986e-11 5.7815242e-11 3.1529335e-11
000040 8e 77 7d 2d 2d c2 94 2d fd 2c 79 2e 40 4b 8c 2d
       1.44079314e-11 1.6911883e-11 5.6656003e-11 1.5949575e-11
000050 fb ba 36 2c a7 e7 c2 2f 4e c1 81 2e be 0b 1b 2d
       2.596755e-12 3.5452993e-10 5.9005786e-11 8.813337e-12
000060 70 df 22 2e a4 1c ad 2d fc a2 27 2e cd 9b 2f 2e
       3.7032988e-11 1.9680542e-11 3.8116163e-11 3.9928772e-11
000070 0d ba 92 2e 0b df a8 2d 7e 63 22 2e 4b 7c 89 2e
       6.6723606e-11 1.919844e-11 3.6922902e-11 6.2521176e-11
000080 c5 f0 cb 2e ee 4e e8 2c 36 9f 31 2e 68 a7 92 2b
       9.2741405e-11 6.6025995e-12 4.038655e-11 1.0420389e-12
000090 60 26 d8 2c ec 2f 23 2e 34 4b a2 2e 64 14 a4 2d
       6.1433497e-12 3.7104472e-11 7.380266e-11 1.8653697e-11
0000a0 90 dd 8c 2e ab 94 eb 2c 43 20 26 2e f6 ac c8 2d
       6.40582e-11 6.695607e-12 3.7772684e-11 2.2814178e-11
0000b0 98 af ae 2d 42 a0 52 2b 69 57 ba 2d ee 71 a6 2d
       1.9859489e-11 7.482939e-13 2.118457e-11 1.892261e-11
0000c0 e8 ee 25 2d cd 89 1f 2d be dd 7c 2d f2 4f 06 2e
       9.432212e-12 9.0687015e-12 1.4373778e-11 3.0539078e-11
0000d0 32 11 db 2d 84 78 e0 2d 6a 9b 9a 2d 36 47 de 2d
       2.4905054e-11 2.5519371e-11 1.757679e-11 2.5270102e-11
0000e0 ac 7f 4b 2f f0 7e b9 2c bc 3b 74 2d 64 b7 4c 2e
       1.85081e-10 5.272109e-12 1.3883058e-11 4.6547113e-11
0000f0 00 21 83 2d 84 ca 3d 2d 3e 5c df 2d 19 2d ea 2d
       1.490763e-11 1.0788374e-11 2.5393129e-11 2.6622747e-11
000100 6e 18 1a 2e e4 7a 00 2c 3b bb 92 2d d1 43 8a 2c
       3.5037244e-11 1.8258112e-12 1.6681425e-11 3.929725e-12
000110 82 fe b7 2e e4 83 a7 2d 77 45 34 2e 2c bf 8e 2c
       8.367086e-11 1.9044273e-11 4.098896e-11 4.057107e-12
000120 ef d8 3d 2e eb fc 0b 2d f6 cf 88 2d 8c 6a ce 2d
       4.31663e-11 7.957394e-12 1.5553763e-11 2.3466805e-11
000130 c9 9d d8 2f 7b 17 fe 2d 76 e9 98 2c 3f 91 01 2e
       3.9402284e-10 2.8886884e-11 4.346019e-12 2.946021e-11
000140 c9 f7 4c 2d 58 35 65 2e 22 a5 67 2d 5b 54 53 2e
       1.1651077e-11 5.211595e-11 1.3167497e-11 4.8050768e-11
000150 0c 13 41 2e 27 5f 59 2e 4f 6d 68 2f 32 f3 01 2f
       4.3900036e-11 4.94246e-11 2.1139111e-10 1.1818882e-10
000160 b3 6f c3 2c fa 1c 33 2e 75 b7 d7 2d db b6 9a 2d
       5.5546344e-12 4.0725624e-11 2.4524141e-11 1.7588977e-11
000170 7c 01 5a 2d 61 1e 50 2d a6 8c f2 2d fe ed be 2d
       1.2392195e-11 1.1830177e-11 2.7574675e-11 2.1706189e-11
000180 e8 0c 13 2c 3b ba 50 2d d5 90 ec 2d d2 ff 40 2e
       2.089712e-12 1.1864783e-11 2.6894412e-11 4.388296e-11
000190 57 52 c9 2e 22 d7 16 2e 3e 95 97 2e 47 b4 af 2e
       9.155048e-11 3.4297128e-11 6.893196e-11 7.990102e-11
0001a0 df cc 67 2e 11 f5 62 2d 8d ea f8 2d db cc 28 2f
       5.270528e-11 1.2901028e-11 2.8298497e-11 1.535229e-10
0001b0 1a b2 dc 2d 39 3b 9c 2c c6 5e 92 2c 9c c8 ac 2d
       2.5090197e-11 4.4403617e-12 4.1600915e-12 1.9643225e-11
0001c0 87 6d 1c 2e 62 2e bc 2d 64 dc cd 2e 6f 40 fc 2d
       3.5567573e-11 2.1393724e-11 9.36147e-11 2.8677697e-11
0001d0 32 fd 10 2d ec e1 05 2e d3 ef 80 2d 12 aa 8d 2d
       8.241673e-12 3.0441358e-11 1.4658419e-11 1.610537e-11
0001e0 7c c3 7b 2c f0 f7 03 2f 1b 1d 0c 2d 30 89 12 2e
       3.577776e-12 1.2002466e-10 7.964541e-12 3.3318404e-11
0001f0 f0 80 32 2e 73 35 97 2e 30 fe a4 2d c7 c4 30 2d
       4.0587034e-11 6.8761795e-11 1.8757523e-11 1.0048135e-11
000200 67 6e 2a 2e 7a 0f 36 2c ec b7 fc 2d ec 2a 58 2e
       3.8751582e-11 2.5872347e-12 2.873076e-11 4.9150836e-11
000210 f2 ed f9 2d 75 f7 f5 2c f8 f5 2f 2e 73 44 94 2d
       2.8413692e-11 6.990792e-12 4.0008857e-11 1.685605e-11
000220 73 53 9b 2d 9b 08 8a 2d e3 0c f4 2d 42 d2 38 2d
       1.7658519e-11 1.5692605e-11 2.7745311e-11 1.0505876e-11
000230 e0 06 d9 2d 91 eb 1a 2e 52 b1 63 2d 96 ac 40 2e
       2.4673097e-11 3.522477e-11 1.2942829e-11 4.3809033e-11
000240 93 5b 9d 2d 9e 5c 07 2e 52 7b 60 2e ee 9e c3 2b
       1.78895e-11 3.0777707e-11 5.1041234e-11 1.3899695e-12
000250 b8 85 8f 2b 7e 00 0c 2e 73 52 f9 2c 44 e0 ef 2d
       1.0197876e-12 3.183275e-11 7.0861594e-12 2.7270748e-11
000260 1f 30 c7 2d b0 c1 22 2d 5b 3f aa 2e cc 07 43 2e
       2.264505e-11 9.251641e-12 7.741959e-11 4.434479e-11
000270 9f 4d ee 2c 48 c4 ea 2d 1f a7 58 2d 30 8c e8 2d
       6.7729845e-12 2.6689886e-11 1.2315287e-11 2.6437602e-11
000280 46 f8 d9 2d 9a 60 19 2d 7c bd 59 2e 1b 63 36 2d
       2.47803e-11 8.718493e-12 4.9508384e-11 1.0367508e-11
000290 20 5e e5 2c 8b a1 25 2f c3 07 e4 2c 01 cf d1 2d
       6.5190214e-12 1.5064054e-10 6.4810115e-12 2.3852477e-11
0002a0 b2 20 de 2d 87 19 89 2d 30 5c d8 2d 55 b1 e4 2d
       2.5252998e-11 1.5586433e-11 2.4597296e-11 2.599935e-11
0002b0 f7 54 75 2e 84 c5 91 2c 7c 73 8a 2d c9 17 a1 2e
       5.5782014e-11 4.1430765e-12 1.5740069e-11 7.3256574e-11
0002c0 41 43 01 2e 42 4b dd 2c 7d 2e 42 2c 32 8c 1e 2e
       2.9390938e-11 6.289553e-12 2.7594864e-12 3.604956e-11
0002d0 f9 3a 7c 2d 2a dc 3f 2d 8d e0 de 2d 66 9b 0a 2d
       1.4337636e-11 1.0905979e-11 2.5338199e-11 7.878897e-12
0002e0 c2 db 50 2e 67 76 02 2d 65 d6 fb 2c 5e a0 7d 2c
       4.748891e-11 7.415935e-12 7.1576516e-12 3.6042484e-12
0002f0 f0 75 c7 2d c3 0d 0f 2e 5d 3f 2b 2f 57 69 c0 2d
       2.2676055e-11 3.252666e-11 1.557487e-10 2.1874653e-11
000300 89 a9 a7 2e 06 bc bf 2c 92 fd b4 2d 95 55 f1 2b
       7.624396e-11 5.4494213e-12 2.0576239e-11 1.7147834e-12
000310 9b 41 0b 2d 93 d3 94 2d 0a 0d d5 2d ef a6 96 2c
       7.9158026e-12 1.691961e-11 2.4221087e-11 4.2817898e-12
000320 c8 9c 38 2e e0 76 51 2d 35 71 6c 2d e6 cf 41 2d
       4.1976006e-11 1.190667e-11 1.3440184e-11 1.1016943e-11
000330 ef e7 72 2d e5 58 10 2d e2 ed b0 2c b5 9f 0b 2e
       1.3807607e-11 8.205191e-12 5.028631e-12 3.174679e-11
000340 ce 0e c8 2c 80 20 df 2c ec bc 20 2d 2e 3b ac 2e
       5.6859855e-12 6.3416494e-12 9.136896e-12 7.832167e-11
000350 c7 dd ba 2d 22 40 bf 2d 2b 3c 99 2e 96 05 43 2d
       2.124424e-11 2.1742667e-11 6.9683224e-11 1.1085707e-11
000360 d5 1b a8 2d 30 15 1e 2e 78 a0 cf 2d 80 96 4b 2c
       1.9111749e-11 3.594386e-11 2.3604438e-11 2.893158e-12
000370 4f 25 26 2d 8d 6f ba 2d b4 d5 92 2e 68 d0 b5 2c
       9.444292e-12 2.119529e-11 6.6772726e-11 5.167467e-12
000380 c9 17 2d 2c 8b 64 aa 2c 56 94 43 2e d5 c6 8d 2d
       2.4597982e-12 4.842853e-12 4.4469615e-11 1.6118143e-11
000390 88 3d 15 2e 7d 9e 04 2d 4b 15 c3 2d eb 6c 61 2e
       3.393333e-11 7.538523e-12 2.217839e-11 5.1255816e-11
0003a0 f5 45 d8 2d 69 1e e8 2c 2b 05 b8 2d 9c 89 af 2d
       2.4587424e-11 6.597213e-12 2.0920673e-11 1.9956307e-11
0003b0 8a 74 54 2d b8 27 dd 2c 38 09 ca 2b b3 6a 34 2e
       1.2076682e-11 6.2856075e-12 1.4355522e-12 4.102203e-11
0003c0 43 9c b6 2d 9a 05 65 2e f5 d6 01 2c 91 e7 90 2e
       2.0760399e-11 5.2073547e-11 1.8451328e-12 6.589496e-11
0003d0 ad 45 90 2d e9 3b 14 2c f4 75 fe 2d 50 4e c4 2c
       1.6401847e-11 2.1065322e-12 2.8928838e-11 5.5793495e-12
0003e0 e1 0a 85 2d dc 09 c5 2d 63 e9 cb 2d a9 c3 90 2d
       1.512518e-11 2.2400685e-11 2.3182073e-11 1.6457795e-11
0003f0 6b 90 95 2d 98 f3 7b 2e af e5 56 2d b9 35 07 2e
       1.7003473e-11 5.7287147e-11 1.2215492e-11 3.074316e-11

exp_avg f4 [64]
000000 be eb 3d b9 d1 8d db b6 74 71 54 b9 96 99 33 b9
       -0.00018112265 -6.543218e-06 -0.0002026016 -0.00017127985
000010 b1 99 b0 b8 8e cf 02 b9 be 87 f3 b7 1a f7 fc b8
       -8.420961e-05 -0.00012475086 -2.9031067e-05 -0.00012062323
000020 9b 94 6f b8 35 94 3e b8 cd 70 fe b7 6e 9f 96 b8
       -5.712044e-05 -4.543756e-05 -3.0331687e-05 -7.1822535e-05
000030 b8 67 86 b8 f8 5b 91 b8 ba 1d 16 b9 29 90 9b b8
       -6.408937e-05 -6.931269e-05 -0.00014316189 -7.417828e-05
000040 ad 99 b6 b8 d6 20 12 b9 d9 f1 43 b8 fd 15 aa b8
       -8.7070606e-05 -0.00013935877 -4.671686e-05 -8.110327e-05
000050 22 da ed b8 3a a0 7c b8 d7 bd 8d b8 8e b8 8d b9
       -0.00011341671 -6.0230705e-05 -6.758764e-05 -0.0002703112
000060 40 8f d7 b8 46 12 bf b8 ff b9 86 b8 cd 0b 93 b8
       -0.00010278681 -9.1109934e-05 -6.4242624e-05 -7.011704e-05
000070 c5 45 f0 b8 16 33 7a b8 6a e1 e4 b8 22 a0 1f b9
       -0.000114570874 -5.9652222e-05 -0.00010913874 -0.00015223076
000080 4e 38 40 b9 a0 de c7 b8 3a c0 b5 b8 35 98 b7 b7
       -0.00018331522 -9.5305266e-05 -8.6665576e-05 -2.1886177e-05
000090 bc 3d 02 b9 dd 7e 10 b9 a9 2f 82 b9 b2 f7 08 b9
       -0.00012420764 -0.0001378017 -0.00024831042 -0.00013062244
0000a0 96 59 b9 b8 96 5d 25 b8 b2 eb 6d b8 53 11 80 b7
       -8.838174e-05 -3.9426224e-05 -5.672471e-05 -1.5266856e-05
0000b0 f2 74 ef b8 31 12 7f b9 7e 30 b2 b8 7b dc 5f b7
       -0.00011418191 -0.00024325472 -8.496734e-05 -1.334317e-05
0000c0 b5 b1 13 b9 1d d4 57 b9 3d 43 66 b9 6b 23 98 b8
       -0.00014085213 -0.00020583016 -0.00021959557 -7.254522e-05
0000d0 48 4e 31 b8 9c ab 74 b8 0b 32 6d b8 02 86 41 b8
       -4.2272994e-05 -5.8333957e-05 -5.655181e-05 -4.613959e-05
0000e0 06 1b 88 b8 80 b4 6a b9 c1 d1 f1 b8 c1 14 ee b8
       -6.490019e-05 -0.0002238322 -0.00011530845 -0.0001135259
0000f0 7a 33 bd b8 13 a4 b0 b8 51 70 fc b8 89 59 7b b8
       -9.0218105e-05 -8.422895e-05 -0.00012037217 -5.992645e-05

exp_avg_sq f4 [64]
000000 f0 76 27 31 1b 38 40 30 74 37 18 31 48 46 9f 30
       2.4369307e-09 6.9928924e-10 2.2150433e-09 1.1588748e-09
000010 ed bb 15 31 2c a4 0b 30 be 01 8d 30 b7 c0 c4 30
       2.1789177e-09 5.080121e-10 1.0259595e-09 1.431565e-09
000020 3b b8 fc 2f ff f0 ea 2f bf 56 5b 30 4a 92 61 30
       4.5969437e-10 4.273559e-10 7.979501e-10 8.206241e-10
000030 d1 28 b6 30 ce 51 07 30 53 75 83 30 98 f2 6a 2f
       1.3253844e-09 4.9228965e-10 9.56485e-10 2.1368363e-10
000040 4d 8e 68 2f 66 8b 4a 30 00 e1 54 30 c4 6e ad 2f
       2.1150832e-10 7.368527e-10 7.7444895e-10 3.154722e-10
000050 22 a0 de 30 11 40 a5 30 d3 c3 d8 2f 70 7f 9d 31
       1.6198138e-09 1.2023539e-09 3.9429313e-10 4.5837893e-09
000060 05 10 b2 2f 7d d6 86 30 20 40 9c 2f ae 29 6c 2f
       3.2389394e-10 9.810744e-10 2.8421798e-10 2.1478883e-10
000070 70 ee e0 2f 74 cf 0a 2f 33 7e 3b 30 76 b0 c8 30
       4.0914783e-10 1.2624729e-10 6.8209544e-10 1.4602068e-09
000080 50 7f 0a 31 c2 22 ac 30 dc a5 e4 30 dd d3 61 30
       2.0154012e-09 1.2524526e-09 1.6636323e-09 8.21556e-10
000090 b9 8a 00 31 5a 9a f4 30 b2 e0 36 31 df b5 b8 30
       1.8705306e-09 1.7797206e-09 2.661221e-09 1.3439453e-09
0000a0 a3 b5 02 30 70 cc ea 2f 41 a3 7c 2f 05 d6 85 30
       4.7551846e-10 4.2709614e-10 2.2977266e-10 9.737852e-10
0000b0 92 8f a8 2f 39 20 89 31 1b 43 13 30 eb 25 ab 2f
       3.0661035e-10 3.990888e-09 5.357365e-10 3.113166e-10
0000c0 f7 7f a1 30 9c fd 39 31 a1 0c 14 31 97 59 bb 30
       1.1750662e-09 2.7065203e-09 2.1544013e-09 1.3631504e-09
0000d0 b5 db 44 2f d9 c0 2c 30 24 7d f6 2f 7a 78 88 2f
       1.7904152e-10 6.284729e-10 4.4836057e-10 2.482386e-10
0000e0 bb 01 e6 2e 09 dc 21 31 7e 24 6b 30 a2 85 8b 30
       1.04594965e-10 2.355366e-09 8.554436e-10 1.0151562e-09
0000f0 e8 4d 90 30 3f 8c 32 30 cb dd 65 30 28 85 01 30
       1.0499521e-09 6.4955324e-10 8.36249e-10 4.7119153e-10

exp_avg f4 [1, 64]
000000 c2 ce 4f 3a 26 ac 9d b9 f5 ed 12 3a 85 2d ef 39
       0.00079272327 -0.00030073634 0.00056049164 0.00045619547
000010 00 9f b2 b9 10 4a dd b9 7c d3 b0 b9 ca 1a e1 39
       -0.0003406927 -0.00042207586 -0.00033726904 0.00042935304
000020 0c 66 66 39 fe 3a 98 b9 25 be b7 b9 b5 3c b8 b9
       0.00021972525 -0.00029035652 -0.0003504615 -0.00035140445
000030 e5 f9 e2 b8 19 37 04 ba c7 88 8d 39 a7 4d 11 3a
       -0.00010823066 -0.00050436106 0.00026995523 0.0005542882
000040 8e 07 ab b9 44 ff d3 39 fb 24 22 b9 c8 39 0e 3a
       -0.0003262129 0.00040435244 -0.000154633 0.000542548
000050 b2 9d b5 b9 d7 0c 1f b9 4d b1 8e 39 8c 39 71 3a
       -0.00034640502 -0.00015168205 0.0002721645 0.00092019956
000060 5b 1c f2 b9 23 74 b1 b9 c6 a8 29 3a e5 7e 91 b9
       -0.00046178963 -0.000338466 0.00064719876 -0.000277511
000070 4c 0b a4 39 50 d4 4c 39 db fe 81 3a 34 45 09 3a
       0.00031288934 0.00019534049 0.0009917872 0.00052364473
000080 7e 85 f4 39 92 a3 82 b9 66 f5 d0 b9 a6 5d b0 b8
       0.00046638766 -0.00024917402 -0.00039855688 -8.4097774e-05
000090 5f ba db b9 fa b0 99 b9 33 ee 3d 3a 2a d0 a6 39
       -0.00041909792 -0.00029314292 0.0007245272 0.00031817082
0000a0 9d 9a 63 3a 6f 46 3d b9 50 2f c2 b9 ec e7 91 b9
       0.0008682402 -0.00018050683 -0.00037037814 -0.0002782935
0000b0 38 38 41 3a 75 fc 5f 3a ea 8f 67 b9 78 f6 07 b9
       0.0007370743 0.0008544394 -0.00022083489 -0.0001296642
0000c0 3d 73 0a 3a e1 01 d5 39 0f 11 c3 39 a5 c3 58 b9
       0.0005281454 0.00040627926 0.00037206008 -0.00020672249
0000d0 9c 08 a1 39 be 44 83 b9 bd 06 96 b9 b7 b1 bb b9
       0.00030714727 -0.00025037484 -0.0002861525 -0.00035799827
0000e0 3d 80 00 3a ba f5 a3 39 8b 73 d3 39 0a a3 d1 39
       0.00049019215 0.00031272863 0.00040331142 0.0003998506
0000f0 8f 85 bd b9 7b 17 9a 39 c4 f3 6b 39 3a eb b6 b9
       -0.00036148398 0.00029390663 0.00022502156 -0.00034889003

exp_avg_sq f4 [1, 64]
000000 19 f6 26 33 76 07 10 32 56 11 45 32 32 a6 5d 32
       3.887371e-08 8.3836e-09 1.1470851e-08 1.29016815e-08
000010 db f6 93 32 8c 0c 08 32 64 b8 3f 32 84 e3 40 32
       1.722531e-08 7.919095e-09 1.1159589e-08 1.1227602e-08
000020 16 6d a2 32 67 bd 11 33 ec 57 05 33 7d 76 43 32
       1.8908889e-08 3.3932704e-08 3.104644e-08 1.1377435e-08
000030 27 e5 34 32 b7 0c 42 33 bf f2 40 32 96 5d 90 32
       1.0529482e-08 4.518071e-08 1.1231065e-08 1.6806364e-08
000040 09 4c 71 31 af 03 6a 32 69 b6 86 32 37 f5 8a 32
       3.5113337e-09 1.362143e-08 1.5682604e-08 1.6176825e-08
000050 d6 11 cf 32 02 22 3a 32 cf e7 6f 32 7f 63 3b 33
       2.4106082e-08 1.0834357e-08 1.3964338e-08 4.362982e-08
000060 74 c3 e5 31 bf 8c 17 33 c0 13 b5 32 ca ee 2e 31
       6.6869976e-09 3.5285435e-08 2.1080155e-08 2.5456068e-09
000070 ec 1c 1a 32 62 71 1c 32 00 05 22 33 08 c9 c3 32
       8.970556e-09 9.106175e-09 3.772311e-08 2.2792406e-08
000080 4a 50 b1 32 f2 f9 d4 32 10 74 d6 32 0c 56 5f 32
       2.0642023e-08 2.479371e-08 2.4965658e-08 1.2999873e-08
000090 b5 88 21 33 64 da c0 32 7b db 16 33 54 5b 49 32
       3.7610068e-08 2.2451054e-08 3.5124213e-08 1.17205055e-08
0000a0 cb 03 20 33 14 9d 57 32 5a be e7 31 04 16 b3 32
       3.7256353e-08 1.25503625e-08 6.7446253e-09 2.0848354e-08
0000b0 64 85 45 32 a8 20 18 33 fe 55 bb 32 00 72 f5 31
       1.1497239e-08 3.541996e-08 2.180877e-08 7.1433988e-09
0000c0 3e 3c 84 32 df d0 94 32 c0 e3 93 32 da a4 6f 32
       1.5394217e-08 1.7324451e-08 1.7216621e-08 1.3949114e-08
0000d0 10 17 39 31 af e9 88 32 3c b1 46 32 ac 79 bb 32
       2.6934153e-09 1.593875e-08 1.1565415e-08 2.1824995e-08
0000e0 84 91 b0 31 a2 43 66 32 67 fa 6f 32 db 16 50 32
       5.1388174e-09 1.340314e-08 1.3968566e-08 1.211239e-08
0000f0 e4 28 f8 32 f0 27 43 32 76 06 03 32 40 19 f2 32
       2.8889595e-08 1.1359575e-08 7.626673e-09 2.818399e-08
