checkpoints/checkpoint_epoch_30.pt (torch, 211659 bytes, 18 tensors)

fc1.weight f4 [64, 128]
0	0x3c5691b8	0.0130962655
1	0x3d2b992e	0.04189413
2	0x3dcfe06f	0.10150229
3	0x3ae534d6	0.001748706
4	0xbde45106	-0.111482665
5	0xbd8d13bc	-0.0688853
6	0xbcdcacb9	-0.02693783
7	0x3d2d54d3	0.042317223
8	0x3d5f9a6e	0.054590635
9	0xbcaaeece	-0.020865824
10	0xbd3da6a6	-0.046301506
11	0x3c180434	0.009278346
12	0x3d34fdb0	0.044187248
13	0x3c965f6c	0.018356048
14	0xbb7933de	-0.00380253
15	0xbc9653d7	-0.018350525
16	0x3d922460	0.07135844
17	0x3d0f6488	0.035007983
18	0x3db7fcd7	0.08983772
19	0xbcd3830a	-0.02581932
20	0xbd819721	-0.06327654
21	0xbd5e9987	-0.054345634
22	0x3c5a2d95	0.013316532
23	0xbdeb6572	-0.114939585
24	0xbd824e2b	-0.063625656
25	0x3d1fca83	0.03901149
26	0x3db9c1b6	0.090701506
27	0x3db83901	0.08995248
28	0xbd76a9c4	-0.060220495
29	0xbd6a67fa	-0.057228066
30	0x3d5d40f1	0.05401701
31	0xbd81f5a0	-0.063456774
32	0xbd72865f	-0.059210178
33	0x3d1cb6a5	0.03826012
34	0xbca72607	-0.020403875
35	0xbd189416	-0.0372506
36	0x3cd33c8c	0.025785707
37	0xbdd1fce5	-0.10253314
38	0x3d0454a2	0.032307275
39	0x3b82b5ec	0.003988972
40	0xbcc5c6ac	-0.024142586
41	0xbcecbe0f	-0.02889922
42	0x3d8fcc08	0.07021338
43	0x3d400fe0	0.04689014
44	0x3d54caec	0.051951334
45	0x3d03150c	0.032002494
46	0x3d9c5bf7	0.076347284
47	0x3d725910	0.059166968
48	0x3c900534	0.017580606
49	0xbc446900	-0.011987925
50	0xbd13308b	-0.035934966
51	0xbceb3232	-0.028710458
52	0x3c4f6444	0.0126581825
53	0xbd0b4b51	-0.034007374
54	0x3d2b0454	0.041752174
55	0x3d6784a4	0.05652298
56	0xbd52900b	-0.0514069
57	0xbd6190f3	-0.055069875
58	0x3c228c8d	0.009921205
59	0xbd283f8d	-0.04107623
60	0xbcac8832	-0.021061037
61	0x3d4d7e53	0.0501693
62	0xbc8e25b1	-0.017351957
63	0x3cf00e71	0.029303761
64	0xbc54fc30	-0.012999579
65	0xbd0b1bfe	-0.033962242
66	0x3d13f3ce	0.036121182
67	0xbd5267d8	-0.051368564
68	0xbc795eaa	-0.015220324
69	0xbd9d32ff	-0.07675742
70	0xbca7e093	-0.020492828
71	0x3d463ba3	0.048396718
72	0xbddda5fb	-0.10822674
73	0x3dc1483c	0.09437606
74	0x3d903457	0.07041233
75	0xbd0dfbeb	-0.034664076
76	0xbd1b4f00	-0.037917137
77	0xbda52230	-0.080631614
78	0x3cd3e67e	0.025866743
79	0xbd4ab27a	-0.049486615
80	0xbd30dd79	-0.043179963
81	0x3a31fafc	0.0006789414
82	0xbda74c29	-0.08168823
83	0xbc7d8bc0	-0.0154752135
84	0x3dc70803	0.09718325
85	0x39755140	0.00023395289
86	0xbdcd4409	-0.10022742
87	0x3dc50263	0.09619596
88	0xbd3f57fc	-0.046714768
89	0x3dad321c	0.08456823
90	0x3d6875f4	0.056753114
91	0x3c8a2f4c	0.016868256
92	0x3d26b9df	0.040704604
93	0xbd908776	-0.07057087
94	0xbd892fb5	-0.066985525
95	0x3d0cc5e3	0.034368407
96	0x3c43c32b	0.011948387
97	0x3da4cab0	0.08046472
98	0x3d6566dd	0.0560063
99	0xbb889300	-0.0041679144
100	0xbd6c3ba4	-0.057674065
101	0xbcdce021	-0.026962342
102	0x3d9e0dda	0.07717486
103	0xbd72bc70	-0.05926174
104	0x3de230a4	0.11044434
105	0xbd8990fe	-0.06717108
106	0xbdb08dbe	-0.08620785
107	0xbd3645b7	-0.04450008
108	0x3d4b2e62	0.04960478
109	0x3d03cd18	0.032178015
110	0xbd84798e	-0.06468497
111	0x3d4e7e39	0.050413344
112	0xbdaf8271	-0.085698016
113	0xbd51b26e	-0.051195554
114	0xbc3c8e31	-0.01150851
115	0x3ce03c49	0.027372496
116	0x3d136d14	0.035992697
117	0xbd20982c	-0.039207622
118	0xbcd876b7	-0.026423795
119	0x3d176a58	0.03696665
120	0x3d457630	0.048208416
121	0x391245ec	0.00013949693
122	0xbd1d0d28	-0.038342625
123	0xbdb0d09b	-0.08633538
124	0x3d81df18	0.0634138
125	0xbd550aab	-0.052012127
126	0xbd593be0	-0.053035617
127	0x3d7412cb	0.059588235
128	0xbd181e82	-0.03713847
129	0x3cdc0354	0.026857056
130	0x3c6c790a	0.014433155
131	0x3d716e39	0.058943007
132	0xbc3d18e0	-0.011541575
133	0x3d5b4e79	0.053541634
134	0x3ce2b730	0.027675241
135	0xbd5a4fde	-0.053298824
136	0x3d94c1ea	0.07263549
137	0x3deda6af	0.11604058
138	0xbda11856	-0.0786597
139	0x3a1f0df2	0.00060674467
140	0xbd88acee	-0.06673609
141	0x3d4275aa	0.047475494
142	0x3c0b6f41	0.008510412
143	0xbc01440e	-0.007889761
144	0xbc5b6b75	-0.013392319
145	0x3dcf5a82	0.10124685
146	0x3d60adfb	0.05485342
147	0x3d89d5d7	0.0673024
148	0xbd3c0afd	-0.045908917
149	0x3ce5c99d	0.028050238
150	0x3d6a3371	0.057177965
151	0xbd5bff7d	-0.05371045
152	0x3d5e46f6	0.054266892
153	0x3c902f91	0.017600806
154	0xbcd2c8b6	-0.025730472
155	0xbd45866b	-0.048223894
156	0xbca1e0f6	-0.01976059
157	0x3cec5917	0.028851075
158	0xbdb73f55	-0.089476265
159	0x3c8ea684	0.017413385
160	0x3dc625f2	0.09675206
161	0x3de2e889	0.11079509
162	0xbd2e4ad8	-0.042551845
163	0x3d600919	0.054696176
164	0x3dca546a	0.09879382
165	0xbd7256cb	-0.059164803
166	0x3d0f763b	0.035024863
167	0x3c0af06e	0.0084801745
168	0x3dab4ae1	0.083638914
169	0xbc1fecbe	-0.009761034
170	0x3dd6bd74	0.10485354
171	0xbc9d072a	-0.019168455
172	0x3defa624	0.11701611
173	0x3dd8d4ca	0.10587461
174	0x3d07591b	0.033043962
175	0xbda3adcf	-0.07992136
176	0x3d883405	0.06650547
177	0x3db7e31c	0.089788646
178	0x3b83ead1	0.004025795
179	0x3d33f388	0.04393342
180	0x3c9d4ca8	0.019201592
181	0x3d3cbc53	0.046078037
182	0xbd25fd9c	-0.040525064
183	0x3d94c465	0.07264022
184	0xbc901247	-0.01758684
185	0xbd90926f	-0.0705918
186	0xbd39c5a0	-0.045354486
187	0x3c66a42d	0.0140772285
188	0x3d40fe49	0.047117505
189	0xbac30cfe	-0.0014881191
190	0xbd2dcde8	-0.042432696
191	0xbdab82b1	-0.08374537
192	0x3cf59566	0.029978465
193	0x3c13215a	0.00898012
194	0xbcbe01c4	-0.023194201
195	0x3d82fd23	0.06395938
196	0xbda3f0d9	-0.080049224
197	0xbd0d6291	-0.03451783
198	0x3d796566	0.060887717
199	0x3d99862a	0.07496293
200	0x3cf28d86	0.0296085
201	0x3d53e9b2	0.05173654
202	0x3cfe6f39	0.031058894
203	0x3de4164c	0.11137065
204	0x3db10ff4	0.08645621
205	0x3d5c52ac	0.05378978
206	0x3d807dda	0.06274004
207	0x3d8662c5	0.065618075
208	0xbbe6c226	-0.0070421873
209	0x3bbf24fc	0.0058332663
210	0x3da7ae20	0.081875086
211	0x3d77c932	0.06049461
212	0xbc8086a0	-0.015689194
213	0x3c58ce0d	0.01323272
214	0x3ddb4b41	0.10707713
215	0xbdcd3367	-0.1001957
216	0xbd3c74c5	-0.046009798
217	0x3d347b3a	0.04406283
218	0x3d2aeacc	0.041727826
219	0x3d3e3c57	0.046444263
220	0xbd33a11f	-0.04385483
221	0xbdeb9c01	-0.11504365
222	0xbcb37950	-0.021908432
223	0xbd17a968	-0.037026793
224	0xbd2c39d4	-0.042047337
225	0x3d9d0290	0.076665044
226	0x3bdb2502	0.0066877613
227	0x3d9a9dff	0.075496666
228	0xbd8da750	-0.06916678
229	0x3d9d5787	0.0768271
230	0x3c0e45be	0.00868362
231	0x3d4a8094	0.049439028
232	0x3cae2aec	0.021260701
233	0xbd10f840	-0.035393
234	0x3da4214a	0.08014162
235	0xbcc55fd6	-0.02409355
236	0xbd1cc58e	-0.03827434
237	0x3dcf2e90	0.10116303
238	0xbd401bd4	-0.04690154
239	0x3d400688	0.04688123
240	0x3d1635e1	0.036672477
241	0xbdc211c1	-0.094760425
242	0x3c02fe67	0.007995225
243	0xbdc94a68	-0.09828645
244	0xbd8c9f93	-0.06866374
245	0x3da206b6	0.07911436
246	0xbd18921e	-0.037248723
247	0xbdbde68a	-0.092724875
248	0xbc88334e	-0.016626026
249	0xbdc8c9bf	-0.09804105
250	0x3da836ff	0.08213615
251	0x3d868777	0.065688066
252	0x3dd270e4	0.102754384
253	0x3d8cbf18	0.06872386
254	0xbdaad601	-0.08341599
255	0x3d939d89	0.07207782

fc1.bias f4 [64]
0	0x3cb3bf78	0.021941885
1	0x3cb391de	0.02192014
2	0x3ba92e8f	0.005163021
3	0xbd5f4859	-0.054512355
4	0x3d8fd2ea	0.070226505
5	0xbd62f34e	-0.055407815
6	0xbb8a03ac	-0.0042118635
7	0xbd191b1f	-0.03737938
8	0xbce7cfe6	-0.028297376
9	0x3d99c86c	0.075089306
10	0x3d667182	0.056260593
11	0x3d82dbc8	0.06389576
12	0xbcd47ae4	-0.025937505
13	0x3d9bd08e	0.07608138
14	0xbc4712e5	-0.012150501
15	0x3da1449c	0.07874414
16	0xbc9a8cb0	-0.018865913
17	0x3d787228	0.060655743
18	0x3d93f3fe	0.07224272
19	0xbcad38f0	-0.021145314
20	0x3ce9c00c	0.028533958
21	0xbd4fb014	-0.05070503
22	0xbd78d7c4	-0.060752645
23	0x3d838eb6	0.06423704
24	0xbd33b4ef	-0.043873724
25	0x3dd8b40b	0.105812155
26	0x3d82cec9	0.063870974
27	0xbcabe8b1	-0.02098498
28	0xbc8e4017	-0.017364545
29	0xbd0b981c	-0.03408061
30	0x3d10e314	0.03537281
31	0x3d597af2	0.053095765
32	0x3d2e2f04	0.042525306
33	0x3d900cab	0.07033666
34	0x3da72d54	0.081629425
35	0xbd2ac2ab	-0.041689556
36	0x3d589d34	0.052884296
37	0x3d2ebb50	0.042659104
38	0x3d351135	0.044205863
39	0x3d257808	0.040397674
40	0x3dbc1197	0.091830425
41	0xbc42c22d	-0.011887115
42	0xbd1ee5e1	-0.03879345
43	0xbc512829	-0.012765923
44	0xbd1a655a	-0.037694313
45	0x3d9caad0	0.076497674
46	0x3d6f0362	0.058352835
47	0xbd353bf5	-0.044246633
48	0x3db0ff98	0.08642501
49	0x3d1d8d3d	0.038464773
50	0xbd876368	-0.06610757
51	0xbcef4f0e	-0.0292125
52	0xbd2222e2	-0.039584048
53	0x3dc17fbe	0.09448193
54	0x3d38e6c2	0.045141943
55	0x3bb0eb6e	0.005399159
56	0xbd4e6164	-0.050385848
57	0xbccde9b0	-0.025135845
58	0x3d608ea5	0.054823536
59	0x3d8dfe7e	0.06933306
60	0x3d75d58a	0.0600181
61	0x3d954970	0.07289398
62	0xbd60d131	-0.054887
63	0x3d5e8679	0.054327462

fc2.weight f4 [1, 64]
0	0xbdc3aa87	-0.0955401
1	0x3e06570b	0.13119142
2	0xbdc2c229	-0.09509689
3	0xbdc30c90	-0.095238805
4	0x3dfd0906	0.12355237
5	0x3e13ee3d	0.1444635
6	0x3e094d59	0.13408412
7	0xbdddfbbe	-0.10839032
8	0xbd6a67a3	-0.057227742
9	0x3d6a38a7	0.057182934
10	0x3d900976	0.070330545
11	0x3da39cff	0.07988929
12	0x3e178fd5	0.14800961
13	0x3d48bc30	0.049007595
14	0xbd99a685	-0.07502464
15	0xbca042dd	-0.019563133
16	0x3dcf6dfd	0.101284005
17	0xbd6f19b7	-0.058374133
18	0x3da9aa11	0.08284391
19	0xbcfaf343	-0.030633574
20	0x3deb8053	0.11499085
21	0x3dfa507e	0.12222384
22	0xbd0e3962	-0.034722693
23	0xbdf8c6ea	-0.12147315
24	0x3e00340a	0.12519851
25	0x3da27296	0.07932012
26	0xbd004e7d	-0.031324852
27	0x3db399b9	0.08769555
28	0xbc574f97	-0.013141534
29	0xbcec5b0d	-0.02885201
30	0xbc87b41d	-0.016565377
31	0xbdb4eb32	-0.088339224
32	0xbdd40c77	-0.1035394
33	0x3dc5a414	0.09650436
34	0x3dd8c27a	0.105839685
35	0x3dc78e23	0.09743907
36	0x3e080c3f	0.13285922
37	0x3de5ea7a	0.112263635
38	0xbdcffa05	-0.10155109
39	0xbdb65a15	-0.089039005
40	0xbcf67a96	-0.03008775
41	0x3d903ae5	0.07042483
42	0x3d2edaea	0.04268924
43	0x3dada771	0.084792025
44	0xbd15399b	-0.03643189
45	0xbe0d3905	-0.13791282
46	0x3d89d32f	0.06729733
47	0x3d969ed8	0.07354516
48	0xbda51ba7	-0.08061915
49	0xbe0361a7	-0.1283022
50	0xbdbcbe43	-0.09215977
51	0x3dcdb252	0.100437775
52	0xbcc54678	-0.024081454
53	0x3d705e12	0.058683462
54	0x3d7642ed	0.06012242
55	0x3cd48709	0.025943296
56	0xbc645dae	-0.013938351
57	0xbdf072d2	-0.1174065
58	0xbd8e274f	-0.06941091
59	0xbd9c9d59	-0.07647199
60	0x3db51677	0.088421755
61	0xbd80e575	-0.062937655
62	0xbdcc39ae	-0.09971939
63	0x3d340c60	0.043957114

fc1.weight f4 [64, 128]
0	0xbd66687d	-0.05625199
1	0x3d1b4349	0.037905965
2	0xbdac342b	-0.08408388
3	0x3d46cc9f	0.048534986
4	0x3a7b4560	0.0009585228
5	0x3d843cf5	0.06456939
6	0xbd5892ba	-0.052874304
7	0xbcbdaf83	-0.02315498
8	0xbd979fb3	-0.07403507
9	0x3d127077	0.035751786
10	0x3db0c1d6	0.08630721
11	0x3cedc822	0.029026095
12	0x3c87219c	0.016495518
13	0x3d7b5e3b	0.061369162
14	0xbd015e1c	-0.03158389
15	0x3dc71f48	0.09722763
16	0xbc7adaa0	-0.015310913
17	0x3d69e998	0.057107538
18	0xbc9c8465	-0.0191061
19	0x3a423b6a	0.0007409366
20	0x3d505a82	0.050867565
21	0xbbb72834	-0.0055895094
22	0x3aaed09c	0.0013337317
23	0x3d784215	0.060609896
24	0x3b69f33e	0.0035697962
25	0xbd2ae2fc	-0.041720375
26	0xbd42f2b5	-0.047594745
27	0x3d573f76	0.052550755
28	0x3cb2a824	0.021808691
29	0xbd9395d2	-0.0720631
30	0x3dd4637c	0.10370538
31	0xbc937224	-0.017998762
32	0x3d4b498d	0.04963069
33	0xbcc80d00	-0.024420261
34	0x3cc392f5	0.023873786
35	0x3d530968	0.051522642
36	0x3c46b408	0.012127884
37	0x3d3a0937	0.045418944
38	0xbd885ba5	-0.06658105
39	0x3d90cff5	0.07070915
40	0x3d603897	0.05474147
41	0xbd704643	-0.058660757
42	0xbd0f9473	-0.03505368
43	0xbd92cd7e	-0.07168101
44	0xbbc8ffd9	-0.006134015
45	0x3c3e4fbc	0.01161569
46	0x3bc3652f	0.0059629898
47	0x3b4eba43	0.0031544126
48	0x3d89c57f	0.067271225
49	0x3d1d45e2	0.038396724
50	0x3d2bc9c6	0.041940473
51	0x3dc4fe38	0.09618801
52	0xbd33412b	-0.04376332
53	0xbc572fb5	-0.013133933
54	0xbc0cb220	-0.00858739
55	0x3da1ad56	0.07894389
56	0x3d995a18	0.07487887
57	0xbc32e9f2	-0.010920035
58	0x3c96e7f9	0.01842116
59	0xba264b26	-0.00063435955
60	0xbd2c3d17	-0.042050447
61	0x3d1a538e	0.03767734
62	0xbd85266e	-0.065014705
63	0x3d41c015	0.047302324
64	0xbcb1542e	-0.021646585
65	0xbca5d89a	-0.020244885
66	0x3d8ec712	0.069715634
67	0xbc354c4d	-0.011065555
68	0xbd38884b	-0.045051854
69	0xbdd1e76d	-0.10249219
70	0xbc915c91	-0.017744334
71	0xbd734041	-0.05938745
72	0xbc2603b0	-0.010132715
73	0xbdc5b0ce	-0.096528634
74	0xbd1bf43c	-0.038074717
75	0x3baec21d	0.0053331987
76	0xbcb19627	-0.021678044
77	0x3d1ab6d2	0.037772007
78	0xbc8dd6e3	-0.01731438
79	0x3bead8e0	0.007166967
80	0x3cb6a0c5	0.022293458
81	0x3daa8519	0.083261676
82	0xbcd3f874	-0.025875308
83	0xbcf32a72	-0.029683325
84	0x3c46b9c0	0.012129247
85	0xbce3d154	-0.027809776
86	0x3c21f3cf	0.009884789
87	0x3cedb304	0.029016025
88	0xbbf4a918	-0.0074664466
89	0x3d7ab206	0.061204933
90	0xbd354113	-0.044251513
91	0x3d16c942	0.03681303
92	0xbcc44c27	-0.023962094
93	0x3d0104e1	0.031498794
94	0x3b714c1b	0.0036819044
95	0xbd9efc3e	-0.07762955
96	0xbd9d6b31	-0.07686461
97	0x3d496b92	0.049174853
98	0x3b5269d7	0.0032106542
99	0x3d9c598c	0.07634267
100	0x3c09dfbd	0.00841516
101	0x3ce9f93b	0.028561225
102	0x3da06382	0.078314796
103	0x3d5a43bf	0.053287264
104	0x3d6c2f0a	0.057662047
105	0xbd76f881	-0.060295586
106	0x3d7e17e0	0.062034488
107	0x3d3abc56	0.045589767
108	0xbd3b715f	-0.045762416
109	0xbd82bca0	-0.063836336
110	0xbd801439	-0.06253857
111	0x3ca45ae7	0.020062877
112	0xbc2244d1	-0.009904102
113	0x3d93c722	0.07215716
114	0xbd209f11	-0.039214198
115	0xbd325f23	-0.04354776
116	0x3d807bd2	0.06273617
117	0x3b8cf069	0.00430112
118	0xbd022954	-0.031777695
119	0xbd3d3894	-0.046196535
120	0x3cfbbd7b	0.03073
121	0xbd985527	-0.074381165
122	0xbc4f2e9d	-0.012645391
123	0x3dc7e104	0.09759715
124	0xbd0d830f	-0.034548815
125	0xbd9ecd23	-0.077539705
126	0x3d0fb403	0.035083782
127	0xbd93ab5a	-0.07210417
128	0xbd4e4340	-0.050357103
129	0xbdb529d8	-0.08845872
130	0x3d1e4cc2	0.03864742
131	0x3dd6e239	0.10492367
132	0xbda215b7	-0.07914298
133	0x3da8e178	0.0824613
134	0xbd48fc7e	-0.04906892
135	0x3dcdc9b0	0.100482345
136	0xbcf8e0ee	-0.030380692
137	0x3d255ad6	0.04036983
138	0xbd59ec9b	-0.05320416
139	0x3cf5e5fb	0.03001689
140	0xbaaa7060	-0.0013003461
141	0x3dc7dbdb	0.09758731
142	0xbb98abe8	-0.0046591647
143	0xbdda61e7	-0.10663205
144	0x3d288b47	0.04114845
145	0x3df5173a	0.11967321
146	0x3df1a946	0.117998645
147	0x3a965b8c	0.0011471375
148	0x3ce8c0f1	0.028412314
149	0x3d38fd9a	0.04516373
150	0x3d23b9d0	0.039972126
151	0x3dae8070	0.08520591
152	0xbd2ed70d	-0.042685557
153	0xbd170d65	-0.03687801
154	0x3cd8cb58	0.02646415
155	0x3cc3c754	0.023898758
156	0xbd49d616	-0.049276434
157	0xbd9d5891	-0.07682908
158	0x3c269b76	0.010168901
159	0xbd56447d	-0.05231141
160	0xbcc4eae8	-0.024037793
161	0xbdc48e32	-0.09597434
162	0xbc97de61	-0.018538656
163	0x3cb3992e	0.021923628
164	0x3dc397d0	0.0955044
165	0xbc995aba	-0.01872002
166	0xbb74c40e	-0.0037348303
167	0xbd8bb4c8	-0.06821591
168	0xbdb2caa3	-0.08730056
169	0xbd0574aa	-0.032581963
170	0x3d95c512	0.07312979
171	0xbd0e2e24	-0.034711972
172	0xbdacf6f1	-0.08445538
173	0x3d8fb5c8	0.07017094
174	0xbb3ab21d	-0.0028487511
175	0x3d90f08b	0.0707713
176	0xbc6a791d	-0.014311102
177	0xbd80e2f1	-0.06293286
178	0xbc4b496a	-0.01240764
179	0x3d02732a	0.03184811
180	0xbddcf722	-0.10789324
181	0x3cd5cc57	0.026098413
182	0x3d978536	0.07398455
183	0xbd463eb3	-0.04839964
184	0x3bc7dae8	0.0060990937
185	0x3da6223d	0.08111999
186	0x3d8301d5	0.06396834
187	0x3d92f9f4	0.07176581
188	0xbd25a765	-0.040442843
189	0xbcb0c4ef	-0.02157828
190	0xbd2ff1de	-0.042955272
191	0x3cf7cb4b	0.030248305
192	0xbde68a9e	-0.11256908
193	0xbd49f2ee	-0.04930394
194	0xbd4d5213	-0.0501271
195	0x3cbd4775	0.023105362
196	0xbd51b892	-0.05120141
197	0x3de1bead	0.11022697
198	0xbd15c151	-0.036561314
199	0x3d29bf90	0.041442454
200	0x3c475dcd	0.01216836
201	0xbb25670c	-0.0025238423
202	0x3a790f04	0.00095008337
203	0x3d67b698	0.05657062
204	0xbdbec3d3	-0.09314694
205	0xbde2194a	-0.1103998
206	0xbdd70015	-0.104980625
207	0x3d16dfc6	0.0368345
208	0x3d87dc26	0.06633787
209	0xbdcbfa62	-0.09959866
210	0xbda4fceb	-0.08056053
211	0x3db2b1e6	0.08725338
212	0x3c6c9fb3	0.014442372
213	0x3dc5a390	0.09650338
214	0x3cbf71de	0.023369726
215	0xbd6adf62	-0.05734194
216	0x3d6135e2	0.054983027
217	0xbdaf11ba	-0.08548303
218	0x3dd07d4c	0.101801485
219	0x3de751ae	0.11294876
220	0x3d22e172	0.039765783
221	0x3d3bc644	0.045843378
222	0x3d6764dc	0.05649267
223	0x3d4ee575	0.050511796
224	0x3d7f13e4	0.06227483
225	0x3dbaa0fe	0.09112738
226	0xbd17a378	-0.03702113
227	0xbbdba643	-0.0067031696
228	0xbd08def5	-0.033415753
229	0xbd83417a	-0.06408973
230	0xbc267e03	-0.0101618795
231	0xbcc5ad69	-0.02413054
232	0x3d8271e4	0.06369379
233	0x3d69d75b	0.057090145
234	0xbbd93d71	-0.006629639
235	0xbd4cb045	-0.04997279
236	0x3d831928	0.064012825
237	0x3d54d53e	0.051961176
238	0xbd1089bd	-0.035287607
239	0x3d28d446	0.041218065
240	0xbd9a73d7	-0.07541626
241	0x3b5d9ad3	0.0033814206
242	0xbdaac019	-0.08337421
243	0xbd3b7916	-0.045769773
244	0x3ba914aa	0.005159934
245	0x3c74bc53	0.014937478
246	0x3c3fc34c	0.011704277
247	0x3c668a9d	0.014071134
248	0x3d4a0709	0.049323115
249	0x3d53be7f	0.051695343
250	0x3d0bbb2a	0.03411404
251	0xbd3d872f	-0.0462715
252	0xbd5b5bbd	-0.053554285
253	0xbd665c8e	-0.05624061
254	0xbd55e221	-0.052217606
255	0xbd3a011e	-0.04541122

fc1.bias f4 [64]
0	0x3d48c07a	0.049011685
1	0x3d7a72e2	0.061144717
2	0x3c17f9dd	0.009275881
3	0xbc727f78	-0.014800899
4	0xbc846916	-0.01616339
5	0x3c10f361	0.008847089
6	0xbcaa736e	-0.020806994
7	0xbb92c978	-0.0044795834
8	0x3d9ede54	0.077572495
9	0x3d37a054	0.044830635
10	0x3d538c6c	0.05164759
11	0x3de71764	0.11283758
12	0xbc65c9a5	-0.014025127
13	0xbd873b33	-0.06603088
14	0x3dd6e349	0.1049257
15	0xbc4fd9d2	-0.01268621
16	0xbd257c59	-0.04040179
17	0x3d8de78b	0.06928929
18	0xbcf44690	-0.029818803
19	0xbd37a6ce	-0.04483681
20	0xbd7c347d	-0.061573494
21	0xbcd54d14	-0.02603773
22	0xbda05859	-0.07829351
23	0xbcdd2ac6	-0.026997935
24	0xbd5fe561	-0.054662112
25	0xbcb33477	-0.021875603
26	0x3d4cc48a	0.04999212
27	0x3d4aa4a5	0.049473424
28	0xbd29b7b3	-0.041434955
29	0xbb208a10	-0.0024496354
30	0x3c38e0ed	0.011284095
31	0xbd4067eb	-0.046974104
32	0xbdab37a1	-0.0836022
33	0xbd548bc2	-0.051891096
34	0x3d762070	0.06008953
35	0xbcd54480	-0.02603364
36	0xbcc7e0a7	-0.024399115
37	0x3cb317a4	0.021861859
38	0x3d7bff2c	0.061522648
39	0xbd3f80f6	-0.046753846
40	0x3db00b77	0.08595937
41	0xbd545700	-0.051840782
42	0x3d5b2407	0.053501155
43	0xbd933cd3	-0.07189336
44	0xbd0ce0d2	-0.034394093
45	0x3d9036c8	0.07041699
46	0xbd588b3a	-0.05286715
47	0xbd02d10a	-0.031937636
48	0xbd254000	-0.04034424
49	0xbc7a59ec	-0.015280228
50	0x3dc14f5b	0.09438964
51	0x3da79b16	0.08183877
52	0x3d1dc47f	0.03851747
53	0xbdb9446f	-0.09046256
54	0xbd490faf	-0.049087223
55	0x3c01deb1	0.007926629
56	0x3db47356	0.08811061
57	0x3cd570ac	0.026054703
58	0xbd4cc438	-0.049991816
59	0x3d8c7ac8	0.06859356
60	0xbd129dae	-0.035794906
61	0x3db0edf4	0.08639136
62	0xbb43ba56	-0.0029865704
63	0xbd24862c	-0.04016702

fc2.weight f4 [1, 64]
0	0xbc800ad0	-0.015630156
1	0x3d532eb1	0.0515582
2	0xbc185807	-0.009298331
3	0xbd1b0d7d	-0.03785466
4	0x3e1ad626	0.15120754
5	0x3d480f67	0.048842814
6	0x3ddf72a1	0.109105356
7	0xbdd209e0	-0.1025579
8	0x3dacaf0f	0.08431827
9	0xbcfd500f	-0.030921964
10	0xbd037c16	-0.03210076
11	0x3dd89c12	0.10576643
12	0x3d7ff06a	0.062485136
13	0xbc22d98c	-0.0099395625
14	0x3d1fd97a	0.03902576
15	0xbdc13110	-0.09433186
16	0xbd38973b	-0.0450661
17	0x3d9591a1	0.07303167
18	0x3dd9b662	0.1063049
19	0xbd34b568	-0.044118315
20	0x3a23c669	0.0006247522
21	0xbda72007	-0.081604056
22	0xbd4e1b32	-0.050318904
23	0x3d97f6be	0.07420109
24	0x3e017d27	0.12645398
25	0x3daca7f5	0.08430473
26	0xbdb05ff4	-0.086120516
27	0xbd3b7bb3	-0.045772266
28	0x3dbf8e72	0.09353341
29	0x3e0d8ec0	0.13823986
30	0x3e20e6a9	0.1571299
31	0x3dd79427	0.10526305
32	0x3bfbd708	0.007685546
33	0x3db79a40	0.08964968
34	0x3e1400b1	0.14453389
35	0x3d89b402	0.06723787
36	0x3da293ef	0.07938372
37	0x3e122798	0.14272916
38	0x3d15382f	0.036430534
39	0xbd7d77a5	-0.06188168
40	0x3d5681c0	0.052369833
41	0x3defabb7	0.11702674
42	0x3dd9b6c7	0.10630565
43	0x3c86dfd7	0.016464157
44	0xbcfd430a	-0.030915756
45	0x3e03f0c0	0.12884808
46	0x3e1fecaf	0.15617631
47	0x3d9e6a60	0.07735133
48	0x3da100b8	0.07861465
49	0xbd86e283	-0.065861724
50	0x3ded9582	0.11600782
51	0x3dcb8e56	0.09939258
52	0xbd51451c	-0.0510913
53	0xbd19dfdb	-0.037567
54	0x3e0ddd6b	0.13853996
55	0xbdaf8c17	-0.08571642
56	0x3d0377c3	0.032096636
57	0x3da52724	0.08064106
58	0x3d90cc8a	0.07070263
59	0x3dc51a25	0.09624127
60	0xbd071810	-0.032981932
61	0x3dc27389	0.09494693
62	0x39c0d113	0.00036776866
63	0x3c73d96e	0.014883382

exp_avg f4 [64, 128]
0	0x372e9a76	1.0407171e-05
1	0xb682ccad	-3.8981293e-06
2	0xb541f692	-7.225691e-07
3	0x36abd623	5.121126e-06
4	0x35841d84	9.843357e-07
5	0xb5731d4e	-9.05672e-07
6	0x34ea2c4c	4.3618127e-07
7	0x32da3f7b	2.5407408e-08
8	0x354f2b72	7.717673e-07
9	0xb4185bea	-1.4189541e-07
10	0xb6960786	-4.471224e-06
11	0x3657de24	3.21668e-06
12	0x37201308	9.541174e-06
13	0xb52b3546	-6.377999e-07
14	0xb5e34c41	-1.6935011e-06
15	0x367fe439	3.8130804e-06
16	0x35ee3cc0	1.7750062e-06
17	0x365e1bde	3.3096799e-06
18	0xb5fdb437	-1.8902418e-06
19	0x348df9f9	2.6445176e-07
20	0x34df9cdf	4.1651126e-07
21	0x379b22ba	1.849361e-05
22	0x365ef963	3.322574e-06
23	0x36108b30	2.153869e-06
24	0x3663d3bd	3.3948884e-06
25	0xb6354c89	-2.701565e-06
26	0xb6fd9859	-7.557723e-06
27	0xb60bdf54	-2.0842608e-06
28	0x36007980	1.9144209e-06
29	0x369a6b69	4.602062e-06
30	0x36afd854	5.2405903e-06
31	0x366546b3	3.4164811e-06
32	0x3689b41e	4.1038866e-06
33	0xb3b7a9c2	-8.55248e-08
34	0xb6216854	-2.4051596e-06
35	0xb5553e91	-7.943973e-07
36	0xb4f6ce09	-4.597098e-07
37	0x3475f1bc	2.2905346e-07
38	0xb6b5ca69	-5.417784e-06
39	0xb6e11f33	-6.7091546e-06
40	0x36d0600a	6.2100635e-06
41	0x36060966	1.9973027e-06
42	0xb590aabb	-1.0778525e-06
43	0x35f7c607	1.8460568e-06
44	0x36938ee5	4.3975765e-06
45	0x3513fb69	5.512762e-07
46	0xb6fbafdf	-7.500857e-06
47	0x36c54d80	5.8800797e-06
48	0x35960c4d	1.1179451e-06
49	0x363ac182	2.7828796e-06
50	0x36238b49	2.4369967e-06
51	0xb699dc50	-4.585403e-06
52	0xb69511ff	-4.442641e-06
53	0x3687fb8d	4.052598e-06
54	0x36951039	4.4424346e-06
55	0x35cdb2d4	1.5325736e-06
56	0x37384ab0	1.0984644e-05
57	0x363bbb3a	2.7974152e-06
58	0xb602e768	-1.9506206e-06
59	0x368ef671	4.2606193e-06
60	0xb6a45aa4	-4.898133e-06
61	0xb52520e1	-6.1515135e-07
62	0x36842c9b	3.9390993e-06
63	0xb683ac54	-3.924166e-06
64	0xb703648e	-7.831621e-06
65	0x316ea686	3.4728216e-09
66	0xb6a599ac	-4.935273e-06
67	0x35ff91f1	1.9041455e-06
68	0x36ce9dd7	6.1576534e-06
69	0xb503f94b	-4.916407e-07
70	0xb5dbc9df	-1.6375524e-06
71	0x352b0f31	6.372457e-07
72	0x369f16ba	4.741215e-06
73	0xb43c8d26	-1.7560214e-07
74	0xb5f3c1ce	-1.8161315e-06
75	0x3674b0b3	3.6461686e-06
76	0x3708854c	8.137267e-06
77	0x361930ae	2.2827112e-06
78	0xb574c891	-9.1188946e-07
79	0x33ae17fe	8.1068706e-08
80	0xb53ac05d	-6.9570325e-07
81	0x37044e62	7.886063e-06
82	0x3588ec53	1.0201569e-06
83	0x36a76ac9	4.9894193e-06
84	0x3473326e	2.2649485e-07
85	0x35ed843c	1.7696361e-06
86	0x37185251	9.079072e-06
87	0xb767d298	-1.3817706e-05
88	0x3557bfe4	8.037298e-07
89	0xb6ba99c9	-5.561135e-06
90	0x35a5ef65	1.2363131e-06
91	0xb6797045	-3.716924e-06
92	0xb6977c54	-4.5146244e-06
93	0x34859c78	2.4887026e-07
94	0x35e1c164	1.682009e-06
95	0xb7129e1b	-8.73909e-06
96	0x34fb25a1	4.6779772e-07
97	0xb6060be4	-1.9974477e-06
98	0xb705b83d	-7.970314e-06
99	0x364512ca	2.9366224e-06
100	0x36f48acb	7.2879243e-06
101	0x364a588d	3.015189e-06
102	0xb4b88b0e	-3.4373846e-07
103	0x3740658c	1.1467735e-05
104	0xb6adbe95	-5.1779884e-06
105	0x34e2ac84	4.2221302e-07
106	0x33f4f2de	1.1406313e-07
107	0xb4327a1e	-1.6621968e-07
108	0x36748389	3.6435397e-06
109	0x3596f98e	1.1248501e-06
110	0x35716602	8.9927937e-07
111	0x3529231b	6.300849e-07
112	0x371cb4e2	9.34044e-06
113	0x3689a5e4	4.1022304e-06
114	0x357f9791	9.521546e-07
115	0xb671dd19	-3.6040494e-06
116	0xb667d107	-3.4543352e-06
117	0xb6b6f45d	-5.4524703e-06
118	0xb6492a1f	-2.9975852e-06
119	0x3679caac	3.7221862e-06
120	0x3448aeb5	1.869001e-07
121	0xb68426b9	-3.9384145e-06
122	0x35ce020f	1.5348795e-06
123	0x36770725	3.6810027e-06
124	0xb6e50903	-6.825781e-06
125	0xb753dfaf	-1.262866e-05
126	0xb6eef52b	-7.121494e-06
127	0xb616e2e8	-2.2483819e-06
128	0xb5948586	-1.106572e-06
129	0xb53f5589	-7.1277515e-07
130	0xb42a580a	-1.5864512e-07
131	0xb63c6c79	-2.8077322e-06
132	0x361426c8	2.2076292e-06
133	0xb5a1596d	-1.2021461e-06
134	0xb723a8d4	-9.7548655e-06
135	0xb6ddfc4b	-6.615684e-06
136	0xb5e3516f	-1.6936518e-06
137	0xb6954556	-4.448618e-06
138	0x35d00eec	1.550155e-06
139	0x369bf193	4.647483e-06
140	0x3726b390	9.936179e-06
141	0xb4b2c098	-3.3295214e-07
142	0x3626df65	2.486596e-06
143	0xb5f33432	-1.8120102e-06
144	0x36634f27	3.3871709e-06
145	0xb6efa396	-7.141799e-06
146	0xb71509f4	-8.8834095e-06
147	0x349ea1b3	2.9547445e-07
148	0xb4eefb30	-4.4513718e-07
149	0xb6f561cb	-7.3129536e-06
150	0xb68f2f8d	-4.2672677e-06
151	0xb6e0d198	-6.70012e-06
152	0xb6f1b706	-7.2036664e-06
153	0x353f041b	7.115902e-07
154	0x37017a84	7.717525e-06
155	0x36d746c6	6.4157384e-06
156	0x366c2d8c	3.5193252e-06
157	0x3684e610	3.9606894e-06
158	0x361bc4e7	2.3211412e-06
159	0xb5b265f4	-1.3291706e-06
160	0xb60b129d	-2.0723448e-06
161	0xb6af83f4	-5.230768e-06
162	0xb634fb21	-2.6968266e-06
163	0xb6780170	-3.6955716e-06
164	0xb5bfb1d7	-1.4282367e-06
165	0xb756b7cd	-1.2798188e-05
166	0xb5b7fe99	-1.370866e-06
167	0x35d9ce69	1.6227833e-06
168	0xb509ca82	-5.1331165e-07
169	0xb65a27b1	-3.2507635e-06
170	0xb6b43bf1	-5.371396e-06
171	0xb685195c	-3.966661e-06
172	0xb7945331	-1.7681714e-05
173	0xb515d3d1	-5.581506e-07
174	0x3599be02	1.1454688e-06
175	0x37aadaf1	2.0367532e-05
176	0x36a0f279	4.796599e-06
177	0xb6380850	-2.7422975e-06
178	0x364fac3d	3.094566e-06
179	0x369b9fe6	4.6379746e-06
180	0x3697e3d7	4.5266747e-06
181	0xb59ac8c3	-1.1532323e-06
182	0x36ac97b0	5.143658e-06
183	0x34cb664a	3.7886122e-07
184	0xafc2c55a	-3.542862e-10
185	0x3591f093	1.0873358e-06
186	0x361a1b19	2.2963561e-06
187	0x36d4de30	6.3439584e-06
188	0x374a18a7	1.2045878e-05
189	0xb6a25ecd	-4.8390125e-06
190	0xb7badddf	-2.2276245e-05
191	0x35984fa9	1.1348067e-06
192	0x3704cb43	7.915139e-06
193	0x360c52d4	2.0909838e-06
194	0xb5f94102	-1.8570865e-06
195	0xb5e1e1fb	-1.6829575e-06
196	0x3658e306	3.2318653e-06
197	0x3639913e	2.765169e-06
198	0xb6807b37	-3.8290414e-06
199	0xb68b1e98	-4.1460844e-06
200	0xb663a564	-3.3921906e-06
201	0xb59c61cb	-1.1651367e-06
202	0x36217e1b	2.4064273e-06
203	0xb5d86b86	-1.6124548e-06
204	0xb6dbfc32	-6.556068e-06
205	0xb68afdb7	-4.142257e-06
206	0xb690473b	-4.2998267e-06
207	0xb5a6481e	-1.2388953e-06
208	0x3584263e	9.845896e-07
209	0xb595e311	-1.116745e-06
210	0xb5add320	-1.295095e-06
211	0xb70c8a0a	-8.37679e-06
212	0x364b6186	3.0306123e-06
213	0xb6c58c87	-5.887417e-06
214	0xb5a75ae1	-1.2468919e-06
215	0x36debc81	6.6380603e-06
216	0xb4ca54fe	-3.7687272e-07
217	0xb634efac	-2.6961598e-06
218	0xb5852a26	-9.921539e-07
219	0x35e5d310	1.7123257e-06
220	0xb53cd134	-7.033989e-07
221	0x36cd3457	6.1155692e-06
222	0xb735aeca	-1.0829137e-05
223	0xb5cfe62f	-1.5489694e-06
224	0xb4e6cc8f	-4.2989674e-07
225	0x356324a9	8.461744e-07
226	0x36ec8ee0	7.049981e-06
227	0xb3e8993d	-1.0831216e-07
228	0x3732c857	1.0656272e-05
229	0xb5bc8dc7	-1.4048354e-06
230	0x36d73d33	6.414624e-06
231	0x3761046c	1.3412075e-05
232	0xb71242bb	-8.717815e-06
233	0xb62a20a2	-2.5350969e-06
234	0xb723c20e	-9.760739e-06
235	0x36ac4a8b	5.1346774e-06
236	0x36febf8c	7.592089e-06
237	0xb680a14b	-3.8334742e-06
238	0x362e198e	2.5942895e-06
239	0xb42ce2ae	-1.6101214e-07
240	0xb4f47b92	-4.553845e-07
241	0x364cb264	3.0502206e-06
242	0x34949181	2.7673016e-07
243	0x35c2ca4a	1.4513e-06
244	0x373f124c	1.1388747e-05
245	0xb639b16f	-2.7670428e-06
246	0x36f57630	7.315328e-06
247	0x3667b8df	3.4529291e-06
248	0xb669232e	-3.4740183e-06
249	0x371c4b6b	9.315884e-06
250	0xb65e5ac7	-3.3133417e-06
251	0xb6924668	-4.3593354e-06
252	0xb6552640	-3.1761738e-06
253	0xb70185aa	-7.72012e-06
254	0x3517d6df	5.656456e-07
255	0xb6b0a7c3	-5.264739e-06

exp_avg_sq f4 [64, 128]
0	0x2c14d497	2.1150076e-12
1	0x2aa9d31b	3.0166914e-13
2	0x29beaf11	8.468064e-14
3	0x2b10bb8f	5.1419367e-13
4	0x28cf0134	2.2982138e-14
5	0x292289c2	3.6090712e-14
6	0x29fdddef	1.12739564e-13
7	0x29aae812	7.5897743e-14
8	0x295f176e	4.953627e-14
9	0x28c007d8	2.1319684e-14
10	0x2b2399d5	5.812272e-13
11	0x2a94afcb	2.6412062e-13
12	0x2bf80cee	1.7625049e-12
13	0x299283f8	6.5065954e-14
14	0x298c1d36	6.222316e-14
15	0x2aa9162c	3.0035815e-13
16	0x29932b6c	6.535644e-14
17	0x2a7d030c	2.2471971e-13
18	0x2a73b3a1	2.1645057e-13
19	0x295cb2e3	4.9004973e-14
20	0x28022bc1	7.225937e-15
21	0x2ce5c608	6.5305573e-12
22	0x2a7177a6	2.1446611e-13
23	0x29e9f920	1.0390495e-13
24	0x2a804f41	2.279236e-13
25	0x2a33365c	1.5917253e-13
26	0x2ba4b603	1.1703419e-12
27	0x2a1ad3d6	1.3751443e-13
28	0x29a6f0c2	7.413646e-14
29	0x2afc6d3c	4.483999e-13
30	0x2b1ffdd3	5.68404e-13
31	0x2ac31f81	3.4660819e-13
32	0x2b0ceaed	5.0064017e-13
33	0x29853ccd	5.916934e-14
34	0x2a50f9b9	1.8560751e-13
35	0x28daa2c8	2.4273457e-14
36	0x2812fa1d	8.158863e-15
37	0x2a97e4d0	2.698176e-13
38	0x2b221e6d	5.7596186e-13
39	0x2b73e52e	8.6648993e-13
40	0x2b4fa445	7.3769143e-13
41	0x2a3415ba	1.599475e-13
42	0x29329a1f	3.965762e-14
43	0x29c200ee	8.615492e-14
44	0x2af12fe5	4.2843433e-13
45	0x2835a250	1.0082714e-14
46	0x2b98cf2e	1.0857753e-12
47	0x2b476858	7.084381e-13
48	0x290ecb52	3.1706686e-14
49	0x2a32aabf	1.5868815e-13
50	0x2a0cf2c1	1.251872e-13
51	0x2afcdc59	4.491709e-13
52	0x2ad5ef8a	3.8002614e-13
53	0x2abd3f5c	3.361711e-13
54	0x2b19afdc	5.4600573e-13
55	0x2985e4cc	5.9460764e-14
56	0x2c25b980	2.3550883e-12
57	0x2a32b1a6	1.587121e-13
58	0x29a54d16	7.340844e-14
59	0x2adc85c6	3.9172674e-13
60	0x2b16ae72	5.3532797e-13
61	0x295cd020	4.9030333e-14
62	0x2ae1ee3e	4.0133343e-13
63	0x2ad126b1	3.7152705e-13
64	0x2bab09ae	1.2152967e-12
65	0x280b0118	7.716287e-15
66	0x2b16a590	5.352047e-13
67	0x29a02666	7.1120884e-14
68	0x2b54ff83	7.5672124e-13
69	0x293d071f	4.1972607e-14
70	0x29cd095f	9.1054544e-14
71	0x288c1fb4	1.5556871e-14
72	0x2b04f18c	4.7231034e-13
73	0x284a6a2c	1.1236275e-14
74	0x29dad9e1	9.718941e-14
75	0x2aa1e70f	2.8759674e-13
76	0x2bb33e86	1.2736069e-12
77	0x2a070050	1.1990517e-13
78	0x28bff409	2.1311093e-14
79	0x2786763b	3.7320657e-15
80	0x2993ca44	6.563199e-14
81	0x2bba5938	1.3240858e-12
82	0x2a2831d7	1.4938689e-13
83	0x2b358aba	6.449664e-13
84	0x290efadf	3.174793e-14
85	0x29d84211	9.6037876e-14
86	0x2bfab65a	1.7814181e-12
87	0x2c82f4a6	3.7219837e-12
88	0x2904a5ba	2.9453633e-14
89	0x2b4d0e32	7.285033e-13
90	0x29c432d0	8.712963e-14
91	0x2a9a5eec	2.742176e-13
92	0x2ae524aa	4.0704012e-13
93	0x2840c3a3	1.0700563e-14
94	0x29dcd9e7	9.8077626e-14
95	0x2bcd7f7f	1.4601513e-12
96	0x288d2dc6	1.5673996e-14
97	0x2a031db8	1.1645448e-13
98	0x2bac6b3a	1.2251096e-12
99	0x2a637c7e	2.0204842e-13
100	0x2b951b78	1.0594711e-12
101	0x2a8309e3	2.3277135e-13
102	0x2a05e2f2	1.189151e-13
103	0x2c32c6a1	2.5405583e-12
104	0x2b1cc1e4	5.569141e-13
105	0x28b8eade	2.0529961e-14
106	0x2940023a	4.2634495e-14
107	0x2a0369c9	1.1671839e-13
108	0x2a97e5b0	2.6982366e-13
109	0x29146440	3.2949555e-14
110	0x28d865be	2.4024941e-14
111	0x29e94930	1.03599746e-13
112	0x2bf9e0f4	1.7754951e-12
113	0x2ab8f5ee	3.2855614e-13
114	0x296675c4	5.1172405e-14
115	0x2aa0b6c5	2.854853e-13
116	0x2a8af0a7	2.468071e-13
117	0x2b202aab	5.690263e-13
118	0x2ac33cd2	3.468116e-13
119	0x2a958783	2.6561747e-13
120	0x27acbb1c	4.7942454e-15
121	0x2b1a7841	5.4878676e-13
122	0x29b6b8b2	8.114463e-14
123	0x2a93a482	2.6226596e-13
124	0x2b9eba33	1.1278256e-12
125	0x2c57ac0d	3.0648845e-12
126	0x2b891049	9.738956e-13
127	0x2a196a7b	1.3626073e-13
128	0x2a12bf53	1.3033784e-13
129	0x28470a59	1.1048963e-14
130	0x2a0d0fef	1.2528844e-13
131	0x2af3d419	4.3312644e-13
132	0x2a69220c	2.070637e-13
133	0x29c597ba	8.774878e-14
134	0x2c1e0d34	2.246048e-12
135	0x2b7503d8	8.704682e-13
136	0x2a5ff208	1.989035e-13
137	0x2ae6fad1	4.1030246e-13
138	0x298b5543	6.1876306e-14
139	0x2afe5733	4.517997e-13
140	0x2c1ff5fa	2.2731803e-12
141	0x29dd5371	9.828846e-14
142	0x2a539440	1.8791999e-13
143	0x2a038824	1.168237e-13
144	0x2ad2ea1c	3.746594e-13
145	0x2ba0fee1	1.1439427e-12
146	0x2c0180a2	1.8403408e-12
147	0x28b0a120	1.9609802e-14
148	0x2978ed5e	5.5272945e-14
149	0x2b94363e	1.0531088e-12
150	0x2aca65d8	3.5953076e-13
151	0x2b8114d7	9.171786e-13
152	0x2b8f3e2f	1.017802e-12
153	0x285ddb6e	1.2315546e-14
154	0x2bae9dcc	1.2407241e-12
155	0x2b6c0d07	8.386212e-13
156	0x2abb6323	3.3286663e-13
157	0x2adcffc1	3.9257315e-13
158	0x2a01d6d2	1.1532032e-13
159	0x295faf66	4.966808e-14
160	0x2a0e8a04	1.2660017e-13
161	0x2b1f7a57	5.665793e-13
162	0x2ab4db6b	3.2126675e-13
163	0x2a9eb8d5	2.819469e-13
164	0x29e23978	1.00463854e-13
165	0x2c69f0fc	3.3245065e-12
166	0x2a105655	1.2819722e-13
167	0x2a503c24	1.8494977e-13
168	0x2a26ddf3	1.4820766e-13
169	0x2a6f83f9	2.1273251e-13
170	0x2b33812a	6.3772826e-13
171	0x2adad3cf	3.887155e-13
172	0x2cde901d	6.3256193e-12
173	0x28b09c76	1.960778e-14
174	0x29927b48	6.5050884e-14
175	0x2d14343f	8.424427e-12
176	0x2b26f953	5.9321054e-13
177	0x2a62e243	2.0151333e-13
178	0x2a65b011	2.0400371e-13
179	0x2af2b702	4.3114823e-13
180	0x2b4d2f46	7.2896235e-13
181	0x292e2722	3.8669704e-14
182	0x2b1be1e9	5.5380575e-13
183	0x2800843c	7.134101e-15
184	0x294024b9	4.2664416e-14
185	0x29816a3c	5.7471795e-14
186	0x29ee4333	1.05809804e-13
187	0x2b641872	8.1035797e-13
188	0x2c50ba1c	2.966189e-12
189	0x2b0f85ff	5.098976e-13
190	0x2d3063fe	1.00266444e-11
191	0x29044966	2.937355e-14
192	0x2bc0aa7c	1.3689739e-12
193	0x29beec8e	8.478731e-14
194	0x29956ad4	6.635461e-14
195	0x29b54795	8.050432e-14
196	0x2a6cd3ac	2.1034449e-13
197	0x2a56f37c	1.9091494e-13
198	0x2acfeb03	3.693366e-13
199	0x2ae7683c	4.110617e-13
200	0x2a8723e7	2.400573e-13
201	0x2a11ce2c	1.2950117e-13
202	0x2a1d45e8	1.3968655e-13
203	0x298a6f84	6.147776e-14
204	0x2b8350e3	9.33056e-13
205	0x2acded3b	3.6579927e-13
206	0x2af032c0	4.266778e-13
207	0x2a710d00	2.140961e-13
208	0x295068e2	4.627625e-14
209	0x29244795	3.6477403e-14
210	0x2a2a34cc	1.5117351e-13
211	0x2bce9934	1.4679703e-12
212	0x2a5f296a	1.9820747e-13
213	0x2b5b1d77	7.784532e-13
214	0x2952ae60	4.6780613e-14
215	0x2b898ae2	9.772983e-13
216	0x29bac181	8.293627e-14
217	0x2a484059	1.7785893e-13
218	0x294cabbd	4.544606e-14
219	0x299a5483	6.853634e-14
220	0x285a9733	1.2134217e-14
221	0x2b5131f0	7.432102e-13
222	0x2c307f51	2.508178e-12
223	0x29cef044	9.189917e-14
224	0x27b3e483	4.9930233e-15
225	0x28b551e5	2.0130553e-14
226	0x2bcf2d6f	1.4720845e-12
227	0x29355fed	4.0273276e-14
228	0x2c233522	2.3193188e-12
229	0x298d74b3	6.281902e-14
230	0x2b83217c	9.317404e-13
231	0x2c813568	3.67233e-12
232	0x2bdcf159	1.5698928e-12
233	0x2ac55b5a	3.5057618e-13
234	0x2c05c850	1.9011633e-12
235	0x2b154a4e	5.303855e-13
236	0x2ba6ce06	1.1852192e-12
237	0x2ac84e4a	3.558146e-13
238	0x2a1a8912	1.3725503e-13
239	0x2a0824eb	1.2092035e-13
240	0x28cbe61d	2.2637323e-14
241	0x2af0b506	4.2758174e-13
242	0x27696a49	3.2392863e-15
243	0x2a816b5e	2.2989504e-13
244	0x2c3fb224	2.724162e-12
245	0x2a34109f	1.5992978e-13
246	0x2ba1a7e1	1.1486334e-12
247	0x2a84403f	2.349249e-13
248	0x2a8f3dce	2.5444788e-13
249	0x2bf2aa33	1.7242374e-12
250	0x2a7d168c	2.2478737e-13
251	0x2ad71b84	3.8210765e-13
252	0x2a8d1006	2.505775e-13
253	0x2babd1c4	1.2208502e-12
254	0x28033fa5	7.2857615e-15
255	0x2b42c48e	6.919542e-13

exp_avg f4 [64]
0	0xb7df038c	-2.6585323e-05
1	0xb8120690	-3.4815224e-05
2	0x358749ab	1.0079724e-06
3	0xb73c10b4	-1.1209562e-05
4	0xb892e924	-7.005248e-05
5	0xb7f8ee1e	-2.9674786e-05
6	0xb81ed5a8	-3.786912e-05
7	0xb60d6929	-2.1071849e-06
8	0xb73e3a17	-1.1338408e-05
9	0xb8078524	-3.2310505e-05
10	0xb87ce4d8	-6.029461e-05
11	0xb833fcb5	-4.2912277e-05
12	0xb8926f95	-6.982606e-05
13	0xb8238e01	-3.899448e-05
14	0xb792f40b	-1.7518198e-05
15	0x370ce9bf	8.3990735e-06
16	0xb7eb46c2	-2.8047132e-05
17	0x36749963	3.6448116e-06
18	0xb836184e	-4.3414817e-05
19	0xb5cd4e2d	-1.5296442e-06
20	0xb8c4eb4d	-9.3898365e-05
21	0xb88aa29c	-6.610641e-05
22	0xb717b69c	-9.042818e-06
23	0xb7880f04	-1.6219456e-05
24	0xb7968468	-1.794305e-05
25	0xb8814cd2	-6.165508e-05
26	0x36a11925	4.801101e-06
27	0x3634800d	2.6896626e-06
28	0x355bd844	8.1898565e-07
29	0x36c670f6	5.91401e-06
30	0xb690a8c9	-4.3111836e-06
31	0x37ec2250	2.814937e-05
32	0x375b361a	1.3066014e-05
33	0xb8ac2c2d	-8.2098275e-05
34	0xb8a37e10	-7.795927e-05
35	0xb8676450	-5.5168115e-05
36	0xb8c862c2	-9.555138e-05
37	0xb8a566dd	-7.886973e-05
38	0xb7a3097b	-1.9435529e-05
39	0xb786de0a	-1.607744e-05
40	0x3584a43a	9.882563e-07
41	0xb7efe260	-2.8596434e-05
42	0xb78d8b41	-1.6873355e-05
43	0xb876b04a	-5.8815152e-05
44	0x346c350c	2.1998511e-07
45	0xb759e4d9	-1.2987491e-05
46	0xb80db70a	-3.3787488e-05
47	0xb7587677	-1.29021855e-05
48	0x3820e8e9	3.8363887e-05
49	0x382d291c	4.12847e-05
50	0xb74a890d	-1.2072048e-05
51	0xb811b8a1	-3.4742643e-05
52	0x35692b95	8.6862684e-07
53	0xb843673a	-4.658776e-05
54	0xb7e59afc	-2.7371098e-05
55	0xb7687615	-1.3855771e-05
56	0xb3b7dcc9	-8.561762e-08
57	0xb7e319fc	-2.7072609e-05
58	0x37fccc45	3.0135861e-05
59	0x36d7ea98	6.4348096e-06
60	0xb898d18d	-7.286957e-05
61	0x378924bc	1.6348778e-05
62	0xb523ea1c	-6.1062906e-07
63	0xb81e5697	-3.775078e-05

exp_avg_sq f4 [64]
0	0x2d85c40d	1.5207413e-11
1	0x2de0d1d0	2.5559027e-11
2	0x2d516bad	1.1904183e-11
3	0x2d8b3ac4	1.5828568e-11
4	0x2edeb489	1.0127461e-10
5	0x2dabff10	1.955372e-11
6	0x2e075c06	3.077718e-11
7	0x2d741fc8	1.3876851e-11
8	0x2c3c8c35	2.6794237e-12
9	0x2db95060	2.1067759e-11
10	0x2e9b8966	7.072991e-11
11	0x2e23e1ff	3.7262634e-11
12	0x2ed9dc6c	9.907172e-11
13	0x2e01d2bc	2.9518374e-11
14	0x2d86cea2	1.53258e-11
15	0x2c0812f4	1.9337284e-12
16	0x2d981b1f	1.7292444e-11
17	0x2cd33e7b	6.0039174e-12
18	0x2e21d79d	3.6798665e-11
19	0x2b79ebd9	8.8789875e-13
20	0x2f496209	1.8315673e-10
21	0x2ebb2b03	8.511416e-11
22	0x2beaeed3	1.6692987e-12
23	0x2da92758	1.9230548e-11
24	0x2d02d386	7.436612e-12
25	0x2ea8f586	7.683369e-11
26	0x2bc6de6f	1.4130484e-12
27	0x2c9f8d0b	4.5347107e-12
28	0x290d5874	3.138501e-14
29	0x2bd46a92	1.5093085e-12
30	0x2b322e60	6.330266e-13
31	0x2e298882	3.8547394e-11
32	0x2da7de95	1.9084548e-11
33	0x2f15e10d	1.3631425e-10
34	0x2f08d418	1.2444479e-10
35	0x2e822e30	5.91992e-11
36	0x2f522ffd	1.9116438e-10
37	0x2f1041d3	1.3120109e-10
38	0x2d72bd71	1.3798172e-11
39	0x2d5fa922	1.27136374e-11
40	0x2baaa4bb	1.2124948e-12
41	0x2d8e5e6d	1.6185464e-11
42	0x2cc37615	5.555343e-12
43	0x2e984234	6.92392e-11
44	0x2ae826cf	4.1238408e-13
45	0x2dd2bd61	2.3958337e-11
46	0x2dcd3daa	2.3333186e-11
47	0x2c62621a	3.217099e-12
48	0x2e28d6b6	3.838948e-11
49	0x2e739a43	5.5388815e-11
50	0x2cb2596c	5.068992e-12
51	0x2dd63b19	2.4355228e-11
52	0x2b3a847a	6.626432e-13
53	0x2e3f30c3	4.347168e-11
54	0x2d8332ca	1.491553e-11
55	0x2c825ffc	3.7054786e-12
56	0x296652ab	5.1141962e-14
57	0x2e065d72	3.055107e-11
58	0x2de01115	2.5473438e-11
59	0x2d166ddd	8.550907e-12
60	0x2eec2257	1.07381375e-10
61	0x2d3de3cd	1.0793988e-11
62	0x2d25e052	9.428973e-12
63	0x2df3c35b	2.7712657e-11

exp_avg f4 [1, 64]
0	0x38d22ba4	0.00010021709
1	0xb8f16b0a	-0.00011511713
2	0xb8b54dcc	-8.645243e-05
3	0xb864ff24	-5.4597054e-05
4	0xb91e8f74	-0.00015121495
5	0xb894ad18	-7.089431e-05
6	0xb90db399	-0.00013513713
7	0xb8d2aa26	-0.00010045273
8	0x38cb0cbf	9.6821685e-05
9	0xb9afeb12	-0.00033553742
10	0xb99ecaf1	-0.00030287312
11	0xb8ef8db7	-0.000114228045
12	0xb8f2aa95	-0.000115712326
13	0xb9c943d9	-0.00038388258
14	0xb858d74c	-5.1698924e-05
15	0xb8c0a9bc	-9.186889e-05
16	0xb84f5e52	-4.944049e-05
17	0xb7fd75df	-3.0214838e-05
18	0xb92b2667	-0.00016322137
19	0xb8321373	-4.245662e-05
20	0xb97112b7	-0.00022990523
21	0xb8e16170	-0.00010746985
22	0x385f42b5	5.322947e-05
23	0x38fa7aad	0.00011943779
24	0xb84943c2	-4.798524e-05
25	0xb9adffe2	-0.0003318778
26	0xb8bc77b1	-8.986833e-05
27	0xb45cdd6e	-2.0569652e-07
28	0x37bec9ec	2.2743792e-05
29	0xb8bcc1f4	-9.000665e-05
30	0x383e9644	4.5439476e-05
31	0xb7e5c8e9	-2.7392483e-05
32	0x379a499e	1.8392511e-05
33	0xb98642ab	-0.00025608143
34	0xb98b2452	-0.00026539207
35	0xb9219d5b	-0.00015412776
36	0xb9b31b79	-0.0003416201
37	0xb983d337	-0.00025143634
38	0x38f327a9	0.0001159453
39	0xb8053738	-3.1761097e-05
40	0x37d4f8aa	2.5388163e-05
41	0xb8e41e80	-0.00010877568
42	0xb8acd0c4	-8.240485e-05
43	0xb9681ea7	-0.00022136663
44	0x3694a2f3	4.4297135e-06
45	0x368f3199	4.267506e-06
46	0xb980f5fd	-0.00024597338
47	0xb8881686	-6.489181e-05
48	0xb9233e8f	-0.00015568196
49	0xb78650eb	-1.6011725e-05
50	0x38a8c3de	8.0473474e-05
51	0xb9088e47	-0.00013022973
52	0xb717f935	-9.058324e-06
53	0xb9302f84	-0.00016802369
54	0xb909f3e8	-0.000131562
55	0xb96f2c59	-0.00022809337
56	0x35fd2f91	1.8863813e-06
57	0xb818fadc	-3.6473255e-05
58	0xb86d66fc	-5.6601115e-05
59	0xb8a3e36d	-7.814807e-05
60	0xb98bf4c6	-0.00026694516
61	0xb8e5b631	-0.00010953507
62	0xb8ed19f6	-0.00011305876
63	0xb987bfd9	-0.00025892144

exp_avg_sq f4 [1, 64]
0	0x2f58a7d1	1.9704706e-10
1	0x2f8b7e83	2.5373845e-10
2	0x30ae2ed6	1.2673478e-09
3	0x31279c6b	2.4390612e-09
4	0x2ff0c40c	4.3795045e-10
5	0x2ed48366	9.663985e-11
6	0x2fbfa2b6	3.485831e-10
7	0x313e40d7	2.7685496e-09
8	0x2f439564	1.7788221e-10
9	0x3115290f	2.1705693e-09
10	0x30f20958	1.7610473e-09
11	0x2f8bcba8	2.542866e-10
12	0x2f8d9cc3	2.5759136e-10
13	0x31437090	2.844022e-09
14	0x3123868e	2.3796107e-09
15	0x30b845df	1.3407621e-09
16	0x2e531ef8	4.800335e-11
17	0x30e29a57	1.648753e-09
18	0x300c154f	5.0961985e-10
19	0x30e45bbe	1.6615258e-09
20	0x308ac264	1.0096071e-09
21	0x2f75477e	2.230802e-10
22	0x2e75529e	5.577993e-11
23	0x2f96bb7d	2.741806e-10
24	0x2e455515	4.4868182e-11
25	0x31118830	2.117769e-09
26	0x310d1216	2.0528481e-09
27	0x2c86019c	3.8086877e-12
28	0x2d484c6d	1.1385654e-11
29	0x3176fed1	3.5942558e-09
30	0x2e508f9d	4.742128e-11
31	0x31330a4d	2.6053784e-09
32	0x31111b14	2.111567e-09
33	0x30ac1236	1.2519823e-09
34	0x30bb7b48	1.3641079e-09
35	0x2ff8bc1c	4.5244597e-10
36	0x311b4953	2.2597149e-09
37	0x30a62bf7	1.2090585e-09
38	0x2f8ef5f1	2.6004401e-10
39	0x30c866e4	1.4581159e-09
40	0x30c86db9	1.45831e-09
41	0x2f798f65	2.2697362e-10
42	0x2f0e5a42	1.2946891e-10
43	0x3080d5ee	9.374028e-10
44	0x2b6a25aa	8.318577e-13
45	0x31240483	2.3867706e-09
46	0x309ef62b	1.1565978e-09
47	0x2eb0d596	8.041494e-11
48	0x30d39d82	1.5397037e-09
49	0x30c9e788	1.469048e-09
50	0x2f082ec0	1.2385737e-10
51	0x2fb1e54a	3.2359032e-10
52	0x2cd53241	6.0594034e-12
53	0x301d28f8	5.717449e-10
54	0x2fb82435	3.3495132e-10
55	0x30897d89	1.0003741e-09
56	0x2a7c8403	2.2427897e-13
57	0x31171d87	2.1990176e-09
58	0x30bac704	1.3589845e-09
59	0x3116cd26	2.1944486e-09
60	0x30bb32cd	1.3620479e-09
61	0x310332f4	1.9091972e-09
62	0x316f09f0	3.4784726e-09
63	0x30b04449	1.2825093e-09

exp_avg f4 [64, 128]
0	0xb9965b42	-0.00028678222
1	0x38a69b15	7.944383e-05
2	0xb7876768	-1.6141406e-05
3	0x395a0f65	0.00020795835
4	0x3a2baf86	0.00065492874
5	0x39c5c0b7	0.00037718352
6	0xb96be86d	-0.00022497932
7	0x3a111d9d	0.0005535724
8	0x378feea5	1.7158056e-05
9	0x3a4dc9d6	0.00078502053
10	0xb8c19b05	-9.231832e-05
11	0xb6e5343a	-6.830812e-06
12	0xba6ad471	-0.0008958048
13	0x39dd1abc	0.00042172323
14	0xb91bf11b	-0.0001487177
15	0xba34c41e	-0.0006895679
16	0xb7ed224d	-2.8268574e-05
17	0x39b9a1d7	0.0003540653
18	0x3a8d7a53	0.0010793902
19	0xb7ff92a1	-3.0466648e-05
20	0xb8b8959b	-8.80167e-05
21	0xba750b2c	-0.0009347673
22	0xb99e8c9b	-0.00030240868
23	0x39e8be38	0.00044392212
24	0xb9a431b6	-0.00031317555
25	0x39689902	0.00022182244
26	0xb9ffcd2e	-0.0004879026
27	0xba2edf2b	-0.0006670828
28	0xba48791d	-0.0007647442
29	0xb9a79980	-0.0003196709
30	0xb8252d33	-3.938116e-05
31	0x3a652057	0.0008740476
32	0xbb1ac213	-0.0023614212
33	0xba1f5b73	-0.00060789956
34	0x3a17e9d9	0.0005795039
35	0xb72298ce	-9.69153e-06
36	0x39d8fe34	0.00041388127
37	0x3ae90f85	0.0017781114
38	0x3a19a2ba	0.0005860735
39	0xb88c7a67	-6.6985194e-05
40	0xb9053fb1	-0.00012707595
41	0x3985eb12	0.00025542878
42	0x3981fd15	0.00024793358
43	0xb90b011f	-0.0001325649
44	0x39dc44f7	0.00042013053
45	0x39103d9e	0.00013755864
46	0x38fba9ea	0.000120002616
47	0xb93b8833	-0.00017884448
48	0xb9d86053	-0.00041270498
49	0xb840b2f2	-4.5943023e-05
50	0xb8adbc80	-8.284394e-05
51	0xb90117e6	-0.00012311302
52	0x38231fb3	3.889175e-05
53	0xb8820093	-6.19899e-05
54	0xb90b7ab2	-0.0001330178
55	0xba22b8ce	-0.00062073476
56	0x38c8c2b9	9.573013e-05
57	0x3a2ae2eb	0.0006518799
58	0x39b25bdc	0.00034019246
59	0x38ab6e1c	8.174425e-05
60	0xb92847ea	-0.00016048519
61	0x3a3141af	0.0006761802
62	0x3a944d02	0.0011314454
63	0x39dffbb6	0.00042721414
64	0xb9fe8707	-0.00048547258
65	0x3a6c66c9	0.0009018002
66	0x37221e82	9.663056e-06
67	0x37e4c072	2.7269332e-05
68	0x3a0c4575	0.0005350926
69	0x3a032741	0.00050031027
70	0xb7f3ccae	-2.9063169e-05
71	0xb89acd05	-7.38148e-05
72	0xb9e85e52	-0.00044320762
73	0x389312f6	7.013038e-05
74	0x39d8612d	0.00041271132
75	0x38ca2d61	9.640563e-05
76	0xba9e092a	-0.0012057174
77	0xb9ce1bb7	-0.0003931203
78	0x394b020b	0.0001936035
79	0x387d1c9e	6.0346552e-05
80	0xb81d7804	-3.754349e-05
81	0xb9e9bb5c	-0.00044580817
82	0x38e914cd	0.0001111418
83	0x3abe5fa3	0.0014524352
84	0xba76913a	-0.0009405796
85	0x3a18a9ae	0.0005823624
86	0xba9b8702	-0.0011865797
87	0x37fdd57b	3.025936e-05
88	0xb9174a45	-0.0001442815
89	0x3a286711	0.00064240495
90	0x380902fb	3.266612e-05
91	0x39d0c53c	0.00039819803
92	0x39c17689	0.00036900144
93	0xb78089d7	-1.5322976e-05
94	0x3a2ad87c	0.0006517244
95	0xb8d65328	-0.00010219804
96	0x38808d3b	6.129822e-05
97	0x39e0e8f8	0.00042898185
98	0x3a8a9836	0.0010573927
99	0xb7967910	-1.7937768e-05
100	0xba3174ed	-0.00067694375
101	0x39652e5f	0.00021856416
102	0xba047b25	-0.00050537504
103	0xba648987	-0.0008718003
104	0x3aa3e400	0.0012503862
105	0x3938c536	0.00017621074
106	0x3932f0b7	0.00017065076
107	0x38e3219a	0.00010830462
108	0xba10e9ca	-0.00055280013
109	0x385c610a	5.2542462e-05
110	0x389452fa	7.0726455e-05
111	0x3a22ac11	0.00062054495
112	0xb8fafea7	-0.00011968362
113	0xb9ce0951	-0.00039298323
114	0x395a9ac6	0.00020847758
115	0xb95322d2	-0.000201355
116	0xb882cc3b	-6.236924e-05
117	0xb9626e98	-0.00021594239
118	0xba8fd41e	-0.001097325
119	0x3800efa5	3.0740764e-05
120	0x3a41d1d2	0.00073936314
121	0x3a417b34	0.00073807244
122	0x37ee986e	2.8442792e-05
123	0xb9b948a0	-0.0003534006
124	0x3a81780b	0.0009877695
125	0x3a10d40a	0.00055247603
126	0xb9cc4fdf	-0.0003896942
127	0xb9cecf6e	-0.0003944593
128	0xbaf0f8b5	-0.0018384667
129	0x3a9591c3	0.0011411238
130	0xbb6cb613	-0.0036119267
131	0xba5baa01	-0.00083795196
132	0xbaa664f5	-0.0012694882
133	0xb975dca1	-0.00023447211
134	0x3a7198d7	0.00092161953
135	0xbaaf95f4	-0.001339613
136	0x38ceec64	9.866877e-05
137	0xba7d8b29	-0.00096719206
138	0x3a25ddf0	0.0006327322
139	0xba4ab37b	-0.0007732433
140	0x3b8d8a70	0.0043194816
141	0xbabb99fb	-0.0014312858
142	0xba0bd78d	-0.0005334549
143	0x3b4ab674	0.0030931504
144	0x3a0ab534	0.00052912836
145	0xba9aac3c	-0.0011800597
146	0xbb3c5655	-0.0028737981
147	0x383fa59d	4.5692188e-05
148	0xb9822714	-0.00024824648
149	0x3bc33aec	0.005957952
150	0x3aa87abf	0.0012853964
151	0xbab294d3	-0.0013624675
152	0xba339ad4	-0.00068513793
153	0xb8e3daed	-0.000108649816
154	0xb7c79a27	-2.3794431e-05
155	0x3acd98c4	0.0015685786
156	0x3b241b93	0.002504085
157	0x3a697789	0.0008906057
158	0xba4179df	-0.0007380526
159	0xbac3a253	-0.0014925696
160	0x3c03dbcb	0.008048008
161	0x3b1fd403	0.0024387843
162	0xba581533	-0.0008242905
163	0xb990ca99	-0.00027616767
164	0xba1f2147	-0.00060703274
165	0xbb8c23a1	-0.0042767082
166	0xba939e6a	-0.0011262421
167	0x396d9c1d	0.00022660238
168	0x3a1d1a08	0.00059929537
169	0xbad5d3bc	-0.0016313712
170	0xba316a96	-0.00067678967
171	0xb9b57070	-0.00034606783
172	0xba79167f	-0.00095019484
173	0xb88bf391	-6.673404e-05
174	0xb9582fad	-0.00020617126
175	0x3ae0a8a1	0.0017140099
176	0x39eb333c	0.00044860865
177	0x3a735826	0.00092828495
178	0x3a5cdf63	0.0008425621
179	0x3b1a1205	0.0023509276
180	0x3a2ac32b	0.00065140676
181	0xba1ec974	-0.00060572405
182	0x3a00e64c	0.00049171294
183	0x3b7f97dc	0.0039000427
184	0x3b4a5f32	0.0030879495
185	0xbb1749b8	-0.0023084711
186	0xba2a9912	-0.00065077946
187	0xb92058e0	-0.00015291898
188	0xba8ea1da	-0.0010881976
189	0xbabd9dd6	-0.0014466594
190	0xbb972bea	-0.0046133893
191	0xbafa5f4d	-0.0019101888
192	0x3a8f595e	0.0010936668
193	0xbb00ab53	-0.0019633367
194	0x3a822e35	0.0009931984
195	0xba0d8483	-0.0005398469
196	0xbb3eb13d	-0.0029097341
197	0xba75c99a	-0.0009376049
198	0x3b57ed47	0.0032947825
199	0xb99a4334	-0.0002942324
200	0xb9c996a8	-0.00038449955
201	0xba09a8ad	-0.000525127
202	0xbb05a87b	-0.0020394612
203	0x3ae19aa6	0.0017212227
204	0x3bf8f829	0.0075979424
205	0x3ac308b4	0.0014879913
206	0xb8b9c67a	-8.8584566e-05
207	0x39cc301c	0.00038945756
208	0xba7292a0	-0.0009253416
209	0x3af7217f	0.0018854587
210	0x3ab167a6	0.0013534918
211	0xbb9c2ddb	-0.0047662086
212	0x3b57ca66	0.0032927035
213	0xbb379d87	-0.0028017478
214	0x3b6a1565	0.0035718319
215	0x3aa7b1cf	0.001279408
216	0xb9e21f93	-0.00043129604
217	0x3b432aea	0.0029780217
218	0xbb046de1	-0.0020207094
219	0xbac845b4	-0.0015279562
220	0xba0d6a2b	-0.00053945434
221	0x3833b713	4.2847427e-05
222	0xbb2e3d73	-0.002658692
223	0x3a8f4672	0.0010931029
224	0xb9c6fae8	-0.00037952443
225	0xbae32ffb	-0.0017333025
226	0xbafaf1a3	-0.00191455
227	0x3b004a1e	0.0019575427
228	0x3b653ad9	0.0034977703
229	0x3a001b6a	0.00048868975
230	0x3a84ee1f	0.0010141766
231	0x3b177617	0.0023111159
232	0xbb4b973f	-0.0031065491
233	0xba23914f	-0.0006239609
234	0x3a7adf4a	0.0009570016
235	0xbaa4f37b	-0.001258477
236	0xb7cc290e	-2.4337813e-05
237	0xb8f50f4e	-0.00011685361
238	0xb992ac43	-0.00027975635
239	0xbacce277	-0.0015631457
240	0x3ab1473a	0.0013525255
241	0x3a38de1e	0.0007052141
242	0x3ae2f04f	0.0017314049
243	0x388edb37	6.8119196e-05
244	0x3ac6ed24	0.0015176875
245	0xb78d5f98	-1.6853024e-05
246	0x3b12b890	0.002238784
247	0xb97fa2bf	-0.00024379323
248	0xbad1c057	-0.0016002756
249	0xbb9072fd	-0.004408239
250	0x3629a00a	2.5276117e-06
251	0x3ad44f07	0.0016197868
252	0xbb845bcd	-0.004039264
253	0xba14b8a3	-0.0005673265
254	0xb90e7592	-0.00013585974
255	0x3a30194d	0.00067176373
