checkpoints/checkpoint_epoch_10.pt (torch, 210763 bytes, 18 tensors)

fc1.weight f4 [64, 128]
00000000: b21b 123d 5ba6 a93c 42e1 a83d d6f5 ca3c
00000010: 166a bbbd 4a25 81bd 9727 18bd d92e 713d
00000020: 4098 583d ad6e 15bc 3dce 8abd 5bc9 f63c
00000030: 23b1 873d 8400 e13c 30e2 b1bc 4312 2b3b
00000040: bba5 b23d 8c00 673d f0f6 9a3d 1de3 1bbd
00000050: 59b5 91bd 3439 ffbc 662b 123d 9783 c4bd
00000060: b965 2abd 59f0 a53c a3da 8c3d 2dc6 953d
00000070: 8b28 3abd 8cc9 34bd 7402 9b3d 5630 2bbd
00000080: ad4f 36bd 2e09 093d 76dc 8dbc 3c4a 65bd
00000090: 31cf e83c e3e4 b1bd dc51 343c 2623 9cbc
000000a0: 1a91 78ba 044f 17bd 3de2 873d d1b7 563d
000000b0: 0ca4 873d 141a 4c3d 1672 5b3d 3df0 933d
000000c0: 9221 113d 5f68 103c ce3b 6bbc 194d 51bd
000000d0: 1189 24bc 3c2f 3fbc 0e7e 813d 4da1 913d
000000e0: 02f1 e8bc 7009 08bd b8d1 4ebc 65c5 afbc
000000f0: 671b 23bd c0b2 763d 3ad9 5f3b 0a64 393c
00000100: 91b2 12bd 26b0 23bd 14f0 e53c 9064 f4bc
00000110: f5f2 f93b 9a79 89bd 7c71 1ebd 7701 813d
00000120: 1824 afbd e9c2 a23d 44a1 8b3d 2666 ebbc
00000130: d227 78bc b2ba 83bd 53b5 6c3c 7f3b 70bd
00000140: 15d5 73bd 15d4 113c d095 80bd 5e34 983b
00000150: f75e ba3d 0d17 9d3c 0323 bcbd 36d9 953d
00000160: 3eba 38bd 1d47 853d 3ece 9d3d e841 a6bb
00000170: 0677 a53c d793 6cbd 9c58 52bd fd8a 383c
00000180: 96dd d43c 61c5 7f3d 4d49 083d 6429 8a3c
00000190: aed9 2abd 10c6 d7bc 088c a43d cba4 1bbd
000001a0: a2e4 b43d fb17 45bd 6699 8dbd 188d f6bc
000001b0: 0a42 833d 505d 533d bf40 37bd 9339 873d
000001c0: bf85 80bd 693b fbbc 3567 88bc 33f6 a43b
000001d0: c7e8 913c 57e4 7cbd 37c6 43bd 4228 743d
000001e0: c1c4 6e3d 2f68 b0bc 4741 95bc 4c66 82bd
000001f0: 4ac6 293d 8682 98bd 7981 9abd ce84 263d
00000200: 6106 24bd 09f0 af3b 7251 193c 05e6 413d
00000210: cbe3 0a3b 1a37 423d 22be 2a3c bd4b 9cbd
00000220: b124 7b3d 98d4 be3d 2b96 84bd 618c bf3c
00000230: c9c7 41bd 17b8 273d 8b66 b33c 86d6 c8bc
00000240: a1df de3a 641d a63d 1581 103d 49f4 953d
00000250: cb93 50bd 253f c53b 6d9e 0d3d 118f 9cbd
00000260: fbbf fe3c 7b86 143d d2e2 39bb b735 cfbc
00000270: 1422 fbba 3187 313d 491a 89bd 117d 3fbb
00000280: 49b3 a63d 7523 b43d 4303 49bd a8b9 053d
00000290: 8085 b43d 3bce a6bd 9096 d13c fb28 a03c
000002a0: aa32 aa3d dc3a 03bd d6eb ad3d 5a24 07bd
000002b0: e465 c03d 6f28 bf3d 076b 413d 9aec 6cbd
000002c0: 87d5 a63d c626 9a3d 4196 cf3c ec74 883d
000002d0: e9a9 053d cfbc ea3c 9ad4 aabc f72a a43d
000002e0: d909 2abc 1034 80bd f09b babc 5b32 163d
000002f0: 848c 8f3d bbd2 bdbc 412d 86bd 07ff 98bd
00000300: 2f63 483d 8810 023d e932 36bd ebab 453d
00000310: 8287 73bd 1fc6 9bbc 3e98 3c3d ef82 673d
00000320: b03e ed3b 6550 443d 49fc 513d 1be6 b73d
00000330: e1fb 8d3d d6de ff3c 7ddd 363d e2ef 813d
00000340: 0dac 163b 7d7f 17bc ccb8 933d eb7c 1d3d
00000350: 03e7 c93b 7ba4 cbbb 5b30 b03d 94cc a1bd
00000360: d7c4 53bd 2f35 ee3c 5f6d d33c f282 893d
00000370: e081 86bd c830 bebd d5dd 29bd 6edd 3dbd
00000380: 3ef1 66bd f062 ae3d 2bbc b93c b1a8 8c3d
00000390: 710f 3dbd 546a 803d d319 dd3c 3768 943d
000003a0: 92fd bdba ed7d 2cbd 10d3 6c3d 12bc 34bb
000003b0: 3f66 85bc e818 aa3d 221f cbbc 7745 363d
000003c0: b561 bd3c e451 b1bd b668 833c 3753 b3bd
000003d0: 164d 40bd 18f0 6c3d 4605 87bc 51af 8ebd
000003e0: 51d7 20bd b797 99bd fbe7 733d ce71 2f3d
000003f0: bd1a a53d 6090 3c3d 420e 93bd 3010 693d
0.035670944 0.020709207 0.082460895 0.024775427 -0.09151094 -0.063059404 -0.03714713 0.058882568
0.052879572 -0.009120625 -0.06777618 0.03012531 0.06625583 0.027466066 -0.0217143 0.0026103414
0.08723017 0.056397006 0.07566631 -0.03805839 -0.071146674 -0.031155206 0.03568592 -0.09595411
-0.041600917 0.020256208 0.06877639 0.0731319 -0.04544882 -0.044137523 0.07568827 -0.041794144
-0.04450958 0.03345602 -0.017317038 -0.055979 0.028419109 -0.08686235 0.011005845 -0.019059729
-0.0009482071 -0.03694059 0.066349484 0.052421395 0.06623086 0.049829558 0.053575598 0.07223556
0.035432406 0.0088139465 -0.01435752 -0.051098917 -0.010042445 -0.011668976 0.06322871 0.07110844
-0.028435234 -0.033212125 -0.012623243 -0.02145643 -0.039821055 0.060229063 0.0034156577 0.011315355
-0.035814825 -0.03996291 0.02806858 -0.029833108 0.0076278397 -0.06712647 -0.038682446 0.062991075
-0.08551806 0.079473324 0.06817868 -0.028735232 -0.015146213 -0.06432094 0.014447528 -0.05865049
-0.059529383 0.008900662 -0.062785745 0.0046449145 0.09100144 0.01917603 -0.091863655 0.0731682
-0.04509949 0.065077044 0.07705353 -0.0050737746 0.020198356 -0.05775818 -0.051354036 0.011263606
0.025984567 0.062444095 0.03327303 0.01686544 -0.0417115 -0.02633956 0.08034521 -0.037998956
0.08832671 -0.048118573 -0.06914024 -0.030096576 0.0640908 0.05160266 -0.04473948 0.06602778
-0.0627551 -0.030667977 -0.016650775 0.005034232 0.017811192 -0.0617412 -0.047796454 0.059608705
0.058293108 -0.021534054 -0.018219603 -0.06367168 0.04144887 -0.0744677 -0.07544226 0.040653996
-0.040045146 0.0053691906 0.009357797 0.047338504 0.0021192904 0.04741583 0.010421308 -0.076316334
0.06131429 0.09317893 -0.06473955 0.023382368 -0.04730967 0.040947046 0.021899482 -0.024516355
0.0017003902 0.081110746 0.035279352 0.07321984 -0.050922196 0.0060194903 0.034574915 -0.07644475
0.031097403 0.036261063 -0.0028363955 -0.025294168 -0.0019159936 0.04334182 -0.066944666 -0.0029218832
0.08139665 0.087958254 -0.049075376 0.03264776 0.088145256 -0.08144804 0.02558449 0.019550791
0.08310445 -0.032038555 0.08492248 -0.032993652 0.09394434 0.09333884 0.04722121 -0.05784283
0.08146196 0.07526927 0.025340201 0.06662926 0.032632742 0.028654484 -0.02085333 0.080160074
-0.010378324 -0.0625993 -0.022779435 0.036669116 0.07009223 -0.023171773 -0.065516 -0.074705176
0.048922714 0.031754047 -0.044482145 0.048259657 -0.059455402 -0.01901537 0.046043627 0.056521352
0.007240139 0.047928233 0.05126599 0.08979436 0.06932808 0.031234186 0.04464482 0.06344582
0.0022990734 -0.009246704 0.072129816 0.03844921 0.006161572 -0.006214676 0.08602973 -0.07900348
-0.051701393 0.029078094 0.025808988 0.06714429 -0.065677404 -0.09286648 -0.04147132 -0.04635375
-0.05638241 0.085149646 0.022672733 0.06868113 -0.046157304 0.062702805 0.026989853 0.0724644
-0.0014495126 -0.04211228 0.057818472 -0.002757792 -0.016284106 0.08305532 -0.024795119 0.04449984
0.02311788 -0.086581975 0.016041141 -0.08756106 -0.046948515 0.05784616 -0.016482007 -0.06967033
-0.03926784 -0.074996404 0.059547406 0.042833142 0.080617405 0.046036124 -0.07180454 0.056900203

fc1.bias f4 [64]
00000000: 5db7 7d3c b1f2 33ba 70a5 143b 67b2 8cbd
00000010: bb17 433d 1e7f 9dbd 4e4e d8bc 95f8 40bd
00000020: 86a2 49bd 1b53 553d ff0f 083d da17 323d
00000030: de23 47bd e1d3 583d 877b f0bc f500 c03d
00000040: 352e 1dbd 8686 733d 22ae 493d c688 08bd
00000050: a71e bc3b dba4 94bd 8e7e 9bbd 5cd0 943d
00000060: a934 86bd 6b79 a93d d50d 933d af74 08bc
00000070: 0f72 dabb 0dd1 e6bc dea0 243d f654 953d
00000080: 47fc 1f3d 5aa2 413d ccfd 753d 3ecd 84bd
00000090: 2415 f53c b44c a33c 9af2 5b3d cd0e d63c
000000a0: 4a7f b73d 49b2 09bd b044 79bd 35b3 12bd
000000b0: 00fb e1bc 5515 8c3d 47f4 103d 3fcc 89bd
000000c0: 4296 c33d 0eae 203d eb29 a6bd c47a 54bd
000000d0: 55f5 10bd db1a 953d 2e01 c03c 00dc 85bc
000000e0: 358a 36bd 1aac 2ebd 3bba 983d 3a48 843d
000000f0: d461 183d 8da2 af3d ec6e 84bd 003d 003d
0.015485612 -0.0006864472 0.0022681616 -0.06869965 0.047630053 -0.07690261 -0.026404526 -0.047112066
-0.04922726 0.05208121 0.03321838 0.043479778 -0.04861819 0.05293644 -0.029355777 0.093751825
-0.038374145 0.059454463 0.04923833 -0.033333562 0.0057409587 -0.07258006 -0.07592498 0.07266304
-0.06553013 0.08275112 0.071803726 -0.008328601 -0.006666429 -0.028175855 0.040192477 0.07291596
0.03905895 0.04727397 0.060056493 -0.06484459 0.029917307 0.019934036 0.05369816 0.026130104
0.08959825 -0.03361729 -0.06085652 -0.035815436 -0.027585506 0.06840006 0.03538921 -0.0672841
0.09550144 0.03922849 -0.08113464 -0.05187489 -0.035390217 0.07280513 0.023438063 -0.016340256
-0.0445654 -0.042644598 0.07457396 0.064590886 0.03720267 0.08575926 -0.06466469 0.031308174

fc2.weight f4 [1, 64]
00000000: 4018 97bd 250b dd3d d4ed aebd ca80 aabd
00000010: 5ab2 cd3d 735f f83d 57c7 e33d 1074 c7bd
00000020: 92d5 0abd 8d46 0b3d 0749 413d 6d6b 773d
00000030: 2763 003e 61fb d33c 2f03 81bd 2ff5 2abc
00000040: b42b ab3d ca76 3dbd d8a6 763d 9a07 9abc
00000050: b8ab bc3d 7a8c cc3d ce8d 6ebc 7c41 cabd
00000060: 4a8b d13d 633c 663d ecf8 abbc c638 c23d
00000070: ca8b 983a 80c4 8ebc 0dae 79bc 9b5d 9bbd
00000080: be0d b8bd 4127 963d e0f1 aa3d 5480 983d
00000090: ff95 e03d 926f b63d ba84 a3bd e8aa 9dbd
000000a0: fea3 86bc ae49 473d a125 a43c 6bd5 7c3d
000000b0: 0b42 2fbd d51d ffbd 2a31 353d ab7c 4f3d
000000c0: 751a 98bd cd87 edbd 8c85 8ebd 82ec 9e3d
000000d0: a4e6 10bd 55e1 333d 4e79 203d 9655 6b3b
000000e0: 0ab4 85bc cc30 d7bd 37e9 70bd 7522 86bd
000000f0: 4798 853d c7a1 5abd 41c5 b5bd c86e ac3c
-0.07377672 0.10793141 -0.08541456 -0.08325346 0.100437835 0.121275805 0.111220054 -0.09738934
-0.033895083 0.03400283 0.047188785 0.060405184 0.12537824 0.025876703 -0.06299435 -0.010434433
0.08357945 -0.046255864 0.06021771 -0.018802453 0.0921244 0.09987731 -0.014560176 -0.098757714
0.102316454 0.056209933 -0.020992719 0.09483485 0.001163834 -0.017427683 -0.015239251 -0.07586213
-0.08986996 0.07331706 0.08346915 0.07446352 0.109661095 0.08907999 -0.079843 -0.076986134
-0.01643562 0.04865425 0.020037474 0.06172697 -0.042787593 -0.12456862 0.04423634 0.050656002
-0.07426921 -0.115981676 -0.06959066 0.07759954 -0.035376206 0.043916065 0.039178185 0.0035909167
-0.0163212 -0.10507354 -0.05881616 -0.06549541 0.06523185 -0.05337694 -0.08875514 0.021048918

fc1.weight f4 [64, 128]
00000000: 7e6f 86bd 2b56 273d 77ea a4bd 6436 5e3d
00000010: 2d9f 6b3c e46b 9d3d f16b 4bbd 3d0c 0abc
00000020: 2d4b a1bd a5cf 583d 293b a53d 00d6 cf3c
00000030: 3f6e 983b ccf8 953d 3609 0bbd 972c a73d
00000040: d811 7ebc 8af7 8e3d f423 98ba a39a 613b
00000050: 4d6e 373d efe3 96bc bae6 56bc a246 9c3d
00000060: 9da4 2ebc 6104 d6bc d009 81bd cc35 123d
00000070: a14a 133c 535c a5bd b82e ba3d d0e1 71bb
00000080: bcf1 063d 72d3 20bd 9036 133d 8a95 7a3d
00000090: bf6b ce3c bcf8 793d 49f5 5ebd bc8c 8b3d
000000a0: 1131 4f3d 7c70 26bd d879 b7bc 3ae9 8cbd
000000b0: 90ba 483c 8a71 d93c f478 5e3c 6351 c6bb
000000c0: 19c5 623d 01c8 0e3d db46 063d 7a6f b13d
000000d0: f536 26bd e1f2 acbc 9e89 b4bc ea15 833d
000000e0: eca2 883d ba93 f03b c1c5 1e3d 1da7 6ebb
000000f0: d0b7 6abd ef21 5e3d a7a0 4cbd c911 7e3d
00000100: 17b8 14bd e3bd 80bb d2a3 883d 0094 4fbc
00000110: 6434 f8bc 75cb acbd bed5 b5bc becc 85bd
00000120: aaab 01bd 3b58 bbbd 7471 afbc 7bdc 443c
00000130: 32de 0ebd 7fc5 9a3c 52a1 02bc b21d 2d3c
00000140: 024d 9f3c 7df5 933d d1b2 f6bc e368 60bc
00000150: 81c7 59bb 4e67 82bc 7e17 c8bb 0671 ac3c
00000160: 4424 6ebc 4cc1 a03d 92cd 13bd 44c1 513d
00000170: 3d73 1bbc a5f8 ee3c 4705 843c 089b a0bd
00000180: a715 a0bd bf2e 833d 289b 863c d5c6 9c3d
00000190: 1d43 e6bb 0d2e 2d3d cde4 853d 2020 193d
000001a0: a48d 983d a695 59bd 171f 8a3d bb45 503d
000001b0: ca9b 75bd 8ca4 83bd 304a 53bd 43bc 133d
000001c0: b2e3 b2bc 94eb 813d 0aa7 b2bc 2874 4dbd
000001d0: 21c8 5d3d f671 46bc 85e0 47bd 0e86 27bd
000001e0: 5814 443d 6dbd 6cbd 2d97 ccbc baa3 a73d
000001f0: 5243 9fbc 478a 78bd 5f01 7d3c ede5 aabd
00000200: 1073 95bd 198a 88bd 9351 873c a558 ae3d
00000210: ab27 b7bd b1d0 a03d ed9b f1bc a644 9f3d
00000220: 5044 b3bc c6c4 973c 1400 03bd 4506 103c
00000230: 542a b13c e60a 9e3d 2c75 c4bc 7bec acbd
00000240: e411 7b3d 9de3 c83d a494 c33d 576b 853c
00000250: 46cb c33b d0e2 8a3d 9571 7c3d 4c6d 803d
00000260: fe67 84bd 71aa 5cbd 0f39 5b3c 66a2 3e3d
00000270: 2eac dcbc 342f 5ebd cc55 38bc c2a5 98bd
00000280: 6426 c2ba 5acc 96bd fded d8bc 6cf5 653c
00000290: 2f1a 983d baf9 2abd c0ee d5bc 5c94 49bd
000002a0: e468 89bd 1d7f 61bd b8dd 573d b36b 09bd
000002b0: 65f5 c7bd 6478 5e3d 82f7 b5bc 2bb0 953d
000002c0: 10c4 583b f774 27bd 0f49 213c 77ef 5d3d
000002d0: aa4a b2bd 2ebb be3b 06dd 943d ceb3 d5bc
000002e0: 810d ed3c 1a8c 713d 800e 373d ab94 623d
000002f0: c77d 78bd 08fb 34bd 7531 87bd e7bf 0e3c
00000300: f90f babd 165b 92bd 85bc f9bc dc03 123b
00000310: 5f9f 95bd f2fa b33d 6cd8 6abc c081 c53c
00000320: dfe1 df3b d84a cabc 5251 afbc 3c66 a03d
00000330: 8cf9 90bd 857d b5bd f390 babd e892 6f3d
00000340: bc4c 333d 3133 9dbd daac 73bd 8f9d 833d
00000350: 0b1c 173d fdfb 983d 6167 3d3d f52b 12bd
00000360: 97b8 153d fa1a 81bd 449b a43d 0d7b b93d
00000370: 1c27 033d 617c 063d 8bd2 093d c201 933d
00000380: e556 2b3d bd02 8d3d e758 70bd 3a11 7e3c
00000390: 201f 2ebc 173c 59bd 3761 11bc 250d 3cbb
000003a0: 14db 273d b27c 0e3d a6bd 4f3c d4e4 91bd
000003b0: 59b7 4c3d 5ccb 053d 1d1f 65bd 3a84 a13c
000003c0: 3983 6dbd 4b56 b83c a8e7 7bbd 4d51 f4bc
000003d0: 947e e03c 8906 963c 6e67 0d3d f077 a4bb
000003e0: da84 d73c 6a65 f43c c772 023d 7c9a cbbc
000003f0: 27a0 9cbd b8f2 5dbd b0fa 31bd aa3c cbbc
-0.06564234 0.04085366 -0.08052533 0.05425109 0.014381212 0.07686594 -0.049663488 -0.008425769
-0.07875667 0.0529324 0.080679245 0.025370598 0.0046518142 0.07322845 -0.03394433 0.08162802
-0.015507184 0.06980808 -0.0011607395 0.0034424446 0.044782925 -0.018419234 -0.013116533 0.0763066
-0.010659364 -0.026125135 -0.063007 0.035695836 0.008989961 -0.0807425 0.09090942 -0.0036908276
0.03294538 -0.03926415 0.035940707 0.061177768 0.025197862 0.061028227 -0.05443314 0.06813952
0.050583903 -0.040634617 -0.022396967 -0.06880422 0.012251511 0.026543397 0.013578642 -0.0060521825
0.05536375 0.034858707 0.032782417 0.086638406 -0.040579755 -0.021111907 -0.022038277 0.06400664
0.066717 0.007341829 0.03876281 -0.0036415525 -0.057304204 0.05423158 -0.049957898 0.06202868
-0.036308374 -0.0039288863 0.06671871 -0.012669563 -0.03029842 -0.08437244 -0.022196647 -0.06533192
-0.031657852 -0.09147688 -0.021416403 0.012015457 -0.03487987 0.018893002 -0.007973032 0.010566162
0.0194459 0.072245575 -0.030114563 -0.013696882 -0.0033230486 -0.0159184 -0.006106316 0.021049988
-0.014535014 0.078493685 -0.03608472 0.051209703 -0.009487924 0.029171297 0.016115798 -0.0784207
-0.0781663 0.064054005 0.016431406 0.07655112 -0.0070270435 0.042280246 0.06537781 0.037384152
0.07448891 -0.05312123 0.06744211 0.05084775 -0.059963025 -0.06427869 -0.051584423 0.036068212
-0.02183709 0.06343761 -0.021808166 -0.050159603 0.054145936 -0.012112131 -0.048798103 -0.04089933
0.047870964 -0.057797838 -0.02497443 0.08185525 -0.01944128 -0.060678747 0.015442221 -0.08344636
-0.07297337 -0.06666965 0.01651839 0.08513001 -0.08943113 0.07852305 -0.029493297 0.077767655
-0.02188316 0.018526446 -0.031982496 0.008790557 0.021626629 0.077169225 -0.023981653 -0.084435426
0.06129636 0.09809039 0.09549835 0.016286535 0.00597516 0.06781542 0.061631758 0.06270847
-0.064651474 -0.053873483 0.013380303 0.046541594 -0.02693757 -0.054244235 -0.011250924 -0.07453491
-0.0014812467 -0.07363196 -0.02648067 0.014035564 0.07426869 -0.041742064 -0.026114821 -0.049213752
-0.067094594 -0.055052865 0.05270168 -0.033549976 -0.09763602 0.054314032 -0.022212747 0.07308992
0.0033075847 -0.04088303 0.009844079 0.05418345 -0.08705647 0.0058206534 0.072687194 -0.026086714
0.028937103 0.058971502 0.044691563 0.055317562 -0.060666826 -0.044184715 -0.0660123 0.008712745
-0.09085078 -0.071462795 -0.0304854 0.0022280132 -0.07305788 0.087880984 -0.014333826 0.024109721
0.006832346 -0.024693891 -0.021401081 0.07832 -0.07078847 -0.088618316 -0.09109678 0.05848971
0.04377435 -0.076757796 -0.059491016 0.06426536 0.03689198 0.07469938 0.046241168 -0.035686452
0.03655299 -0.063039735 0.08037427 0.09056673 0.03201972 0.03283346 0.033648055 0.0717807
0.041830916 0.06885288 -0.058678534 0.015507037 -0.010627538 -0.05303582 -0.0088732755 -0.0028694358
0.040980414 0.034786887 0.012679493 -0.071237236 0.04997954 0.03266464 -0.055937875 0.01971637
-0.05798647 0.022502085 -0.06150022 -0.029823923 0.027404107 0.018313663 0.034522466 -0.0050191805
0.026308466 0.029833514 0.03184774 -0.024853937 -0.07647734 -0.054186553 -0.043451965 -0.0248092

fc1.bias f4 [64]
00000000: a333 833d 02b2 1c3d c376 b53c 72c7 83bb
00000010: a424 1cbd ca06 5ebc e936 2ebd 5286 113c
00000020: 13a6 683d f78e 713d c6a5 853d 2c55 bc3d
00000030: 27cb 15bd ca7a 64bd 15ee a83d af31 36bb
00000040: 03b1 08bd 3766 443d fb5c 53bd ffa6 06bd
00000050: 4805 66bd 4466 68bc 2dc2 8cbd a392 48bd
00000060: 5eda 9bbd 4f88 33bd d50d 863d dfa2 803d
00000070: 11b8 81bd f86a c4bc cb5f 2cbc ec30 8cbd
00000080: 4511 adbd 7904 98bd 9856 1c3d 115a 43bd
00000090: 9b2c 3bbd 405b b939 9a0b 1d3d 5471 0abd
000000a0: 3043 833d ed12 98bd d200 033d a0dc b5bd
000000b0: 22ab bcbc 9063 4b3d 1eac 99bd b24f 5dbd
000000c0: ac3a 81bd 8f46 40ba 4fe6 943d eea8 783d
000000d0: aa4f 5d3d 1e5a a8bd 255d 8fbd 0084 a13c
000000e0: be7d 853d 4fbe a63b e63b 95bd eb89 413d
000000f0: 86a8 bbbc 59b8 843d ab34 0a3c 30c9 50bd
0.06406333 0.0382557 0.022151357 -0.0040215785 -0.03812088 -0.013551423 -0.042532835 0.008882122
0.056799006 0.058974233 0.065257594 0.09195933 -0.036570694 -0.055781163 0.082485355 -0.002780061
-0.033371937 0.047949042 -0.051602345 -0.032874104 -0.05615738 -0.014184538 -0.068729736 -0.04896797
-0.076100096 -0.043831166 0.06545607 0.06281065 -0.06333936 -0.023976788 -0.010520886 -0.068452686
-0.084505595 -0.07422728 0.03816852 -0.047693316 -0.045696836 0.00035353936 0.038341142 -0.033799484
0.064092994 -0.07425485 0.031983204 -0.088799715 -0.023030821 0.049655497 -0.07503532 -0.05403108
-0.06310019 -0.0007334733 0.072704904 0.06070798 0.05403105 -0.082203135 -0.07000188 0.019716263
0.06518124 0.0050886045 -0.07286815 0.04725067 -0.022907507 0.06480474 0.008435409 -0.050973117

fc2.weight f4 [1, 64]
00000000: 02c7 f6bc df5c eb3c d1d4 acbc 6f01 3abd
00000010: bba8 033e cece e23c b046 b73d f2c1 e5bd
00000020: 223f 813d dba2 33bd 257a 32bd fc04 ad3d
00000030: 9ed5 203d 778e 94bc 5c95 963c d9f5 cdbd
00000040: 8e81 41bd ab95 503d a64f ae3d 5d5e 57bd
00000050: 71ec 4dba 9c13 b9bd 581a 66bd 7486 5b3d
00000060: 7e67 d43d da8e 803d 2055 cdbd 75c7 70bd
00000070: fe01 913d b52f ec3d dc82 093e 980d b03d
00000080: a3d3 523b d415 893d 61db f93d d258 383d
00000090: 34ab 6e3d 562c f63d 6a0e 5f3c aca1 91bd
000000a0: 4928 003d a40d c13d 74c2 ab3d 2f8c a93b
000000b0: a3b4 25bd ccfa db3d ea4b 083e 33e4 603d
000000c0: 1dca 7e3d fb0a a0bd b216 c13d d291 9f3d
000000d0: 3435 85bd fad8 2dbd 25eb ef3d aa2e c4bd
000000e0: 50bf 213c 92e0 703d deb3 423d e1e5 963d
000000f0: 587c 37bd b389 983d 6871 60bc 18f3 493b
-0.030124191 0.028730808 -0.021097573 -0.045411523 0.12857334 0.027686503 0.089490294 -0.11218633
0.0631087 -0.043856483 -0.043573517 0.08448216 0.03926622 -0.018134339 0.018381767 -0.10056657
-0.047242694 0.050923984 0.085112855 -0.052580226 -0.0007855362 -0.09036943 -0.056177467 0.05359502
0.10371302 0.06277247 -0.10026002 -0.058783967 0.07080458 0.11532537 0.13428825 0.08596343
0.0032169602 0.066936165 0.12200046 0.04500658 0.05826874 0.12020175 0.013614276 -0.071109146
0.03128842 0.0942643 0.08386698 0.005174182 -0.04045547 0.10741195 0.13310209 0.054905128
0.06220447 -0.07814594 0.09428157 0.07791485 -0.06504288 -0.042443253 0.11714772 -0.09579213
0.009872273 0.058807917 0.047534816 0.07368065 -0.044796318 0.07448139 -0.013698913 0.0030815061

exp_avg f4 [64, 128]
00000000: d7ac eb35 1b05 22b5 7e83 c5b4 125c 5835
00000010: 34d3 9f34 1ea0 9c34 9d22 c1b4 39a2 5e35
00000020: 334e a634 c2a4 bd34 3ea9 f1b5 6be4 7435
00000030: 70cd 5235 d73b 3935 c243 b1b4 3616 2035
00000040: 9975 adb3 5fcc 6435 1d79 6f34 3444 de33
00000050: 1d03 50b3 0360 fd35 f7ef 4935 efbe 1a35
00000060: ac91 3d35 fef5 a4b2 f385 07b6 c602 92b5
00000070: 09b6 81b3 fc61 6eb3 4bb5 af35 7d83 9935
00000080: 0206 eab2 e168 11b5 b99f 2834 9ad2 44b3
00000090: 3fae 0934 1394 a235 a9e4 d5b4 3462 8ab5
000000a0: f5ef 6135 429f 04b5 498a d033 92bb e033
000000b0: 7ea8 5c35 176d a034 b24b 4eb5 e6bd ccb4
000000c0: 56b3 8334 e4d8 4034 d708 b534 406a 13b5
000000d0: ef3c 16b5 49eb 8935 f683 8835 4c38 4b33
000000e0: 1d35 fc35 745e 4335 6cc5 c3b4 3bae f534
000000f0: 90c0 8fb4 ef3c 2335 4a13 d435 fab9 ab33
00000100: 95c6 deb5 124f a933 0667 a9b3 a9f4 f533
00000110: 109f 8b35 eb7f 7d34 490d 18b5 4a82 c133
00000120: 3857 3c35 d0ab b132 eb46 8034 6bc0 a0b4
00000130: f1b3 5335 9a88 0c35 80d0 0134 c135 06b3
00000140: 162f a332 cb7b 65b4 9e1a f334 116c dd35
00000150: fc97 d3b4 e0a3 9035 53ed 3534 9bc4 27b6
00000160: b3f2 6034 e1a1 a5b5 76ec 2b35 f06b 51b5
00000170: 7e4f bab3 070f 9734 29cd 4535 c24c 87b5
00000180: e048 0c35 a95f c332 c3aa aab5 abaa 0135
00000190: fae4 2ab4 13ff 82b3 55a7 2bb5 5dfe e334
000001a0: b943 31b5 d685 3334 c954 0235 b80b 2d34
000001b0: 5edf 41b4 216d 1635 61da c634 b0ca 2e35
000001c0: f6f9 d035 eacd b634 9d25 4434 b4c5 76b5
000001d0: 63c5 49b5 9f89 edb4 7226 a3b5 1d44 be34
000001e0: ad77 2a34 875f b6b5 beb1 5e35 3b58 2935
000001f0: cd3f 3db5 014a 3ab5 bb42 d6b4 5d69 d1b4
00000200: 540b 1bb4 b9c1 48b4 6fd1 53b5 bb17 cdb5
00000210: a295 9735 a03f 5d34 a1d3 a3b5 1fa0 97b5
00000220: 7760 9bb5 6615 84b5 5f22 b933 05de 9f35
00000230: a1c0 f335 0d8e 49b5 c383 4435 4ce6 8db5
00000240: 86a3 b735 d667 06b6 edbc 2cb6 7985 8f34
00000250: 3600 ceb4 02c5 abb5 910b 55b5 06a1 b5b5
00000260: 5baf 9bb5 e9aa 2134 d24b fa35 b811 bf35
00000270: e5cf 4b35 bd56 6d34 2240 1a35 b345 10b5
00000280: ab44 58b5 16e1 abb5 5b03 ef34 5fcc 3db5
00000290: 28f9 eab3 aedb 0db6 a58e 18b4 0d90 8c35
000002a0: a426 0435 a85c 33b5 f47a c4b5 941f 0eb4
000002b0: f182 6bb6 dbf6 ccb4 fd0c 3a35 0813 6236
000002c0: 7596 cf34 c7e7 82b4 6129 2335 cd70 5c35
000002d0: 9ec4 ec35 8c2c 00b5 a536 1e35 3723 2cb3
000002e0: ae19 2e35 2408 41b3 79e8 fb34 08c9 9b35
000002f0: 5918 3836 4851 b9b5 a101 98b6 7c66 77b3
00000300: a226 e435 8d51 e134 de08 a0b3 4dd8 0db5
00000310: bad5 c534 83dd 7c34 5474 b3b4 0a5c 9cb5
00000320: ba82 67b5 f52a c734 bc03 6835 fbf0 04b5
00000330: 632f 94b5 6b2b 8eb5 a5a7 25b5 a6ac 2235
00000340: 1c04 e6b2 17ef e7b4 f17c 5eb5 8801 d0b5
00000350: 003c 2335 fd83 88b5 a35e 28b5 8239 0136
00000360: 0b5f 2db5 88c1 17b4 69f8 4fb5 c0dc 1f35
00000370: 26b5 8eb4 8b83 5b35 74ad bdb5 dcf0 5633
00000380: be6b f9b3 c5d8 0532 5060 3236 f945 23b5
00000390: 2acf 1636 2900 06b5 0453 8235 e412 4136
000003a0: 7db8 f1b5 75ba a234 2e7f f1b5 704a 3735
000003b0: 3ce5 c035 e4fe 96b5 d107 0535 d548 fdb4
000003c0: 1a0e 05b5 4dab 6ab4 1a4b a633 739c b735
000003d0: 4281 3936 3d02 02b5 d7fa ed35 8835 2a35
000003e0: 8431 4fb5 2dd1 f535 93df 59b5 9dfa 44b5
000003f0: 793d a0b5 2906 eeb5 c898 9eb3 bf7a e8b4
1.7559167e-06 -6.035713e-07 -3.6789783e-07 8.060025e-07 2.9769728e-07 2.9173765e-07 -3.5974236e-07 8.293751e-07
3.0976807e-07 3.532387e-07 -1.8005155e-06 9.1229475e-07 7.853005e-07 6.900495e-07 -3.301812e-07 5.9636966e-07
-8.077331e-08 8.523402e-07 2.230267e-07 1.0350087e-07 -4.8431605e-08 1.8877912e-06 7.522753e-07 5.7647316e-07
7.0619967e-07 -1.9203977e-08 -2.0194536e-06 -1.0878655e-06 -6.0401426e-08 -5.550281e-08 1.3091279e-06 1.1437656e-06
-2.7243917e-08 -5.416933e-07 1.5704326e-07 -4.5826347e-08 1.282251e-07 1.2113036e-06 -3.9840714e-07 -1.0310382e-06
8.4168215e-07 -4.940558e-07 9.710909e-08 1.0464932e-07 8.2201575e-07 2.9881696e-07 -7.685113e-07 -3.813613e-07
2.4531136e-07 1.7960298e-07 3.372031e-07 -5.491638e-07 -5.5968025e-07 1.0275772e-06 1.0171195e-06 4.7315822e-08
1.8790921e-06 7.278061e-07 -3.6465224e-07 4.5761576e-07 -2.6775933e-07 6.08109e-07 1.5800845e-06 7.996637e-08
-1.6598084e-06 7.8840586e-08 -7.8884156e-08 1.1453205e-07 1.04026e-06 2.3608997e-07 -5.6643745e-07 9.010962e-08
7.016238e-07 2.0683643e-08 2.3893458e-07 -2.9942325e-07 7.8865475e-07 5.2352846e-07 1.2089913e-07 -3.1248195e-08
1.899711e-08 -2.1372323e-07 4.5281644e-07 1.6497235e-06 -3.9412396e-07 1.077653e-06 1.6943277e-07 -2.4999379e-06
2.0949919e-07 -1.2340571e-06 6.404656e-07 -7.8015637e-07 -8.6757595e-08 2.8136876e-07 7.3686766e-07 -1.0080623e-06
5.226011e-07 2.2744489e-08 -1.2715685e-06 4.83046e-07 -1.5915785e-07 -6.0999945e-08 -6.3945964e-07 4.2467119e-07
-6.603619e-07 1.6719363e-07 4.855215e-07 1.6116144e-07 -1.8055786e-07 5.603816e-07 3.7039266e-07 6.5115e-07
1.5569956e-06 3.4049964e-07 1.8267606e-07 -9.192984e-07 -7.516557e-07 -4.4244823e-07 -1.2155635e-06 3.5439817e-07
1.5876022e-07 -1.3587859e-06 8.2960094e-07 6.30858e-07 -7.050083e-07 -6.939809e-07 -3.990916e-07 -3.9005945e-07
-1.4439621e-07 -1.8696927e-07 -7.890839e-07 -1.5280597e-06 1.1293926e-06 2.0605376e-07 -1.2206038e-06 -1.1296978e-06
-1.1576475e-06 -9.840994e-07 8.620986e-08 1.1911039e-06 1.8160973e-06 -7.5085046e-07 7.320743e-07 -1.0572344e-06
1.3682154e-06 -2.0027996e-06 -2.5739967e-06 2.673294e-07 -3.8370644e-07 -1.279783e-06 -7.9365515e-07 -1.3532415e-06
-1.1599435e-06 1.505647e-07 1.8648518e-06 1.4235766e-06 7.592592e-07 2.21039e-07 5.7462796e-07 -5.3745606e-07
-8.0566195e-07 -1.2806001e-06 4.451966e-07 -7.0705386e-07 -1.09417954e-07 -2.1138508e-06 -1.4207997e-07 1.0472737e-06
4.923006e-07 -6.681753e-07 -1.4638922e-06 -1.3236269e-07 -3.5093947e-06 -3.8177572e-07 6.93093e-07 3.3687702e-06
3.8666226e-07 -2.4383027e-07 6.0782446e-07 8.2120533e-07 1.7640593e-06 -4.774854e-07 5.8939105e-07 -4.00789e-08
6.485742e-07 -4.4943718e-08 4.692154e-07 1.1606908e-06 2.7432309e-06 -1.380723e-06 -4.5301426e-06 -5.7602378e-08
1.6998567e-06 4.1968852e-07 -7.4521935e-08 -5.284135e-07 3.6849616e-07 2.3549914e-07 -3.3425988e-07 -1.1649693e-06
-8.624444e-07 3.7097894e-07 8.643217e-07 -4.9524505e-07 -1.1040651e-06 -1.0592461e-06 -6.1711245e-07 6.060094e-07
-2.6777393e-08 -4.3201064e-07 -8.288326e-07 -1.5497653e-06 6.0809543e-07 -1.0171203e-06 -6.272259e-07 1.9255972e-06
-6.458583e-07 -1.4133377e-07 -7.7474994e-07 5.955335e-07 -2.6581364e-07 8.177528e-07 -1.4132079e-06 5.0044818e-08
-1.1614564e-07 7.790907e-09 2.6580128e-06 -6.0824055e-07 2.2472327e-06 -4.9919123e-07 9.709916e-07 2.8770237e-06
-1.8009592e-06 3.0310517e-07 -1.7992913e-06 6.8281133e-07 1.4371831e-06 -1.1250054e-06 4.9557735e-07 -4.7177915e-07
-4.956688e-07 -2.1855267e-07 7.743638e-08 1.3680095e-06 2.7642386e-06 -4.843203e-07 1.773088e-06 6.3407833e-07
-7.7185564e-07 1.8314801e-06 -8.116414e-07 -7.338038e-07 -1.193882e-06 -1.7734175e-06 -7.385239e-08 -4.3302677e-07

exp_avg_sq f4 [64, 128]
00000000: ce2e ac29 4030 1328 948d 9e27 1d1b 8228
00000010: 5c1e 6027 8a76 0e27 b50a 9528 18fc 8a28
00000020: ec5f de27 6a7e 8627 12a9 a029 681b d628
00000030: 08c8 d128 c717 4a28 bb5e 3e27 d7d4 5b28
00000040: 0d42 a126 5003 a428 6d9e fe27 aa20 b026
00000050: 30d6 e524 a183 b029 f966 6728 f876 4128
00000060: 3871 4f28 46cd cc25 72d0 da29 d8b9 0a29
00000070: 94e9 1627 a9b3 3927 106d 2c29 fe09 0529
00000080: 15e8 a427 b0bc 6028 32af 8e26 0da3 6626
00000090: fbd3 6726 00b2 1529 afac c227 a759 d328
000000a0: 2548 8b28 417b f327 30c1 6327 3eb8 2f27
000000b0: a09a 2c29 8f8e 1027 37d9 7a28 a09b ac28
000000c0: 2291 9727 9ea4 e826 642d 9b27 0b76 1128
000000d0: e514 0b28 1ce4 d028 e693 0129 7e53 8026
000000e0: a8c7 ab29 5f51 5a28 7484 5a27 abd9 f227
000000f0: 3bcc 1928 e072 2a28 4b1e 9429 43b8 5327
00000100: 0c99 8729 4549 8726 9f69 1a27 c70e e325
00000110: 44e9 e328 90cf 4627 9a5e 5528 4476 ec25
00000120: cb6b 4d28 dc38 c025 b206 5127 c880 3527
00000130: 2e9f 8128 7f5c 2c28 9637 8c27 b947 d125
00000140: 5e56 b026 73e5 0c27 8ed2 1a28 ef68 8929
00000150: b618 9327 c995 0629 72c8 8c28 8477 192a
00000160: 3071 c826 1aa9 2729 6078 3c28 9fb5 8428
00000170: 6a1e 9625 eb6d 3527 23c5 a828 ceee d128
00000180: c92b e027 c409 f126 6078 2c29 02cc e227
00000190: 65c6 7528 5c58 8f26 3b71 c428 7c86 6828
000001a0: 3fb9 8028 7ae1 5726 0dc6 0128 0241 d227
000001b0: 1468 d427 f8db 0428 b958 8527 2d04 7c28
000001c0: 4ad9 6e29 75c0 cd27 e038 ef26 beca ab28
000001d0: c012 9928 e0a1 d127 e00c 1829 f93c 7727
000001e0: 464f 7626 80b5 4229 5ead 9b28 6c30 2028
000001f0: 0ac0 a028 76e2 8828 ece9 8b27 ccea 4128
00000200: e63c ef29 6ccd 9026 ca94 0a2a 6925 a32a
00000210: 22fa 012a 4048 8429 068e cb2a 57fd 0229
00000220: 4d3e 232a f308 c228 e847 8728 5bb0 0b29
00000230: 7b8c 9d2a ac1c d429 77f9 ad29 c1cb 6b29
00000240: bcfe 342a 4404 412a 35e3 b42a 8e50 a628
00000250: 8b78 6e29 bd05 6d29 f883 9228 f61e 4929
00000260: dddd 0329 402f 0c27 d9dc a929 d6fb 4829
00000270: 50df 9a29 59c2 be29 d036 0a28 ba4b 2d28
00000280: 77d7 5e29 ee70 2129 07e0 462a 30e7 8e28
00000290: f25b 7729 24f6 1f2a 6406 bd29 cc05 182a
000002a0: 4eff 212a bf6b 5e28 92c1 d629 23e4 bb29
000002b0: 90b3 972a 8683 6d28 dfc7 2729 d285 dd2a
000002c0: dd6a 182a e291 6a29 41f5 8728 2076 9b28
000002d0: 3d94 ca2a e4bc 6328 6d6a 2f29 8b00 9727
000002e0: c716 2e29 6a50 1a29 64c9 c227 0599 2129
000002f0: 9ce2 372a 5d41 7729 5eda fa2a b27e 6527
00000300: 17aa 5c2a 5669 8d27 52da e525 b2df f628
00000310: 6184 3428 8b79 2f29 ba3c bd29 2519 bf29
00000320: 4f43 a528 7922 e629 5ae1 ec28 8045 f927
00000330: 21b6 1d2a c6bd ec28 f238 8729 8b00 4e2a
00000340: 7143 e728 8bc8 8028 c8ed 052a 8e57 b329
00000350: f7e2 5e28 5cdc c829 277f 2a28 d67d 082a
00000360: af98 b629 0f00 1a29 1439 e028 4179 4a28
00000370: d370 dd26 04ed d428 6af2 6e2a dd81 4829
00000380: a1e5 ec26 5ad4 dc27 218f 192b ffee 2c29
00000390: 5605 f929 607c f428 6f60 0f2a aa46 4a2a
000003a0: 49f0 b229 2fb3 7b2a 55b4 d529 8891 d428
000003b0: 2958 9a29 8117 b429 ee8d 0628 9404 0a2a
000003c0: e5d7 8828 237a 872a 14d0 0627 90be 4f2a
000003d0: 0a16 872a fde2 3928 3878 0f2a 363e 1d28
000003e0: 560e 7f28 ec10 a729 b092 8a28 9940 6828
000003f0: 18e2 0b29 8951 a829 c4b4 6626 2540 252a
7.646454e-14 8.170602e-15 4.400731e-15 1.4444658e-14 3.1102703e-15 1.9770719e-15 1.6546967e-14 1.5430406e-14
6.1721377e-15 3.732953e-15 7.1347564e-14 2.3770658e-14 2.3290411e-14 1.12184084e-14 2.641915e-15 1.2203094e-14
1.1189522e-15 1.8209094e-14 7.0670928e-15 1.2221307e-15 9.967577e-17 7.838804e-14 1.28454046e-14 1.0739449e-14
1.1515359e-14 3.5527458e-16 9.717304e-14 3.080335e-14 2.0943305e-15 2.5771301e-15 3.828627e-14 2.95406e-14
4.5770768e-15 1.2475413e-14 9.900716e-16 8.0018255e-16 8.043151e-16 3.3239037e-14 5.403304e-15 2.3464586e-14
1.5463388e-14 6.757968e-15 3.1607305e-15 2.4386007e-15 3.8325788e-14 2.0061296e-15 1.3924889e-14 1.9163328e-14
4.2068272e-15 1.6142853e-15 4.3070355e-15 8.074713e-15 7.720581e-15 2.3191566e-14 2.8772035e-14 8.904415e-16
7.62856e-14 1.21190755e-14 3.032538e-15 6.740449e-15 8.5374916e-15 9.461805e-15 6.577775e-14 2.938202e-15
6.021754e-14 9.387367e-16 2.142905e-15 3.9388236e-16 2.5303225e-14 2.759054e-15 1.1844389e-14 4.1019614e-16
1.140316e-14 3.334522e-16 2.9008206e-15 2.5188608e-15 1.439091e-14 9.567975e-15 3.8918072e-15 3.6304322e-16
1.2235863e-15 1.9553288e-15 8.594374e-15 6.102225e-14 4.0827488e-15 2.9883895e-14 1.5630052e-14 1.3630595e-13
1.3908467e-15 3.722812e-14 1.0462199e-14 1.473371e-14 2.6041462e-16 2.5178383e-15 1.8737241e-14 2.3307226e-14
6.221996e-15 1.6725381e-15 3.829608e-14 6.2948787e-15 1.3643252e-14 9.946568e-16 2.1809477e-14 1.2907749e-14
1.4291192e-14 7.4898687e-16 7.203884e-15 5.835719e-15 5.895466e-15 7.37517e-15 3.701111e-15 1.3989716e-14
5.3035084e-14 5.7107592e-15 1.6599372e-15 1.9072739e-14 1.6994544e-14 5.818466e-15 3.3761947e-14 3.431119e-15
8.545583e-16 4.323408e-14 1.7283643e-14 8.892284e-15 1.7846852e-14 1.5197245e-14 3.883387e-15 1.0764566e-14
1.0624296e-13 1.0047687e-15 1.2308484e-13 2.8980575e-13 1.1544284e-13 5.874511e-14 3.6158592e-13 2.9085536e-14
1.4498923e-13 2.1542208e-14 1.5019195e-14 3.1017164e-14 2.798628e-13 9.419665e-14 7.7260186e-14 5.235721e-14
1.607559e-13 1.7143323e-13 3.213208e-13 1.8464637e-14 5.295117e-14 5.262955e-14 1.6266488e-14 4.465782e-14
2.928028e-14 1.9454517e-15 7.5434186e-14 4.4627354e-14 6.8777124e-14 8.471409e-14 7.6724244e-15 9.61985e-15
4.9480788e-14 3.5847132e-14 1.7663658e-13 1.5865429e-14 5.4924767e-14 1.4207434e-13 8.394395e-14 1.3502323e-13
1.4388249e-13 1.2346839e-14 9.537088e-14 8.3440436e-14 2.6947585e-13 1.31846624e-14 3.725481e-14 3.9350343e-13
1.3537388e-13 5.208497e-14 1.5094373e-14 1.7259685e-14 3.598527e-13 1.26419905e-14 3.8950116e-14 4.1911508e-15
3.8655517e-14 3.4264617e-14 5.4064165e-15 3.5881905e-14 1.6332286e-13 5.490171e-14 4.4560444e-13 3.1848816e-15
1.9598937e-13 3.9249567e-15 3.9873107e-16 2.7408499e-14 1.0020712e-14 3.8963228e-14 8.4038204e-14 8.486466e-14
1.834787e-14 1.0220032e-13 2.6298994e-14 6.9186735e-15 1.400759e-13 2.6283564e-14 6.005083e-14 1.8296664e-13
2.56754e-14 1.4297826e-14 1.189527e-13 7.964385e-14 1.2372691e-14 8.9200105e-14 9.4644675e-15 1.2122885e-13
8.10891e-14 3.419492e-14 2.489375e-14 1.1239545e-14 1.5365537e-15 2.3639517e-14 2.122275e-13 4.452156e-14
1.6438031e-15 6.12925e-15 5.455515e-13 3.8398968e-14 1.1058747e-13 2.7143381e-14 1.2734409e-13 1.796572e-13
7.946471e-14 2.2355445e-13 9.490383e-14 2.3599842e-14 6.854267e-14 7.997683e-14 7.46927e-15 1.225845e-13
1.5192662e-14 2.4065567e-13 1.8709035e-15 1.8451408e-13 2.399611e-13 1.0318783e-14 1.274266e-13 8.728741e-15
1.4158452e-14 7.419225e-14 1.5384693e-14 1.28925945e-14 3.1060305e-14 7.474843e-14 8.0042263e-16 1.4677199e-13

exp_avg f4 [64]
00000000: a9e3 0836 903e 00b7 88ea 3fb6 60ac 5ab7
00000010: 68c1 08b7 c9ec 81b6 796b 66b6 f515 4fb7
00000020: b286 c0b4 0727 b0b6 b8b7 dcb6 1408 ffb5
00000030: b3ef 00b7 aaea 90b6 6af6 34b7 11ab cbb3
00000040: a8c9 07b6 a443 64b6 6753 d6b6 0b5c 17b6
00000050: f8de 81b7 dae6 edb5 6644 ab34 523f a436
00000060: dd9f 93b6 1160 22b7 e476 b8b4 e46b 0537
00000070: 81d9 5c34 6535 91b4 8a34 0436 3a0b 8535
00000080: d159 c2b6 988f 34b7 23c5 85b6 fda2 c0b6
00000090: b1e7 abb7 b89f 91b7 234e 7e36 567d 05b7
000000a0: 1c1e 4cb5 cde6 09b6 7b5b 1ab5 2489 1ab7
000000b0: e131 7736 988e 3fb7 4c42 cdb6 fa05 9bb5
000000c0: 3ef6 06b6 8540 fcb6 b379 08b5 eff3 93b6
000000d0: eb37 d335 4a4f c8b5 4a5b 2cb6 c6b0 85b4
000000e0: acca 9335 b56f 75b7 bbbf 9734 260c efb6
000000f0: 0256 41b7 3b6b dcb4 ebaf bfb6 9c2d 7fb6
2.0398095e-06 -7.643961e-06 -2.8597733e-06 -1.3033947e-05 -8.151263e-06 -3.872065e-06 -3.4335228e-06 -1.2343274e-05
-3.586079e-07 -5.249752e-06 -6.5778986e-06 -1.9001332e-06 -7.685204e-06 -4.318853e-06 -1.0786209e-05 -9.484041e-08
-2.0233947e-06 -3.401402e-06 -6.3874063e-06 -2.255433e-06 -1.5481826e-05 -1.7725063e-06 3.1900998e-07 4.8949523e-06
-4.399552e-06 -9.67832e-06 -3.4359175e-07 7.952538e-06 2.0568224e-07 -2.7047204e-07 1.9700115e-06 9.91254e-07
-5.7921065e-06 -1.0762269e-05 -3.9866586e-06 -5.7410202e-06 -2.0492678e-05 -1.7359722e-05 3.789443e-06 -7.9566e-06
-7.6039737e-07 -2.0548935e-06 -5.750259e-07 -9.211046e-06 3.6834901e-06 -1.1417687e-05 -6.117194e-06 -1.1550139e-06
-2.0110888e-06 -7.5176963e-06 -5.0841044e-07 -4.409339e-06 1.5736999e-06 -1.4924237e-06 -2.5683134e-06 -2.49018e-07
1.1011339e-06 -1.4629147e-05 2.8265444e-07 -7.1241693e-06 -1.1523722e-05 -4.1056214e-07 -5.712723e-06 -3.802451e-06

exp_avg_sq f4 [64]
00000000: 458d 252a 8bda ce2b 6303 a32a 305e 852c
00000010: 7eb3 f82b aeb8 e82a 3e9d 992a 50f5 6d2c
00000020: 2a81 5a27 e74e 302b 1674 8f2b cf2c 432b
00000030: 8e2d d52b 1093 f12a 80f9 362c 07fa 7d25
00000040: dad1 502b 6db0 9f2a ddb8 872b 3320 052a
00000050: a6c4 d52c 4597 cb29 274b a927 2e72 202b
00000060: 4030 f22a 0dc0 132c 3442 5227 e4c0 3d2c
00000070: 746c 0e27 d8f5 1b27 9396 d029 c3bd 0029
00000080: a4fa 502b e10a 3b2c b6ec 962b 6974 4c2b
00000090: 94ce 242d 154d f72c 9c5c c82a 25f0 cb2b
000000a0: b09d 6628 834b 5c2a 8e05 4628 5d23 032c
000000b0: 659e d72a f1a9 4d2c bd59 732b 4f45 0b29
000000c0: 8d86 d529 4aae b32b 4e87 f928 026f fa2a
000000d0: 45af 9929 03e4 6929 38ad c42a d550 2927
000000e0: a856 6429 7d66 a62c f475 0c28 470a a12b
000000f0: 36d1 692c 5871 0d28 b515 5c2b 42c8 c32a
1.4703957e-13 1.4697838e-12 2.8956966e-13 3.7905443e-12 1.7671279e-12 4.1339626e-13 2.7287368e-13 3.3815901e-12
3.0323597e-15 6.263726e-13 1.0192981e-12 6.93401e-13 1.5147204e-12 4.2912245e-13 2.6002256e-12 2.2028965e-16
7.418767e-13 2.8366494e-13 9.643637e-13 1.1823944e-13 6.0756565e-12 9.041252e-14 4.6988403e-15 5.7001875e-13
4.3021316e-13 2.0996566e-12 2.9179243e-15 2.6965591e-12 1.9765251e-15 2.1643843e-15 9.263176e-14 2.85863e-14
7.424428e-13 2.6580337e-12 1.0723842e-12 7.263691e-13 9.36819e-12 7.02872e-12 3.5591397e-13 1.4490671e-12
1.2801758e-14 1.9566124e-13 1.09924124e-14 1.863585e-12 3.830158e-13 2.9226589e-12 8.645548e-13 3.0924316e-14
9.482441e-14 1.276709e-12 2.7703232e-14 4.4485948e-13 6.824969e-14 5.193416e-14 3.493679e-13 2.349728e-15
5.0701332e-14 4.7293823e-12 7.797138e-15 1.1442591e-12 3.3227427e-12 7.85165e-15 7.8189825e-13 3.4777915e-13

exp_avg f4 [1, 64]
00000000: 5e9e b335 0bc8 4ab7 2899 4738 49f1 dd38
00000010: 7de8 71b7 7186 00b7 afc2 00b7 9356 e538
00000020: 2710 1237 5d9a 17b8 bad4 f2b7 9c9a d2b5
00000030: 7593 7eb6 d33c 24b8 6929 d938 1422 5b38
00000040: 5ab0 7034 117e a238 0815 0cb7 3019 9c38
00000050: 90b2 71b7 419d 39b6 5d95 4a34 a85b 9836
00000060: 0334 8fb6 c807 02b8 5551 aa38 e1bf 0737
00000070: 29bd 98b5 bb69 1139 387f f1b6 8349 f538
00000080: 2834 d438 1f2c beb7 8156 b1b7 ea67 18b7
00000090: b575 2db8 20f8 c4b7 29d9 d235 7dac 8e38
000000a0: b077 9d38 cbf7 4fb6 0a85 8db6 8ecb 92b7
000000b0: 77d0 2ab6 8755 ed38 d35c a2b7 61d8 8cb6
000000c0: 0441 0d38 5b15 9738 15a2 6836 5be8 ebb6
000000d0: c1f7 0cb6 e3ce 8d37 a88c aab6 d883 86b7
000000e0: 1ee0 ebb5 e950 d138 36e9 6f38 ccf8 bc38
000000f0: 1893 d4b7 3371 9a38 efad 0739 c1fb 99b7
1.338263e-06 -1.2086714e-05 4.7587935e-05 0.00010583044 -1.441885e-05 -7.660697e-06 -7.674723e-06 0.000109356966
8.706039e-06 -3.6144967e-05 -2.8947707e-05 -1.5691217e-06 -3.793478e-06 -3.9157294e-05 0.000103550796 5.2245407e-05
2.2415898e-07 7.748244e-05 -8.349547e-06 7.443351e-05 -1.4406294e-05 -2.7658682e-06 1.8867054e-07 4.540623e-06
-4.267787e-06 -3.1001662e-05 8.121381e-05 8.091302e-06 -1.1379935e-06 0.00013867665 -7.19717e-06 0.00011696203
0.000101186626 -2.267031e-05 -2.1140326e-05 -9.0841e-06 -4.1356037e-05 -2.3480563e-05 1.5709421e-06 6.803216e-05
7.508637e-05 -3.0989638e-06 -4.2176152e-06 -1.7499344e-05 -2.5453317e-06 0.00011316971 -1.935513e-05 -4.197515e-06
3.367757e-05 7.204219e-05 3.4665038e-06 -7.0305955e-06 -2.1005837e-06 1.6904849e-05 -5.0827693e-06 -1.603544e-05
-1.7574091e-06 9.980967e-05 5.7199235e-05 9.0108806e-05 -2.5340865e-05 7.364377e-05 0.00012939399 -1.8356253e-05

exp_avg_sq f4 [1, 64]
00000000: 1004 7e29 fe02 642c 023f 822e 0e6b 8f2f
00000010: bb5d ac2c e6c6 b92b 6edb d12b 5866 982f
00000020: 67fe e62b 401f 032e e6df aa2d b7c6 8a2c
00000030: e441 c32a 5353 1c2e 8e8a 892f fb3d 942e
00000040: 83e0 442b 4213 1f2f 01d3 0d2c a7b3 132f
00000050: 31a1 bc2c 0c91 6d2a c179 9429 f42a 042b
00000060: 8db5 fd2a 8298 c52d 3d25 2e2f 4beb 7e2c
00000070: ea6e 9429 7209 f22f c1e8 a22b e606 ad2f
00000080: 5ab2 832f cac1 4d2d 16ff 912d bc20 0b2c
00000090: 14e9 292e d488 5d2d 7c15 c129 30a7 fa2e
000000a0: b07d 142f 2a7b 1f2b a2cc 122b 5009 ff2c
000000b0: eb84 532a 1a19 a22f d9c7 1c2d 5030 f62a
000000c0: df8d 122e 8fb5 082f 7ebe bb2a 1055 ae2b
000000d0: 66c2 ff29 ee23 7d2d 23da 802c 1f06 2e2d
000000e0: 7522 102a 130d 802f 8c7f b62e 112f 532f
000000f0: fa32 812d 38ac 0d2f 1ea4 d32f be8e 182d
5.6402853e-14 3.240241e-12 5.922908e-11 2.6087615e-10 4.89894e-12 1.3200246e-12 1.4911247e-12 2.7721359e-10
1.6413094e-12 2.9813707e-11 1.9426193e-11 3.9442577e-12 3.468468e-13 3.55443e-11 2.5018604e-10 6.741271e-11
6.994476e-13 1.4467808e-10 2.0154436e-12 1.3433397e-10 5.361177e-12 2.1100152e-13 6.593641e-14 4.695543e-13
4.5067804e-13 2.2464034e-11 1.5838438e-10 3.6226185e-12 6.591761e-14 4.4026255e-10 1.1575395e-12 3.1473418e-10
2.3955488e-10 1.1695931e-11 1.6597872e-11 1.977126e-12 3.8633166e-11 1.25927775e-11 8.574649e-14 1.1398382e-10
1.3505175e-10 5.665907e-13 5.2153605e-13 7.24857e-12 1.878668e-13 2.9485464e-10 8.9119484e-12 4.3731902e-13
3.3322563e-11 1.243363e-10 3.3350053e-13 1.2387053e-12 1.13579976e-13 1.4389363e-11 3.662197e-12 9.892114e-12
1.2801724e-13 2.3292354e-10 8.299059e-11 1.920706e-10 1.468824e-11 1.288506e-10 3.849729e-10 8.671895e-12

exp_avg f4 [64, 128]
00000000: 3a33 fab9 5813 3ab9 e22c b439 742a 2d39
00000010: e238 c63a 785b 473a deb2 3b3a 1e47 8d3a
00000020: 56ed 32ba b6e7 8d3a 9a81 19ba 0adb 4738
00000030: b9a0 3cbb 3415 e538 62d4 2b39 757b 93ba
00000040: a831 1939 097e 8a39 c6b4 973a 5251 4f39
00000050: 3f6d 7eb9 3ae9 05bb 129a e7b9 76eb 473a
00000060: 1d07 0aba e47e c239 69d6 58ba 057f 88ba
00000070: 6022 efba 0976 aeb9 f9e5 04b9 f917 083b
00000080: 2d29 59bb 4b3e a9ba a062 0e3a 9f0e c439
00000090: e28c 353a 31a6 3e3b 7da5 8a3a 8671 2239
000000a0: d90b abb8 0753 b039 f2de 0438 ebd3 8c39
000000b0: b2ef 173a 0111 0939 f86e 8239 8b5f 9eba
000000c0: 3db5 d9b9 6e25 83b8 2f58 deb9 5fee 74b9
000000d0: 46bf 363a cc09 bdb8 0dc9 e1b9 e5f9 a9ba
000000e0: de8a 2fba df88 2a3a 6266 be38 3e91 62b9
000000f0: 99bc 22ba 4d54 953a 14df 233b 98a2 203a
00000100: eb8b e5b9 2a2d c73a ef1e bbb8 e337 0fb9
00000110: 5964 873a 3420 e139 06ae 37ba 962c cbb9
00000120: 0838 21b9 760d c439 a338 ca39 6fc5 c1b8
00000130: 6aa8 11bb a0b0 b9b9 ed42 de39 57c7 5b39
00000140: 2e73 ccb8 c2d9 4eba f391 adb9 8397 153b
00000150: fa6e caba cf57 b23a b601 faba 41be 4fba
00000160: 9813 38b9 119b 473a aad7 3c3a f410 503a
00000170: b568 413a d3c1 5f39 567a 9d3a a731 6539
00000180: d387 b233 d380 343a 39a2 e33a 8cf0 cfb8
00000190: e33c 78ba 62fc 4c39 cc9e 95ba 05fa c3ba
000001a0: 886b f93a 240c 713a 46e2 7db9 2f4f 2139
000001b0: 5f4c a4ba 926f 57b9 e576 5f38 a8b5 ca39
000001c0: 0bbc 35ba ec0b 0aba dba1 a239 613f 17b9
000001d0: 5197 49b9 df73 96b9 4426 d4ba 28d3 ee37
000001e0: ed39 8c3a 5f03 853a 0907 1db9 3fe0 1eba
000001f0: da41 0e3b 9324 783a 0097 8bb9 c145 8cb9
00000200: 1bf6 a6b9 d134 e639 a8e2 abba 41ac 26ba
00000210: 715f 7439 2be8 1139 e501 453a f757 52b9
00000220: e6fb 8cb8 5d84 59b8 2a67 6139 63a5 9bb9
00000230: 7433 813a 0d06 55ba 139e d0b8 0282 9d39
00000240: 8de5 ef37 3a23 f1b9 9863 57ba b4df 2938
00000250: a30b 57b8 006e e63a 2986 103a 5104 94b9
00000260: e417 62b9 d953 2bb9 44fa 9bb9 189c b639
00000270: 54ab 633a adc8 1739 cfa8 d1b9 78c0 75b9
00000280: 6a7e 243b 21d9 283a 5f39 1538 d681 8838
00000290: 8456 85b9 c792 33ba 2402 93b9 4e81 8f38
000002a0: 0f6d d639 f078 bab9 c649 0fb9 2d56 9a39
000002b0: 9536 0938 99a2 8cb8 a5f9 1eb9 7f6b 07ba
000002c0: 4ed0 8f39 6af8 c239 227b 7339 d323 4b3a
000002d0: 089b ae39 628b 44b9 e7ad b5b9 ddab ad3a
000002e0: 87ab 3e3a c64a 58ba e59f 21ba aa4a 60b9
000002f0: a214 3cba b6d6 2db9 5e08 56ba 3ec4 57ba
00000300: d0ab 0d39 2c9b 80b9 7fe6 4a3a a6ef 85b9
00000310: 01ee 93ba 5ce5 2ab9 ccc7 a33a 085e 1eb9
00000320: 3a64 af38 d175 44b9 be46 3bba 6298 143a
00000330: bb4e 283b e14c cb39 0127 3739 845d 4439
00000340: f00a 82b9 dcc8 d839 bf5f 1839 2afc 67ba
00000350: e070 8a3a ebca 9dba 9dea 623a 3258 ab39
00000360: 6bfc 5cb9 22db 663a 5943 31ba 0dfb f9b9
00000370: a651 cc38 bd28 b1b9 13d4 ceb9 5511 023a
00000380: 77d6 36b9 c4ff 13ba e421 53b9 c66e 343a
00000390: 2416 583a 461f 0238 9ad3 39b9 8f82 5138
000003a0: 4ef6 46ba 4120 bdb8 8664 483a faae 25ba
000003b0: ce6e e8b9 0b90 83b8 9d48 e8b8 d9a5 28ba
000003c0: 1c6d 07b7 670a f538 9bbf 3d3a 58da 8539
000003d0: e269 2739 92fe e2b7 bc93 173a b0c7 19b9
000003e0: 2dbe 99b9 9059 efba a98d 8db9 8150 4f3a
000003f0: 6752 69ba 7750 8039 f66a 8238 968f e539
-0.00047721883 -0.00017745548 0.00034365716 0.0001651438 0.0015123154 0.00076048775 0.0007160137 0.0010778641
-0.0006825527 0.0010826502 -0.0005855799 4.7649293e-05 -0.0028782322 0.0001092352 0.0001638695 -0.0011252003
0.00014609715 0.00026415315 0.001157426 0.00019771353 -0.00024264025 -0.0020433203 -0.00044174545 0.0007626334
-0.0005265342 0.00037097104 -0.00082716957 -0.0010413831 -0.0018244497 -0.0003327581 -0.00012674172 0.0020766242
-0.0033136115 -0.0012912242 0.00054315664 0.00037394927 0.0006925595 0.0029090757 0.0010577884 0.00015491815
-8.156122e-05 0.00033631196 3.1678886e-05 0.00026860772 0.000579591 0.00013071673 0.0002487821 -0.0012082917
-0.00041524498 -6.2535386e-05 -0.00042408842 -0.00023358453 0.0006971251 -9.014047e-05 -0.0004306514 -0.0012968151
-0.0006696413 0.0006505381 9.078976e-05 -0.00021607146 -0.0006207913 0.0011392921 0.002500479 0.0006127744
-0.0004378253 0.0015195955 -8.922617e-05 -0.00013658362 0.0010329589 0.00042939337 -0.00070068275 -0.00038752396
-0.0001537503 0.00037394062 0.0003857064 -9.239732e-05 -0.0022225627 -0.00035417546 0.00042393003 0.00020959727
-9.748932e-05 -0.0007890725 -0.00033105872 0.0022825904 -0.001544445 0.0013606491 -0.0019073996 -0.00079247734
-0.00017554907 0.0007614354 0.00072037673 0.00079370965 0.0007377968 0.00021339142 0.0012014608 0.00021857639
8.313477e-08 0.00068856514 0.0017367072 -9.9153345e-05 -0.0009469522 0.00019548976 -0.0011415123 -0.0014951831
0.0019029239 0.00091952295 -0.00024212254 0.00015383655 -0.0012534967 -0.00020545561 5.3278072e-05 0.00038663787
-0.00069326226 -0.0005266059 0.0003101964 -0.00014424093 -0.00019225224 -0.0002869656 -0.001618572 2.8470138e-05
0.0010698416 0.0010148099 -0.00014975308 -0.0006060637 0.002170673 0.0009465899 -0.0002662465 -0.00026754852
-0.0003184535 0.0004390837 -0.0013113813 -0.00063580653 0.00023305208 0.00013914767 0.0007515236 -0.0002005993
-6.72264e-05 -5.1860105e-05 0.00021496104 -0.00029687127 0.0009857253 -0.0008126207 -9.9476565e-05 0.00030042237
2.8597913e-05 -0.00045993348 -0.000821644 4.050108e-05 -5.1270832e-05 0.001758039 0.00055131555 -0.00028231976
-0.0002156194 -0.00016339066 -0.00029750366 0.00034830044 0.00086848927 0.0001447524 -0.0003998936 -0.00023436721
0.0025099763 0.0006441046 3.55778e-05 6.509169e-05 -0.00025432196 -0.00068501796 -0.0002803962 6.842856e-05
0.00040898516 -0.0003556679 -0.00013665025 0.00029437375 3.271418e-05 -6.7060064e-05 -0.00015161054 -0.00051658595
0.00027430285 0.00037187646 0.00023220156 0.00077491737 0.00033303373 -0.00018743941 -0.00034652578 0.0013250072
0.00072734844 -0.0008250888 -0.0006165489 -0.00021390119 -0.00071747054 -0.00016578552 -0.0008164699 -0.00082308415
0.00013510813 -0.00024529675 0.0007740035 -0.0002554629 -0.0011286141 -0.00016297906 0.0012495457 -0.00015103084
8.363319e-05 -0.00018735907 -0.00071440253 0.0005668459 0.0025681693 0.00038776456 0.0001746677 0.00018726854
-0.0002480368 0.00041348382 0.00014531518 -0.0008849526 0.0010562204 -0.0012038624 0.0008656176 0.00032681372
-0.00021074868 0.0008806457 -0.000676205 -0.00047680028 9.742686e-05 -0.00033790423 -0.0003944939 0.0004961689
-0.00017436767 -0.0005645717 -0.00020135153 0.00068829616 0.00082430453 3.102354e-05 -0.00017721803 4.9951075e-05
-0.0007589803 -9.01823e-05 0.00076443737 -0.0006320324 -0.00044333044 -6.273397e-05 -0.00011076147 -0.00064334046
-8.072031e-06 0.00011684448 0.0007238329 0.00025530416 0.00015965806 -2.7059843e-05 0.0005782207 -0.00014665606
-0.00029324126 -0.0018260945 -0.0002699916 0.00079084194 -0.00089005235 0.00024474013 6.218806e-05 0.00043785264
