checkpoints/checkpoint_epoch_20.pt (torch, 211211 bytes, 18 tensors)

fc1.weight f4 [64, 128]
000000 7a 58 cd 3c ed f6 f7 3c ff 8d bd 3d 15 14 64 3c
       0.025066603 0.03026911 0.09255599 0.013920804
000010 0e 56 ce bd a3 4e 94 bd 80 68 ed bc 45 a8 46 3d
       -0.100750074 -0.07241561 -0.028980494 0.048500318
000020 12 06 56 3d a0 7c 97 bc 95 74 69 bd 48 7c a2 3c
       0.052251883 -0.018492043 -0.056995947 0.019834653
000030 a0 4c 66 3d 8a fb 8e 3c d6 b2 61 bc e7 3e d7 bb
       0.05622542 0.017453928 -0.013775548 -0.006568778
000040 43 8a a9 3d 01 8a 3d 3d 01 9d a3 3d 70 3e 07 bd
       0.082783245 0.04627419 0.079889305 -0.03301853
000050 ac 5b 7f bd 6d 3d 2c bd 06 1e cf 3c 6b 99 d6 bd
       -0.062343284 -0.042050768 0.025282871 -0.10478481
000060 ee b2 54 bd c8 14 e5 3c 14 51 a2 3d 8c f2 a8 3d
       -0.051928453 0.02796401 0.07925621 0.08249387
000070 d9 73 49 bd 67 c1 3d bd dd a4 85 3d 40 89 55 bd
       -0.049182747 -0.04632702 0.06525586 -0.052132845
000080 02 d6 46 bd be be 25 3d 23 ee cf bc d5 94 43 bd
       -0.048543938 0.04046511 -0.025382107 -0.04774936
000090 67 75 b2 3c b2 2c c7 bd d3 f4 a7 3c 12 0c 06 bc
       0.021784497 -0.09725322 0.020502483 -0.008181589
0000a0 82 53 42 bc c2 51 e2 bc 21 56 83 3d 7f 49 61 3d
       -0.01186073 -0.027626876 0.06412912 0.055001732
0000b0 cc 7d 7e 3d 34 a9 22 3d d9 57 83 3d 32 9d 8f 3d
       0.062131688 0.039712146 0.0641324 0.070124045
0000c0 61 56 de 3c 80 10 e4 b8 52 bf c6 bc d9 8f 26 bd
       0.027140798 -0.000108749606 -0.02426115 -0.040664528
0000d0 10 a5 fd 39 58 2e b6 bc e7 77 58 3d a8 1c 88 3d
       0.00048378902 -0.022238895 0.052848723 0.06646091
0000e0 c6 25 21 bd 52 e9 31 bd 72 4a 09 bb fd d6 f6 bc
       -0.039342664 -0.043435402 -0.0020948914 -0.030131811
0000f0 bd ce 05 bd 42 77 4e 3d a3 e3 de bb d7 1c 92 3c
       -0.032667864 0.050406702 -0.0068020388 0.017836018
000100 08 96 cc bc cf 15 23 bd 54 7f d6 3c 56 77 21 bd
       -0.024973884 -0.03981572 0.026183762 -0.03942045
000110 e2 e3 4e bb 79 39 9b bd 79 81 f9 bc 2a fd 6c 3d
       -0.0031568934 -0.075793214 -0.030457245 0.057858624
000120 45 2a c5 bd 82 2e af 3d 27 61 7e 3d 17 7f c9 bc
       -0.09627203 0.085537925 0.06210437 -0.024596734
000130 6f 64 d3 bc b3 3a 90 bd 72 62 88 3c 2b 54 51 bd
       -0.025804726 -0.07042446 0.016648505 -0.05110566
000140 be f0 55 bd dd d5 3b 3c f2 c3 94 bd 96 0b c3 bb
       -0.052231543 0.011464563 -0.07263936 -0.005952309
000150 bb d1 cb 3d d7 59 1c 3c 53 e5 b8 bd d0 02 ac 3d
       0.09952112 0.009542904 -0.09028115 0.08398974
000160 9c d9 40 bd 2f 7c 98 3d 6a 20 89 3d ea 0c a8 3b
       -0.04708253 0.07445561 0.066956356 0.0051284926
000170 c5 10 f0 3c 2b 17 89 bd 4d a9 75 bd b8 02 b5 3c
       0.029304871 -0.06693872 -0.05997591 0.022096023
000180 3e bb 87 3c 7b ed 8d 3d cd 9b 33 3d 76 e6 ef 3b
       0.016568776 0.069300614 0.043849755 0.0073211743
000190 3a a3 3d bd 48 2c a3 bc b4 10 a8 3d 2e 80 41 bd
       -0.046298243 -0.019918576 0.08206311 -0.047241382
0001a0 c0 a0 c9 3d b7 34 6e bd ff b0 a0 bd cd 5b 1e bd
       0.09845114 -0.05815574 -0.07846259 -0.038661767
0001b0 91 dd 78 3d a3 42 2a 3d 84 1b 61 bd cd af 66 3d
       0.060758177 0.041567456 -0.05495788 0.05632
0001c0 ae d3 96 bd 30 72 21 bd 22 e7 61 bc 87 78 81 3c
       -0.073645934 -0.03941554 -0.0137880165 0.015804542
0001d0 a9 0b cd 3c 3f 93 52 bd 4c 21 18 bd eb 51 49 3d
       0.025029974 -0.051409956 -0.03714113 0.04915039
0001e0 09 ac 4e 3d 7f 6c 31 bc 3b 53 e9 bc 13 4e 98 bd
       0.050457034 -0.01082909 -0.02848207 -0.074367665
0001f0 15 58 53 3d 18 79 83 bd fd 72 85 bd a2 6f 4b 3d
       0.051597673 -0.06419581 -0.06516073 0.04966701
000200 76 e2 22 bd 74 bb 7b 3c df bc 4e 3c 17 4e 56 3d
       -0.03976675 0.0153645165 0.012618273 0.052320566
000210 52 38 79 bb f4 5e 45 3d af 55 8b 3c 30 13 86 bd
       -0.0038027954 0.048186257 0.01700863 -0.065466285
000220 d6 17 88 3d f6 10 d5 3d 2f 8c 8d bd 82 63 4d 3c
       0.06645171 0.10403626 -0.069115035 0.012535932
000230 3a 93 63 bd f2 eb 36 3d 4e 7e 8a 3c 6a 70 89 bc
       -0.055560328 0.04465861 0.01690593 -0.016777236
000240 a0 07 98 bb 3c 6f b8 3d 2d c3 33 3d 11 34 90 3d
       -0.004639581 0.09005591 0.043887306 0.07041181
000250 9d fe 46 bd c8 2f 83 3c 38 a6 38 3d 8a a7 86 bd
       -0.048582662 0.016013995 0.045080394 -0.06574924
000260 6b 31 2c 3d 5a 9c e7 3c b5 31 61 bc 14 27 14 bd
       0.042039316 0.028272796 -0.013744761 -0.03617008
000270 07 24 19 bc 1a 9f 1e 3d 3e 08 9f bd 24 50 dc 3b
       -0.0093469685 0.03872595 -0.07765244 0.0067234207
000280 d6 e9 b3 3d b3 61 ca 3d 32 14 47 bd 70 4e 2f 3d
       0.08784835 0.09881916 -0.048603244 0.042799413
000290 6c 7b bb 3d 15 ce 91 bd 88 fb ea 3c ff 00 6f 3c
       0.091544 -0.07119385 0.028684393 0.01458764
0002a0 f9 4b a8 3d 54 06 b2 bc cf dd bf 3d cf ad ec bc
       0.08217616 -0.021731533 0.093684785 -0.028891472
0002b0 a3 cf d6 3d 80 fe ca 3d dd ea 26 3d 91 1b 8b bd
       0.10488822 0.09911823 0.040751327 -0.06792367
0002c0 a1 77 9c 3d 65 30 a4 3d 7a c6 80 3c 26 81 65 3d
       0.07640005 0.08017043 0.015719641 0.05603137
0002d0 24 f6 de 3c 9b 00 15 3d b1 46 ed bc 34 7e a1 3d
       0.027216978 0.03637753 -0.028964372 0.078853995
0002e0 9c ff 7a bc b4 d9 83 bd ee 9e 08 bd dd 26 d6 3c
       -0.015319731 -0.06438008 -0.033354692 0.026141578
0002f0 c8 5b 72 3d e5 68 56 bc f5 78 5f bd 48 52 99 bd
       0.05916956 -0.013086532 -0.054558713 -0.07486397
000300 e4 1f 28 3d 80 c8 ac 3c 7b 5a 10 bd 43 a8 5f 3d
       0.04104604 0.0210917 -0.03524254 0.054603826
000310 ff c0 8b bd e4 f3 c7 bc 88 15 51 3d eb c9 83 3d
       -0.068239205 -0.024408288 0.051045924 0.06434997
000320 d7 98 91 3c f5 b5 43 3d 7a ec 2b 3d a1 c4 cc 3d
       0.017773075 0.04778095 0.04197357 0.099984415
000330 10 35 9b 3d 29 c6 2b 3d 1b 55 54 3d 13 49 80 3d
       0.0757848 0.041937027 0.051838975 0.06263938
000340 56 71 13 b9 ac 09 45 bb da 84 9c 3d a8 0c 47 3d
       -0.00014061233 -0.003006558 0.07642527 0.048596054
000350 32 59 80 bb 37 70 02 3b 41 61 c5 3d 74 c1 b5 bd
       -0.003916883 0.001990331 0.0963769 -0.08874789
000360 8b 9a 46 bd 1c 1d 0b 3d d7 e1 09 3d 46 b6 6b 3d
       -0.048487227 0.033963308 0.033662643 0.057546876
000370 47 98 61 bd fb db d2 bd ec b0 08 bd b3 27 35 bd
       -0.055076864 -0.10295864 -0.03337185 -0.044227313
000380 c6 fc 50 bd 84 21 ac 3d 3b 8d 82 3c f6 c1 95 3d
       -0.051022314 0.0840483 0.015936485 0.07312386
000390 26 ce 69 bd e0 06 8c 3d 2f f8 a0 3c be fc 7b 3d
       -0.057081364 0.06837249 0.019649593 0.06152033
0003a0 5b 89 17 3c f4 35 28 bd 8e 72 8b 3d b7 5a 47 bc
       0.009249057 -0.04106708 0.06808959 -0.012167624
0003b0 65 f2 d7 bc e2 c9 b9 3d 64 45 0f bd f9 b0 3c 3d
       -0.0263607 0.09071709 -0.034978285 0.04606721
0003c0 2a 0e f6 3c 2b a9 b4 bd 2a f3 5d 3c 61 1b be bd
       0.03003605 -0.08821329 0.013546744 -0.09282566
0003d0 15 1f 69 bd 9c f1 89 3d 5a e8 d2 bc bd fb a4 bd
       -0.056914408 0.067355365 -0.02574556 -0.08055828
0003e0 90 e4 e9 bc 96 e6 af bd 24 bd 8f 3d a7 71 5b 3d
       -0.02855137 -0.08588903 0.070184976 0.053575184
0003f0 2c 32 bb 3d 18 5e 68 3d 80 76 96 bd 69 2f 7e 3d
       0.09140429 0.05673036 -0.07346821 0.062056933

fc1.bias f4 [64]
000000 54 4d 3e 3c 56 64 23 3c 51 6c 26 3c bb b5 6e bd
       0.011615116 0.009972652 0.010157661 -0.05827878
000010 dd 28 6e 3d 26 c8 88 bd 78 0b 82 bc 05 0f 19 bd
       0.05814444 -0.066788 -0.01587461 -0.03736784
000020 c4 3d 22 bd e5 f5 80 3d ba 46 34 3d b0 ea 54 3d
       -0.039609686 0.06296901 0.044012763 0.051981628
000030 03 d0 1b bd ce a4 82 3d 07 72 99 bc f0 4a b6 3d
       -0.038040172 0.0637909 -0.01873113 0.08901012
000040 7e 69 f9 bc c7 ee 88 3d ed eb 75 3d 4a ba bc bc
       -0.03044581 0.06686168 0.06003945 -0.023038048
000050 6c bd 86 3c fb 80 80 bd 38 71 93 bd ab 29 86 3d
       0.016447745 -0.06274601 -0.07199329 0.06550916
000060 c7 7a 62 bd 9b c2 bf 3d e8 ef 94 3d ca 5d 6c bc
       -0.05529287 0.0936329 0.07272321 -0.014426658
000070 be 69 13 bc d9 5d cb bc 3b 26 02 3d 47 37 81 3d
       -0.008997379 -0.024825023 0.03177474 0.063093714
000080 ef f9 45 3d 3e 19 6e 3d a8 8d 8e 3d 53 ea 5c bd
       0.04833406 0.05812954 0.069606125 -0.053934406
000090 99 3a 27 3d 61 c6 fb 3c 01 e0 31 3d 0d 72 14 3d
       0.040827367 0.030734243 0.043426517 0.03624158
0000a0 e1 e8 c8 3d 95 fa c3 bc 7c 42 50 bd 84 c1 cb bc
       0.09810043 -0.023923198 -0.050844654 -0.024872549
0000b0 be da 0b bd 00 40 9d 3d e6 6f 3d 3d c4 4d 67 bd
       -0.034144156 0.07678223 0.046249293 -0.056470647
0000c0 32 24 c6 3d 80 1f 41 3d 3f f6 94 bd 2b 29 28 bd
       0.096748725 0.04714918 -0.0727353 -0.041054886
0000d0 c7 24 1f bd 3a ce a8 3d 8f 93 07 3d c6 65 da bb
       -0.038853433 0.082424596 0.033099707 -0.0066649644
0000e0 6e 41 4a bd 61 0d 03 bd f9 76 86 3d d1 df 96 3d
       -0.049378805 -0.03199518 0.06565661 0.07366908
0000f0 68 50 44 3d 16 81 a8 3d 0f f1 5e bd 2d 48 2c 3d
       0.047928244 0.08227746 -0.05442911 0.04206102

fc2.weight f4 [1, 64]
000000 dc 4a ab bd 72 6e f3 3d 8c ee c3 bd ca 1f c0 bd
       -0.08363888 0.118863 -0.095669836 -0.09381063
000010 c4 d3 e3 3d 45 56 07 3e e2 7b f9 3d 53 08 dd bd
       0.111243755 0.13216503 0.12181832 -0.10792603
000020 ed d3 37 bd 58 d2 37 3d f1 a7 6d 3d e1 38 8b 3d
       -0.044879843 0.044878334 0.05802149 0.06797958
000030 71 23 0b 3e 9f 5e 16 3d c6 a1 96 bd 55 ff a9 bc
       0.13587739 0.03671133 -0.073550746 -0.020751635
000040 a5 7c b7 3d b8 6b 68 bd b8 95 90 3d f0 ce ef bc
       0.08959321 -0.056743354 0.070598066 -0.02927348
000050 a1 5b d2 3d 65 91 e1 3d 70 ae ba bc 8d e1 df bd
       0.10271383 0.1101406 -0.022788256 -0.10931692
000060 39 5c e7 3d 9b 40 89 3d 75 bc 00 bd 5e 5b b8 3d
       0.11296887 0.06701776 -0.031429727 0.09001802
000070 25 35 23 bb cc 3f e5 bc 36 d5 05 bc bf 08 b1 bd
       -0.0024903503 -0.027984522 -0.008168509 -0.08644246
000080 21 bc cd bd 4c 67 ac 3d 15 c1 bf 3d 57 66 ae 3d
       -0.10045648 0.0841814 0.09362999 0.085156135
000090 90 eb f6 3d b4 ae cc 3d 63 63 b7 bd 40 10 b3 bd
       0.12056649 0.099942595 -0.089545034 -0.08743334
0000a0 d6 de dc bc 23 b5 6e 3d b0 4c f9 3c d0 74 94 3d
       -0.026961725 0.058278214 0.030432075 0.07248843
0000b0 1a 66 0e bd c0 6b 0a be 22 40 61 3d 2f f3 7a 3d
       -0.03476534 -0.13517666 0.054992802 0.061267074
0000c0 3c 60 ac bd 91 82 01 be f0 bf a3 bd 3d 95 b4 3d
       -0.08416793 -0.12647463 -0.079955935 0.088175274
0000d0 ba c1 ff bc 51 27 42 3d 5b c0 44 3d 32 a4 60 3c
       -0.031220306 0.047400776 0.048035007 0.013711022
0000e0 32 4f 37 bc 77 d0 ec bd 5a 9d 8d bd 85 9e 9b bd
       -0.011188315 -0.11563199 -0.06914778 -0.075985946
0000f0 9a d9 9b 3d 30 aa 82 bd 12 5c cb bd c4 b9 01 3d
       0.076098636 -0.06380117 -0.099296704 0.0316713

fc1.weight f4 [64, 128]
000000 6d c8 76 bd b8 ac 28 3d 73 c5 ab bd bb 22 53 3d
       -0.060249735 0.041180342 -0.0838727 0.051546793
000010 f8 94 d5 3b 57 b7 8e 3d 38 aa 59 bd fb bd 88 bc
       0.0065180026 0.06968563 -0.05314085 -0.016692152
000020 19 51 99 bd bd e8 31 3d 4c 53 ae 3d 86 bf da 3c
       -0.07486171 0.043434847 0.08511981 0.026702654
000030 0f 8c 44 3c 93 97 8d 3d e2 ee 0b bd 54 29 b9 3d
       0.011996283 0.06913676 -0.034163363 0.09041086
000040 ed af 83 bc c6 6e 82 3d fe c9 30 bc 5f 25 f1 39
       -0.016075099 0.063687846 -0.010790346 0.00045994946
000050 84 77 47 3d 53 13 33 bc 10 cc a7 bb a8 ea 89 3d
       0.048697963 -0.0109299 -0.0051207617 0.0673421
000060 3c a7 25 bb ad 5d 0c bd 39 cd 5d bd 76 cb 38 3d
       -0.0025276681 -0.034269024 -0.054150794 0.04511591
000070 7d 32 88 3c d7 3f 9d bd c7 9d ca 3d a0 5a 46 bc
       0.016625637 -0.07678192 0.09893375 -0.012106568
000080 d7 e9 2b 3d 80 aa fb bc 60 3a f6 3c 74 b0 5c 3d
       0.041971054 -0.03072095 0.030057132 0.053879216
000090 9a 72 91 3c b0 4d 56 3d 52 46 7b bd 25 35 8d 3d
       0.017754842 0.052320182 -0.06134636 0.06894902
0000a0 36 70 55 3d 86 ee 4f bd e7 16 e4 bc 3d 46 92 bd
       0.052108966 -0.050764583 -0.027842952 -0.07142303
0000b0 b0 54 05 3b f0 7b 99 3c c7 39 20 3c 00 6a 33 b7
       0.0020344667 0.018735856 0.0097794 -1.06939115e-05
0000c0 b0 c8 7a 3d e9 42 14 3d 13 e9 1e 3d a7 e5 bb 3d
       0.061226547 0.036196623 0.038796496 0.09174662
0000d0 7b c7 31 bd c1 02 8c bc ca 4e 69 bc f9 7b 94 3d
       -0.04340313 -0.017091157 -0.014239976 0.072502084
0000e0 ab f4 96 3d a7 24 12 bb ec 7a f1 3c 66 bd 01 ba
       0.073708855 -0.0022299679 0.029477559 -0.0004949182
0000f0 18 85 43 bd 0d bb 37 3d 98 8d 70 bd 72 a1 5c 3d
       -0.04773435 0.04485612 -0.058728784 0.053864904
000100 bd 32 ed bc 43 9a 57 bc bb 47 90 3d ef 9f 2d bc
       -0.028954858 -0.013159337 0.070449315 -0.010597213
000110 af 2a 1f bd a8 34 c0 bd 1e 8f 97 bc 1d 7e 7a bd
       -0.038859066 -0.093850434 -0.01850086 -0.061155427
000120 58 08 ac bc bb 4b c2 bd 19 52 f3 bc c3 d0 16 3c
       -0.021000072 -0.09487101 -0.029702233 0.009205046
000130 6b 02 e0 bc 1e 83 ed 3c 10 21 5c bc 8b a2 0c 3c
       -0.027344903 0.028993186 -0.013435617 0.008583675
000140 b8 67 b3 3c 41 c5 a0 3d cb 8f d8 bc e8 cd b9 bc
       0.021900043 0.07850123 -0.026435753 -0.022681192
000150 a8 cb ad 3b 66 f6 bb bc 90 2e 30 3b 78 65 e2 3c
       0.0053038187 -0.02294464 0.0026883222 0.027636275
000160 be 9b 34 bc e9 b2 8d 3d c3 f7 2d bd 14 da 30 3d
       -0.01102346 0.0691889 -0.042472612 0.043176726
000170 37 66 92 bc fa dd e7 3c 6b 2a 16 3c a4 8b a2 bd
       -0.017871005 0.028304089 0.009165387 -0.079367906
000180 80 2e 97 bd 94 1f 64 3d 95 91 17 3c 13 b2 9c 3d
       -0.07381916 0.055694178 0.009251018 0.076511525
000190 44 19 97 3a 61 7f 0f 3d 67 6a 95 3d 58 d3 3d 3d
       0.0011527915 0.035033587 0.07295685 0.04634413
0001a0 a8 4e 85 3d 2a 60 6d bd 93 0c 89 3d ed 65 3f 3d
       0.06509143 -0.057953037 0.066918515 0.046728063
0001b0 d8 85 53 bd 29 37 80 bd e0 d0 65 bd 27 41 e8 3c
       -0.051641315 -0.06260521 -0.0561074 0.02835138
0001c0 17 a7 6c bc 21 ff 8a 3d 5e 90 01 bd 61 54 3f bd
       -0.014444134 0.06786943 -0.03163182 -0.04671133
0001d0 30 9f 71 3d 10 1a 4e bb 46 f3 21 bd 41 12 39 bd
       0.058989704 -0.003144864 -0.039538644 -0.045183424
0001e0 06 f3 1c 3d 67 7d 88 bd ec 4a 81 bc e7 45 b9 3d
       0.038317703 -0.066645436 -0.015782796 0.09046536
0001f0 5a ee e7 bc bf e8 8f bd d9 57 d5 3c 30 c6 9f bd
       -0.028311897 -0.07026815 0.026042866 -0.07801473
000200 bd 83 7e bd 5a 9c 9d bd 36 4e de 3c d2 b1 c3 3d
       -0.062137354 -0.07695837 0.027136903 0.09555401
000210 4a 41 b7 bd 5f 32 99 3d 21 f6 22 bd 1d 4d b5 3d
       -0.08948 0.07480311 -0.039785508 0.08852599
000220 11 79 c0 bc b9 b5 e8 3c 24 a2 2d bd c7 e3 a0 3c
       -0.023495229 0.028406965 -0.042390957 0.019639863
000230 0d d2 30 3c c9 d8 b2 3d aa f2 7a bc 81 54 c2 bd
       0.0107922675 0.08732755 -0.015316645 -0.09488774
000240 0c e6 55 3d 0f 38 de 3d fe 98 d9 3d dd d9 02 3c
       0.052221343 0.10850536 0.10624884 0.007986513
000250 8f 36 88 3c 0a 82 69 3d 59 9d 51 3d eb ec 95 3d
       0.016627578 0.05700878 0.05117545 0.07320579
000260 9b 2d 5e bd 79 4a 36 bd f7 ea b9 3c d5 6e 13 3d
       -0.05424271 -0.044504616 0.022695048 0.03599437
000270 8b 36 1a bd 0f 9c 84 bd 9a b6 3d ba d8 3a 83 bd
       -0.037649672 -0.06475078 -0.00072369876 -0.06407708
000280 64 7a 49 bc b3 2f ad bd e9 f8 ee bc 21 37 48 3c
       -0.012297247 -0.084563635 -0.029171424 0.012220175
000290 75 41 ad 3d 95 c7 fc bc 7d b2 80 bc c9 ca 72 bd
       0.084597506 -0.030856887 -0.01571011 -0.059275422
0002a0 c0 b2 9e bd 98 05 36 bd c1 0c 7d 3d 0d 68 23 bd
       -0.077489376 -0.04443893 0.06177974 -0.039894152
0002b0 83 e5 c0 bd 23 b7 82 3d f9 69 4d bc 64 fd a1 3d
       -0.09418776 0.06382587 -0.012537473 0.079096586
0002c0 0f 71 a9 bb d4 ac 53 bd f6 f6 0c ba f7 7f 32 3d
       -0.0051709483 -0.051678494 -0.0005377376 0.043579068
0002d0 b5 7b c7 bd 55 46 7d 3c 14 48 a3 3d fb 83 16 bd
       -0.09740392 0.015458663 0.07972732 -0.03674696
0002e0 d7 b5 94 3c 34 de 8e 3d 55 cd 60 3d cd 2c 85 3d
       0.018153114 0.06975976 0.05488332 0.06502686
0002f0 fe 94 4e bd c6 d5 09 bd 01 b4 61 bd f6 8f 9c 3c
       -0.05043506 -0.033651136 -0.055103306 0.019111615
000300 5c df ce bd 12 dd 79 bd 52 6b 26 bd cb 4b 50 3c
       -0.10101196 -0.061001845 -0.040629692 0.012713383
000310 fd 2a 7f bd 97 29 c9 3d b0 cc cd bc f0 ed 07 3d
       -0.062296856 0.09822386 -0.025122017 0.0331859
000320 ce 8e 52 3b 50 bc 66 bc c0 77 2e bc 20 bb 8b 3d
       0.0032128575 -0.014082983 -0.010648668 0.06822801
000330 1b be a6 bd d4 32 cb bd a2 f2 cf bd 73 2e 44 3d
       -0.081417285 -0.09921804 -0.101537004 0.04789586
000340 19 b9 5e 3d 5f 90 b3 bd fd 78 8c bd 29 f5 99 3d
       0.05437574 -0.08767771 -0.06859014 0.07517464
000350 a9 06 d6 3c 8f 9f ae 3d 67 f8 10 3d ad 5b 3d bd
       0.026126223 0.08526527 0.035393145 -0.046230007
000360 1a 34 3b 3d d9 ec 96 bd df f5 b8 3d 16 89 cf 3d
       0.045703985 -0.07369394 0.09031271 0.10133569
000370 6f b6 f1 3c 42 3b 2c 3d 8a 95 35 3d d1 19 7a 3d
       0.029505936 0.0420487 0.044332065 0.061059777
000380 87 7f 53 3d db 64 a2 3d 97 ca 47 bd 5b 45 9e 3b
       0.05163529 0.07929393 -0.04877719 0.004830045
000390 7a 9f ae bc 0a 6b 5e bd e8 74 f6 ba e8 69 49 bc
       -0.021316279 -0.0543013 -0.0018803151 -0.012293316
0003a0 c6 e0 53 3d 99 a8 38 3d 70 ad 40 3b 7e 21 78 bd
       0.051728033 0.045082662 0.0029400252 -0.060578816
0003b0 48 f2 74 3d 4c 0a 2e 3d 36 cf 38 bd ba a8 f9 3c
       0.05980137 0.04249029 -0.045119487 0.030475963
0003c0 ef 87 82 bd 2e 69 71 3c 7b 89 93 bd 08 cd 20 bd
       -0.063735835 0.014734549 -0.07203957 -0.039258033
0003d0 50 79 8c 3c 41 28 8e 3c ac 72 c1 3c 8c 5b be 3b
       0.01714769 0.017353179 0.02361425 0.005809253
0003e0 ae 6d 18 3d d3 8f 25 3d a8 75 13 3d fb fa 10 bd
       0.037213974 0.040420365 0.036000878 -0.035395604
0003f0 72 54 86 bd 1e f2 7b bd ab ed 53 bd 36 56 11 bd
       -0.065590754 -0.061510198 -0.05174033 -0.035482608

fc1.bias f4 [64]
000000 e8 34 63 3d 14 51 49 3d 44 2f 6d 3c 18 bf 39 bc
       0.055470377 0.049149588 0.014476601 -0.011337064
000010 77 a0 e0 bc 4e 0e 34 bb cb 4d 02 bd 5d c6 01 3a
       -0.027420266 -0.0027474347 -0.03181247 0.0004950518
000020 61 5e 89 3d 8c 46 4f 3d 43 a9 68 3d 26 82 d1 3d
       0.067074545 0.050604388 0.056802046 0.10229902
000030 89 a9 d2 bc 24 30 7e bd c3 21 bf 3d da 7e 1a bc
       -0.025715606 -0.06205763 0.093326114 -0.009429658
000040 76 58 1c bd d9 4d 6f 3d 60 c4 27 bd cb 77 27 bd
       -0.0381703 0.05842385 -0.040958762 -0.040885728
000050 c3 6d 76 bd d6 97 b4 bc 44 36 9a bd b2 b4 1c bd
       -0.06016327 -0.022045057 -0.075298816 -0.038258262
000060 4c 46 86 bd f4 21 08 bd 25 80 68 3d f7 6b 61 3d
       -0.06556377 -0.033235505 0.056762833 0.055034604
000070 4e 02 58 bd f1 41 5c bc f8 86 24 39 e9 9f 6d bd
       -0.052736573 -0.013443456 0.00015690539 -0.05801383
000080 67 0a ac bd cb ea 81 bd da 58 48 3d a3 1d 18 bd
       -0.084004216 -0.06343611 0.04891286 -0.03713764
000090 a3 79 10 bd f6 23 32 3c 05 fc 49 3d 2b ef 2b bd
       -0.03527225 0.010872832 0.04931261 -0.041976135
0000a0 36 00 99 3d 48 58 82 bd 9c 58 2e 3d 1b 10 aa bd
       0.07470743 -0.063644946 0.042564973 -0.08303853
0000b0 fd c5 f8 bc d7 79 75 3d eb bf 83 bd 17 08 31 bd
       -0.030367846 0.05993065 -0.0643309 -0.043220606
0000c0 10 0f 56 bd c5 05 16 bc 54 ab aa 3d 8f a3 91 3d
       -0.05226046 -0.009156649 0.083334595 0.071112745
0000d0 6d 3b 39 3d 1e 29 b4 bd f8 67 74 bd 58 3f 4d 3c
       0.04522269 -0.08796905 -0.059669465 0.012527309
0000e0 d6 91 9b 3d 86 68 7d 3c 80 fa 7d bd 57 57 6c 3d
       0.075961754 0.015466815 -0.062006474 0.05770048
0000f0 a8 97 fa bc 7d 13 9a 3d 90 c7 a0 3a 70 c8 48 bd
       -0.030589893 0.07523248 0.0012266506 -0.049019277

fc2.weight f4 [1, 64]
000000 7d 1b b1 bc 4b 54 22 3d 76 0f 60 bc c3 0b 23 bd
       -0.021619553 0.03963117 -0.013675561 -0.03980614
000010 ca d6 0e 3e 7c 14 1d 3d 45 3e cd 3d 27 fc d7 bd
       0.13949123 0.038349614 0.100216426 -0.10546141
000020 c3 c6 96 3d 33 1b 13 bd 6d 13 14 bd 68 9b c2 3d
       0.073621295 -0.03591461 -0.03615134 0.09502298
000030 80 d8 4d 3d a7 2f 50 bc ff 86 eb 3c d9 8e c3 bd
       0.0502553 -0.012706674 0.028750895 -0.095487304
000040 e0 0c 37 bd 10 67 7c 3d c2 56 c4 3d c2 24 3e bd
       -0.044690013 0.061621726 0.0958686 -0.046421774
000050 6a 92 c8 3a ba ed ab bd 99 72 52 bd 3f bf 83 3d
       0.0015302424 -0.08394952 -0.05137882 0.06432962
000060 69 ce ea 3d b6 bc 96 3d 7b 5c bc bd c0 8a 50 bd
       0.11465151 0.073602125 -0.09197327 -0.050913572
000070 9c 53 a7 3d 5a 4f 01 3e cb be 14 3e 1c a1 c5 3d
       0.08170244 0.12627926 0.14525907 0.0964987
000080 6f fc 09 3c 64 86 9f 3d 95 18 08 3e fe 05 65 3d
       0.008422001 0.07789305 0.13290627 0.055913918
000090 f2 3b 8d 3d b3 32 06 3e d9 d7 c8 3c 88 16 84 bd
       0.06896199 0.13105278 0.024516987 -0.0644961
0000a0 a7 9f 2b 3d ae 50 d7 3d 44 10 c2 3d c8 c3 58 3c
       0.041900303 0.10513435 0.09475759 0.013230272
0000b0 a7 62 0c bd da b2 f1 3d ee 88 13 3e ca bb 86 3d
       -0.03427377 0.11801691 0.14407703 0.06578787
0000c0 72 6e 94 3d 19 7f 90 bd 27 02 d7 3d 9a 58 b5 3d
       0.07247628 -0.07055492 0.104984574 0.0885479
0000d0 8c d4 68 bd 85 3b 1e bd 90 0a 03 3e af 9d b6 bd
       -0.056843325 -0.03863098 0.12796998 -0.089167945
0000e0 87 96 a8 3c 14 65 8e 3d 1f 97 6f 3d ca 1d ad 3d
       0.02057959 0.06952873 0.05849373 0.084529474
0000f0 89 fb 19 bd d4 da ad 3d 24 89 b2 bb d7 51 fd 3b
       -0.0375934 0.08489004 -0.0054484773 0.0077307033

exp_avg f4 [64, 128]
000000 bd fc 98 36 b4 80 80 b5 a3 d8 ca b5 e9 b6 20 36
       4.5593756e-06 -9.574201e-07 -1.5113222e-06 2.3948326e-06
000010 ff 71 21 35 95 76 b5 34 ee 8a b9 b5 6f 55 c0 35
       6.014306e-07 3.3800157e-07 -1.3824008e-06 1.4329979e-06
000020 d0 34 39 b4 b9 41 2a 35 82 84 89 b6 1b 57 29 36
       -1.724868e-07 6.3425574e-07 -4.098344e-06 2.5233664e-06
000030 a3 28 85 36 f0 83 77 35 5b e9 8f b4 2b 7f b5 35
       3.9684396e-06 9.2206665e-07 -2.6805614e-07 1.3522562e-06
000040 12 c5 30 35 ce fb bf 35 5e c3 c1 b5 37 e4 18 b5
       6.5851884e-07 1.4303894e-06 -1.443648e-06 -5.695651e-07
000050 18 b5 45 b4 11 59 d8 36 dd c1 bb 35 6f 35 69 35
       -1.8412936e-07 6.4476703e-06 1.3989007e-06 8.687702e-07
000060 3d fa 9f 35 04 3d cb b5 ed 0a 82 b6 34 0e a0 b5
       1.1919252e-06 -1.5142436e-06 -3.875574e-06 -1.1925063e-06
000070 b1 95 f5 34 2a 92 1d 35 bd 14 10 36 80 1d 29 36
       4.574372e-07 5.8699754e-07 2.1469743e-06 2.5200134e-06
000080 13 07 d4 35 17 f5 81 b4 c0 ae da 34 5a 80 51 b5
       1.579729e-06 -2.420645e-07 4.0732812e-07 -7.8045343e-07
000090 f2 9f 8b 33 75 75 40 36 93 6c 9d b5 7c 5e 37 b6
       6.501786e-08 2.8678598e-06 -1.1729011e-06 -2.7324122e-06
0000a0 3b e9 2d 36 ac 7f 3f b5 a9 1e d5 33 fb 0d 45 34
       2.5914767e-06 -7.133883e-07 9.9241625e-08 1.8352141e-07
0000b0 1a f0 80 35 1b e4 e1 34 2d 5a 21 b6 cd ce a8 35
       9.606622e-07 4.2075484e-07 -2.4043359e-06 1.2577162e-06
0000c0 65 2f 3e 35 bc b0 8d 35 62 64 ac 35 0d 7e 2f b6
       7.0849484e-07 1.0556755e-06 1.2844214e-06 -2.6150403e-06
0000d0 57 19 e0 b5 e3 b6 09 36 a6 2e 71 36 6f 62 81 35
       -1.6696675e-06 2.0521045e-06 3.5938951e-06 9.639897e-07
0000e0 15 be ad 36 b1 8f ac 35 ba b7 5f b5 32 25 31 35
       5.1779302e-06 1.2856818e-06 -8.334133e-07 6.5991765e-07
0000f0 24 61 0d b6 5f 76 61 35 27 3b 4d 36 14 51 e7 b5
       -2.106718e-06 8.3991284e-07 3.0581812e-06 -1.7234438e-06
000100 a6 af 82 b6 71 b7 78 b4 24 54 02 b5 83 0d 08 35
       -3.89475e-06 -2.3163535e-07 -4.8551215e-07 5.068361e-07
000110 39 97 55 36 e4 2e 2d 35 b4 04 a7 b5 88 0c 3b 34
       3.1827497e-06 6.4515757e-07 -1.2443838e-06 1.7420291e-07
000120 a0 86 3a 36 6d 90 c4 b4 e4 32 73 b4 03 bc fd 34
       2.7794522e-06 -3.6612929e-07 -2.2649652e-07 4.726172e-07
000130 0e bb 0d 36 33 25 0c 35 af bd 8d b4 1a af 95 b4
       2.1119517e-06 5.2208196e-07 -2.640131e-07 -2.7880816e-07
000140 9b 5c 97 b5 00 15 c5 35 73 3a 0c 36 98 fb 63 36
       -1.1277328e-06 1.4683756e-06 2.0895648e-06 3.3972083e-06
000150 9f b1 8e b4 67 a0 ba 35 2a 15 90 35 ac 4d d1 b6
       -2.6578797e-07 1.3904763e-06 1.0734996e-06 -6.2377276e-06
000160 9f 42 17 b4 a0 fd fa b5 07 17 c2 35 a9 d0 c5 b5
       -1.4087207e-07 -1.8700266e-06 1.4460828e-06 -1.4738372e-06
000170 30 69 7f b5 80 64 dc 34 a3 81 91 35 be bd 54 b6
       -9.514797e-07 4.1051317e-07 1.0841071e-06 -3.1700906e-06
000180 d6 5f 00 35 7e bb 8b b5 8e 23 4d b6 0b 0b 9b 35
       4.7823175e-07 -1.0410874e-06 -3.0568076e-06 1.1551614e-06
000190 13 ff ca 35 fa 65 1e b4 6b 41 c8 34 6d 4c 5b 36
       1.5124409e-06 -1.4751996e-07 3.73005e-07 3.2678029e-06
0001a0 de 9b 2b b6 50 1a 55 35 d2 53 45 35 45 0e f0 35
       -2.5571712e-06 7.9386973e-07 7.3510193e-07 1.7885546e-06
0001b0 e9 ef 69 35 e0 3f 4d 35 0e ed 5d 35 9f d3 e7 35
       8.714838e-07 7.64614e-07 8.2673876e-07 1.7272431e-06
0001c0 6e d0 a8 36 59 3e 9a 35 4f 8e 00 b5 ec c9 1c b6
       5.0310546e-06 1.149204e-06 -4.78908e-07 -2.3363345e-06
0001d0 3c b5 8a b5 30 34 08 b6 40 d9 48 b6 76 7f c3 35
       -1.0334547e-06 -2.0295956e-06 -2.9928779e-06 1.4565728e-06
0001e0 9a 58 0c 34 39 d7 6f b6 82 e1 c8 35 57 a6 ba 35
       1.3070749e-07 -3.5739051e-06 1.4966793e-06 1.3906491e-06
0001f0 59 33 83 b6 ac db 92 b6 a1 bd 22 b6 cf 11 d5 b5
       -3.910082e-06 -4.3767122e-06 -2.425026e-06 -1.587492e-06
000200 c2 76 f9 b3 ab 14 ec b4 34 41 35 b5 24 2b 0b b6
       -1.1616568e-07 -4.3973463e-07 -6.752264e-07 -2.0737725e-06
000210 3a 6b da 35 d2 19 e0 b4 1a af a9 b6 20 f9 5f b6
       1.6273473e-06 -4.1742038e-07 -5.056977e-06 -3.33746e-06
000220 6b c0 c2 b5 e0 8d 2b b6 3a 93 37 35 2a 99 37 36
       -1.4510127e-06 -2.5563568e-06 6.8387055e-07 2.7358278e-06
000230 c3 83 c2 36 0c da 42 b5 9a a4 a3 35 d8 ad c3 b5
       5.7969896e-06 -7.258793e-07 1.2192352e-06 -1.4579227e-06
000240 3d 07 14 36 d2 27 8b b6 23 6f b3 b6 07 6c 84 34
       2.2057932e-06 -4.1471585e-06 -5.3475537e-06 2.4665516e-07
000250 53 13 bb b4 30 c0 5d b6 0b d1 09 b6 9e 86 75 b6
       -3.4845525e-07 -3.3043434e-06 -2.053627e-06 -3.6586202e-06
000260 71 84 67 b6 a6 d9 f0 34 ed 25 97 36 0d 7a 6c 36
       -3.4498773e-06 4.4861844e-07 4.504566e-06 3.5237783e-06
000270 e1 e8 1c 36 b2 b5 eb 35 81 25 c0 35 4c 5a 92 b5
       2.3381365e-06 1.7561745e-06 1.431603e-06 -1.0904128e-06
000280 80 ed a1 b5 b0 5f 49 b6 6e 17 3e b5 74 bf 06 b6
       -1.2064556e-06 -3.0007031e-06 -7.081461e-07 -2.0078996e-06
000290 a3 12 74 b5 0e 70 de b6 be ae 81 b5 e1 63 b9 35
       -9.0924203e-07 -6.6291605e-06 -9.662106e-07 1.3812643e-06
0002a0 18 9d 2f 32 08 04 df b5 d3 29 47 b6 fe 83 d5 b5
       1.022206e-08 -1.6615968e-06 -2.9677656e-06 -1.5908151e-06
0002b0 af 99 1f b7 97 fa 0a b5 b1 6c 8a 35 97 f2 2e 37
       -9.512921e-06 -5.177366e-07 1.0313435e-06 1.04276905e-05
0002c0 23 ec 1d 36 00 36 b7 b5 e3 ad e9 35 65 21 1e 36
       2.3532273e-06 -1.3650279e-06 1.741046e-06 2.3563273e-06
0002d0 6f 11 36 36 81 ca 5a b5 61 0e 25 36 b5 f4 1f 34
       2.713026e-06 -8.150601e-07 2.4595286e-06 1.4897053e-07
0002e0 23 c8 1b 35 af 6b ee 34 92 bb 9f 35 d2 b1 5b 36
       5.8033237e-07 4.4409305e-07 1.1901013e-06 3.2737048e-06
0002f0 1f 4e e1 36 c2 3f 45 b6 84 0a 49 b7 b0 66 20 34
       6.714617e-06 -2.93924e-06 -1.1982982e-05 1.4938519e-07
000300 18 ab 84 36 11 ea 78 35 c4 bc 2b b5 57 a8 85 b5
       3.9538245e-06 9.272781e-07 -6.3977154e-07 -9.958266e-07
000310 a7 d7 c2 35 70 8d b7 35 a1 3b ed b5 0e 87 20 b6
       1.451689e-06 1.3675726e-06 -1.767523e-06 -2.392047e-06
000320 5f 72 03 b6 7c 0d 97 b4 c8 c4 d7 35 04 40 99 b5
       -1.9587094e-06 -2.8135753e-07 1.6076019e-06 -1.1418019e-06
000330 0d 73 31 b6 73 ba 28 b6 03 72 19 b6 2b 14 15 b4
       -2.6442024e-06 -2.5142479e-06 -2.286514e-06 -1.3884043e-07
000340 18 1b 0b 35 e1 69 26 b5 7e f4 98 b5 00 71 9d b6
       5.182096e-07 -6.1993893e-07 -1.1396039e-06 -4.6921195e-06
000350 b8 15 f3 35 77 a8 5b b6 b2 3d 99 b5 14 71 88 36
       1.8111232e-06 -3.2731602e-06 -1.1417344e-06 4.06628e-06
000360 c9 4d 12 b5 1e 9f a4 b5 79 5e 7f b5 8b 0e 97 35
       -5.450243e-07 -1.2265261e-06 -9.513238e-07 1.1254609e-06
000370 9d 2b 10 b5 68 4f 42 36 ec 7a b6 b6 29 81 27 b5
       -5.3707646e-07 2.8954473e-06 -5.4383327e-06 -6.24003e-07
000380 03 08 5c b4 b3 4d 32 34 b0 f8 94 36 37 99 06 b5
       -2.0492011e-07 1.6605809e-07 4.4396947e-06 -5.0141847e-07
000390 6f 84 c5 36 d0 a1 58 b5 0d c0 5e 36 bf 95 f9 36
       5.886475e-06 -8.070174e-07 3.3192366e-06 7.438211e-06
0003a0 7b 82 a4 b6 20 fa 6d b5 cd c4 a0 b6 e8 1a 22 36
       -4.902771e-06 -8.865336e-07 -4.791282e-06 2.4155543e-06
0003b0 b5 84 87 36 18 e7 12 b6 ec fb b6 35 c7 ee 98 b4
       4.0387627e-06 -2.189021e-06 1.3633376e-06 -2.848594e-07
0003c0 68 2d 35 b5 79 06 a4 35 cf e7 b1 33 06 c3 d7 35
       -6.749383e-07 1.2220836e-06 8.2843705e-08 1.6075508e-06
0003d0 66 17 d5 36 53 75 c5 b5 88 a1 87 36 27 62 e3 35
       6.3506186e-06 -1.471179e-06 4.0421182e-06 1.6941384e-06
0003e0 b3 61 0a b6 4a c5 9e 36 ae 6c f3 b5 50 68 18 b6
       -2.062047e-06 4.7317344e-06 -1.8136541e-06 -2.2710483e-06
0003f0 59 ba 25 b6 70 3b 8f b6 da e0 3d 34 27 21 27 b6
       -2.4695385e-06 -4.2686515e-06 1.7683797e-07 -2.4904236e-06

exp_avg_sq f4 [64, 128]
000000 35 e3 f3 2a b6 c2 d8 28 ad 6c 68 29 50 a2 fe 29
       4.3323128e-13 2.406526e-14 5.160861e-14 1.13080227e-13
000010 7f 23 2f 28 93 87 6d 28 83 1f d6 29 e3 e4 7d 29
       9.7221485e-15 1.3185541e-14 9.5089755e-14 5.6375813e-14
000020 54 f7 0e 28 a7 1e a7 28 31 8a cc 2a 0d 8c 25 2a
       7.936214e-15 1.8554018e-14 3.633357e-13 1.4703534e-13
000030 d8 2a b8 2a 08 d1 2a 29 f1 a7 ee 27 09 f7 3e 29
       3.2714695e-13 3.792889e-14 6.6240352e-15 4.2402744e-14
000040 6e 8e 57 28 11 07 66 29 ab 29 90 29 54 62 26 28
       1.1965782e-14 5.1076388e-14 6.402113e-14 9.236173e-15
000050 f5 a2 c5 26 16 55 64 2b 9f 95 3a 29 b1 f6 e0 28
       1.3713791e-15 8.111995e-13 4.1430072e-14 2.4975981e-14
000060 bb 06 15 29 29 76 81 29 29 27 be 2a a5 93 93 29
       3.3090484e-14 5.749248e-14 3.3777953e-13 6.5537236e-14
000070 3b 09 09 28 ae da 76 28 8f 25 fb 29 0e d1 19 2a
       7.607029e-15 1.3703162e-14 1.11531545e-13 1.366166e-13
000080 72 67 b8 29 95 13 00 29 92 29 40 29 54 22 7c 28
       8.1891864e-14 2.8438694e-14 4.266862e-14 1.3996254e-14
000090 a7 1d 53 27 ec 9b 8b 2a 30 6f 11 29 f4 43 24 2a
       2.9298207e-15 2.4799553e-13 3.2292907e-14 1.4589702e-13
0000a0 bd 02 12 2a d4 76 df 28 3b 47 48 28 d5 f9 9a 28
       1.2968355e-13 2.4809507e-14 1.1117676e-14 1.7205782e-14
0000b0 c8 6a 91 29 08 7f cf 27 d0 69 00 2a f2 ac 96 29
       6.457817e-14 5.759177e-15 1.1405395e-13 6.6913394e-14
0000c0 bb 42 85 28 62 56 dc 28 fd b2 25 29 55 75 1a 2a
       1.4794906e-14 2.4462369e-14 3.6792607e-14 1.3718655e-13
0000d0 1a c3 77 29 bc d8 d0 29 4b 73 9e 2a 84 3b 01 29
       5.501424e-14 9.274653e-14 2.8146439e-13 2.8695376e-14
0000e0 22 58 18 2b d6 f0 2b 29 01 c1 7c 28 6a ae 8a 28
       5.4123557e-13 3.817852e-14 1.4030661e-14 1.5396718e-14
0000f0 33 21 f1 29 eb 8a 0d 29 ca 2d 7a 2a 6c 79 a1 29
       1.0708309e-13 3.142878e-14 2.2220347e-13 7.1708996e-14
000100 79 3d af 2a 5a e1 72 27 94 35 dd 28 40 7f c1 27
       3.11289e-13 3.370641e-15 2.4559165e-14 5.3706226e-15
000110 98 77 61 2a 42 85 03 29 39 34 62 29 5f e5 1c 27
       2.0025507e-13 2.9203426e-14 5.0227377e-14 2.1773691e-15
000120 d1 d0 2b 2a d4 72 7e 27 e8 fd cc 28 2f ad cf 28
       1.5260299e-13 3.531183e-15 2.2758664e-14 2.3056723e-14
000130 ee 20 cb 29 76 db 9b 28 70 2e df 27 9e ae 53 27
       9.0207234e-14 1.7303633e-14 6.194528e-15 2.9376792e-15
000140 e5 93 1b 29 e3 89 e7 29 10 d7 df 29 9c e2 a7 2a
       3.4545192e-14 1.028238e-13 9.940497e-14 2.98224e-13
000150 ed 99 a6 28 f1 1e 84 29 98 db 02 2a 88 b7 58 2b
       1.8496457e-14 5.867345e-14 1.1622506e-13 7.6993316e-13
000160 88 b1 48 27 28 e0 d9 29 7e 6d 59 29 ca c5 51 29
       2.7851815e-15 9.675621e-14 4.827865e-14 4.6578877e-14
000170 6c 9c f3 28 9b c5 1e 28 6f 0a 3a 29 36 bf 5b 2a
       2.7046257e-14 8.813611e-15 4.1309346e-14 1.9517447e-13
000180 25 ec 43 28 1c 8d eb 28 aa 80 51 2a 13 86 0f 29
       1.087588e-14 2.6151438e-14 1.8607568e-13 3.186867e-14
000190 62 0f a3 29 d7 9a ba 27 65 a7 10 29 74 ac 83 2a
       7.2413226e-14 5.179325e-15 3.2119615e-14 2.3389938e-13
0001a0 ae d9 17 2a 75 d2 85 28 8c 87 8c 28 9e ec bb 29
       1.3487017e-13 1.4857237e-14 1.5601906e-14 8.345515e-14
0001b0 a2 46 ea 28 05 15 91 28 28 bd 8f 28 ae f2 e7 29
       2.6009851e-14 1.610735e-14 1.5958223e-14 1.0300559e-13
0001c0 aa 61 0d 2b c4 f4 12 29 36 6f 21 28 2d 51 00 2a
       5.02288e-13 3.2630813e-14 8.96141e-15 1.1396847e-13
0001d0 46 df 30 29 b6 12 ba 29 19 19 5b 2a 08 3b 3e 29
       3.927351e-14 8.263305e-14 1.9459815e-13 4.2239676e-14
0001e0 6a 00 87 27 f7 cb 95 2a d6 46 7e 29 f0 cf 36 29
       3.7470476e-15 2.6609246e-13 5.646077e-14 4.0592475e-14
0001f0 75 52 ad 2a 5b 9a dc 2a b0 32 0b 2a 8c dc a7 29
       3.078819e-13 3.9186956e-13 1.2363266e-13 7.4545486e-14
000200 cf 66 ee 29 eb 99 92 27 99 3b 0e 2a 64 b9 bf 2a
       1.05871576e-13 4.069002e-15 1.263281e-13 3.4057056e-13
000210 ee 42 27 2a 75 cd 8e 29 50 f5 67 2b 42 ea 73 2a
       1.48558e-13 6.341708e-14 8.2408125e-13 2.166401e-13
000220 15 0f 3e 2a 8f 62 10 2a 6a 53 d9 28 c7 7e 27 2a
       1.6880623e-13 1.2823964e-13 2.4128015e-14 1.4876564e-13
000230 24 f8 71 2b 60 41 de 29 7e d8 d9 29 40 3a b2 29
       8.5964764e-13 9.870121e-14 9.674291e-14 7.914893e-14
000240 f9 d6 7d 2a e8 19 f2 2a 6a 9f 53 2b bb c0 a9 28
       2.2545498e-13 4.3005812e-13 7.518349e-13 1.8846353e-14
000250 0a 22 71 29 2c c5 80 2a d3 54 be 29 8d 71 95 2a
       5.3542274e-14 2.2874183e-13 8.4524096e-14 2.6546509e-13
000260 ab 4e 81 2a e2 70 c2 27 46 11 e1 2a 51 7f 89 2a
       2.296959e-13 5.3968204e-15 3.9980015e-13 2.4424432e-13
000270 c6 4f 37 2a 34 0e 23 2a 02 31 38 29 7a 07 fc 28
       1.6281342e-13 1.4482236e-13 4.0898715e-14 2.7980863e-14
000280 98 51 99 29 86 dd 48 2a 24 ae 57 2a 0d a7 bb 29
       6.808719e-14 1.7840425e-13 1.9156253e-13 8.333447e-14
000290 bf fb 9f 29 42 a5 7b 2b cd 33 e5 29 ed 25 31 2a
       7.1046894e-14 8.9402455e-13 1.0178629e-13 1.5733916e-13
0002a0 45 5c 21 2a b2 b3 7e 29 53 e3 7e 2a 3e 16 17 2a
       1.4331685e-13 5.655519e-14 2.2638601e-13 1.3419211e-13
0002b0 9e d1 f7 2b a5 41 94 28 4b 26 66 29 46 30 1e 2c
       1.7608586e-12 1.645977e-14 5.1103473e-14 2.2479948e-12
0002c0 b1 79 87 2a d1 3b c4 29 24 92 94 29 dc ca f7 29
       2.4065258e-13 8.714525e-14 6.597872e-14 1.1004194e-13
0002d0 a7 57 ff 2a 63 30 c5 28 36 1c 27 2a 24 5e aa 27
       4.535792e-13 2.1892378e-14 1.4842367e-13 4.7286546e-15
0002e0 d0 07 3d 29 7a a1 2d 29 a7 77 ff 28 88 72 71 2a
       4.1973207e-14 3.8553775e-14 2.8362578e-14 2.1444836e-13
0002f0 94 56 79 2b 38 8d 52 2a 32 c0 44 2c dc e1 90 27
       8.858272e-13 1.8700742e-13 2.7959965e-12 4.0212906e-15
000300 d2 1f f7 2a 3b 4c 9a 28 29 34 1a 28 12 23 3b 29
       4.3898094e-13 1.7130494e-14 8.560028e-15 4.155276e-14
000310 4a 09 57 29 c1 80 a7 29 06 45 20 2a 94 92 3f 2a
       4.7747647e-14 7.438625e-14 1.4234802e-13 1.7015062e-13
000320 9b ab b0 29 be 91 ec 29 46 f5 8f 29 67 16 f8 28
       7.845739e-14 1.05057876e-13 6.393024e-14 2.7543246e-14
000330 c9 27 8c 2a 2c 1c 0f 2a 5c ff 2b 2a 84 99 4f 2a
       2.4896602e-13 1.2710725e-13 1.5276447e-13 1.8438555e-13
000340 09 c2 0d 29 d3 6f ab 28 ee 1a 17 2a f5 ac ff 2a
       3.1476588e-14 1.903331e-14 1.3420837e-13 4.5417112e-13
000350 3e 32 99 29 9b 41 9a 2a ea e0 00 29 d7 18 d2 2a
       6.8032805e-14 2.7401418e-13 2.861679e-14 3.732073e-13
000360 86 e6 ba 29 21 aa 8f 29 d3 50 21 29 3e 47 06 29
       8.300049e-14 6.3799884e-14 3.5819285e-14 2.981577e-14
000370 1e 1e d6 27 31 31 40 2a 10 52 50 2b 5c cc 6e 29
       5.9429585e-15 1.7070092e-13 7.401033e-13 5.302387e-14
000380 69 89 1f 27 e2 c5 f3 27 a9 ea 64 2b 6d 66 36 29
       2.2140173e-15 6.7660594e-15 8.132753e-13 4.0500958e-14
000390 ac 6e 3e 2b b5 ce 20 29 75 e3 b3 2a c4 0e 98 2b
       6.765515e-13 3.5706427e-14 3.1954617e-13 1.0804348e-12
0003a0 17 4c 06 2b 6e c1 88 2a 54 20 04 2b 96 c3 0d 2a
       4.771196e-13 2.4292672e-13 4.6940685e-13 1.2591173e-13
0003b0 a3 b0 bf 2a 16 af 28 2a 29 55 2c 29 a3 4a 09 2a
       3.4050982e-13 1.4982143e-13 3.8265537e-14 1.2193939e-13
0003c0 1c 3f bd 28 10 ca 9a 2a 51 80 0a 27 c5 f2 6f 2a
       2.1010584e-14 2.7496104e-13 1.9220908e-15 2.1311692e-13
0003d0 fc 06 75 2b b9 12 54 29 12 c2 d6 2a 5e db 7a 29
       8.705118e-13 4.7089696e-14 3.81487e-13 5.5701422e-14
0003e0 39 c2 bd 29 f3 4f f6 2a a5 77 95 29 32 0e e3 29
       8.426978e-14 4.3753854e-13 6.637684e-14 1.00832876e-13
0003f0 1a d2 0c 2a eb 4e cd 2a af bf f6 26 c4 8a 94 2a
       1.2507391e-13 3.6470076e-13 1.7121635e-15 2.638637e-13

exp_avg f4 [64]
000000 2f 20 6a b6 b6 11 ac b7 2e 3e 76 35 b6 52 9a b7
       -3.488745e-06 -2.0512245e-05 9.1732625e-07 -1.8396746e-05
000010 e0 31 ef b7 eb 1b 7c b7 b9 52 b6 b7 5a 77 1f b7
       -2.8514245e-05 -1.5026871e-05 -2.1734611e-05 -9.504927e-06
000020 50 e1 04 b6 a9 63 92 b7 2b 79 e6 b7 87 74 83 b7
       -1.9800682e-06 -1.7450964e-05 -2.747456e-05 -1.567068e-05
000030 6d 13 18 b8 86 6e 8a b7 2a c4 a1 b7 20 46 32 36
       -3.6257716e-05 -1.6502348e-05 -1.9284042e-05 2.6564885e-06
000040 15 99 76 b7 71 a4 e7 35 91 79 9a b7 f4 2a 76 b6
       -1.4698385e-05 1.72587e-06 -1.841484e-05 -3.6681859e-06
000050 c3 ee 5a b8 37 05 bf b7 df 69 b0 b5 4f 72 fe 35
       -5.2197614e-05 -2.2771403e-05 -1.3143834e-06 1.8957743e-06
000060 56 84 fe b6 81 e7 04 b8 5a 92 25 36 56 a1 ec 36
       -7.585196e-06 -3.1686857e-05 2.4672104e-06 7.05213e-06
000070 da ab ab 33 d8 23 28 36 27 29 97 35 90 7d 99 37
       7.9940676e-08 2.5054815e-06 1.1262354e-06 1.829749e-05
000080 84 d4 95 34 6d 36 2e b8 59 00 1b b8 fa ce bc b7
       2.7908038e-07 -4.153552e-05 -3.6955204e-05 -2.2507727e-05
000090 d5 b8 69 b8 e8 6d 45 b8 8f ae 00 37 80 f9 31 b7
       -5.5723667e-05 -4.707082e-05 7.670037e-06 -1.0608113e-05
0000a0 95 36 8a 35 03 8e 38 b7 ec 71 c2 b6 93 3f 00 b8
       1.0297687e-06 -1.1000319e-05 -5.794913e-06 -3.0576786e-05
0000b0 02 76 0f 36 7a de bd b5 a0 00 9c b7 3e 4e 95 b6
       2.137735e-06 -1.4146347e-06 -1.859694e-05 -4.4496546e-06
0000c0 eb 10 24 37 e5 af 77 36 6e db fb b6 52 ff 6b b7
       9.779101e-06 3.6908252e-06 -7.505928e-06 -1.4066538e-05
0000d0 56 7a dc b5 7f 17 b7 b7 8d 12 52 b7 6c b7 88 b6
       -1.6426882e-06 -2.1826241e-05 -1.2521295e-05 -4.074469e-06
0000e0 af 59 e1 34 06 4f da b7 44 34 67 37 42 2f 69 b6
       4.197477e-07 -2.6024423e-05 1.3780842e-05 -3.4747213e-06
0000f0 47 f4 22 b8 db 39 0b 37 41 ef 21 b7 77 a9 8a b7
       -3.885131e-05 8.298516e-06 -9.652053e-06 -1.6529795e-05

exp_avg_sq f4 [64]
000000 2c c2 89 2b ff 0e 14 2d 35 d9 66 2c e4 3b 53 2d
       9.788329e-13 8.416156e-12 3.280554e-12 1.200726e-11
000010 31 64 93 2d 46 f0 a8 2c 3b 88 34 2d 78 32 2e 2d
       1.6756459e-11 4.801523e-12 1.0262065e-11 9.901961e-12
000020 54 3a e3 29 1f 13 d0 2c d1 78 81 2d f0 90 c4 2c
       1.00909434e-13 5.9138384e-12 1.4719255e-11 5.5867463e-12
000030 28 f1 e5 2d 70 c1 b9 2c 2a 39 4a 2d f1 5a b2 2a
       2.614138e-11 5.279492e-12 1.1495064e-11 3.1682255e-13
000040 33 f0 b3 2c cc 24 f6 2b 73 e2 eb 2c 1e 3b 3a 2b
       5.1141535e-12 1.7489564e-12 6.7042426e-12 6.6162516e-13
000050 80 86 6b 2e 34 b1 48 2d 02 3a 5f 29 de 17 90 2c
       5.3552274e-11 1.1408031e-11 4.956626e-14 4.095376e-12
000060 e2 66 dd 2b 58 a3 ab 2d af ea e4 2a 92 2e 58 2c
       1.573155e-12 1.9512988e-11 4.066378e-13 3.0721298e-12
000070 98 e6 47 27 ff 96 fc 2a 52 10 0c 2a c1 bb 2b 2d
       2.7741803e-15 4.4868967e-13 1.244016e-13 9.761914e-12
000080 e3 22 03 2d 32 5d 13 2e 6d 89 fb 2d 00 65 30 2d
       7.454234e-12 3.3506704e-11 2.8596426e-11 1.0026868e-11
000090 da be 84 2e 6b e9 42 2e 8c 33 c3 2b 7c 1a bf 2c
       6.036567e-11 4.431781e-11 1.386989e-12 5.431487e-12
0000a0 6b f9 b3 2a 78 d9 37 2c 2d d5 4c 2b ba 26 a0 2d
       3.1969856e-13 2.6126584e-12 7.27712e-13 1.8207092e-11
0000b0 6c 86 de 2a 2a bb 37 2d a3 67 ed 2c fe 3d d8 2a
       3.9528396e-13 1.0443904e-11 6.747451e-12 3.8412323e-13
0000c0 96 50 ba 2c eb 4b 1d 2d 8a f8 16 2c 7a af 89 2c
       5.295385e-12 8.941274e-12 2.145425e-12 3.913256e-12
0000d0 69 11 24 2b e8 08 2e 2d 98 ec 65 2c e6 60 c9 2a
       5.8288666e-13 9.8927325e-12 3.2674193e-12 3.577201e-13
0000e0 b4 4c 63 29 a7 00 ac 2d e7 22 cf 2c 24 45 77 2c
       5.0470655e-14 1.9554426e-11 5.887169e-12 3.5139192e-12
0000f0 a0 65 02 2e 0d 3c 58 2c 98 a1 cd 2c 44 90 bb 2c
       2.964884e-11 3.072878e-12 5.844391e-12 5.3308764e-12

exp_avg f4 [1, 64]
000000 32 1f a7 37 85 33 40 b8 b1 ba 12 39 fa d2 7a 39
       1.9922478e-05 -4.582435e-05 0.00013993193 0.00023920453
000010 39 4d 7e b8 2e bf fc b7 9e 34 3a b8 a2 5e 74 39
       -6.063024e-05 -3.0129766e-05 -4.439486e-05 0.00023304907
000020 f2 a3 03 38 67 81 14 b9 3c 19 00 b9 ec b8 22 b8
       3.138552e-05 -0.00014162586 -0.00012216432 -3.879603e-05
000030 28 bd f7 b7 ba 33 2a b9 d5 e2 78 39 34 11 0b 39
       -2.9532777e-05 -0.00016231733 0.00023735625 0.00013262482
000040 d7 c2 4d b7 ed 74 50 39 9d a8 6b b8 f6 29 4d 39
       -1.2264317e-05 0.00019879984 -5.61854e-05 0.00019565955
000050 ea c6 a8 b8 9b 22 d9 b7 b7 83 38 37 48 70 0d 38
       -8.047915e-05 -2.588453e-05 1.0997922e-05 3.372159e-05
000060 df fb b4 b7 0e 86 0d b9 d8 38 45 39 f8 8e a3 36
       -2.1574959e-05 -0.00013496747 0.0001880856 4.8744223e-06
000070 f4 ef 2f 36 80 4d 90 39 9c 59 33 34 94 81 85 39
       2.6216703e-06 0.00027523562 1.6703274e-07 0.0002546428
000080 30 86 82 39 d0 67 c9 b8 fc 66 e8 b8 19 f2 4d b8
       0.0002489551 -9.6037635e-05 -0.000110818044 -4.910128e-05
000090 bd 0a 1e b9 7c 77 cc b8 0d 74 f2 37 8a 31 44 39
       -0.00015072055 -9.749734e-05 2.8902688e-05 0.00018710471
0000a0 04 07 57 39 ef ef 02 b8 f4 23 db b7 18 cc ae b8
       0.00020506611 -3.121787e-05 -2.6123576e-05 -8.334982e-05
0000b0 00 72 08 b6 cd 05 88 39 8b e8 c0 b8 37 4d c7 b7
       -2.0331936e-06 0.00025944263 -9.198588e-05 -2.3758605e-05
0000c0 b3 9a c8 38 66 05 47 39 67 ed d3 37 74 43 35 b8
       9.565558e-05 0.0001898013 2.526371e-05 -4.3216583e-05
0000d0 b6 6d 08 b5 0b fd 51 b8 67 82 48 b8 31 a4 b7 b8
       -5.08236e-07 -5.0065148e-05 -4.7805162e-05 -8.756703e-05
0000e0 ab 6f 16 b5 f2 e9 74 39 20 ce 25 39 90 67 59 39
       -5.604185e-07 0.00023356805 0.00015812414 0.00020733313
0000f0 33 b4 d8 b8 f9 f0 2d 39 c2 1b 88 39 a3 da c7 b8
       -0.00010333247 0.00016588335 0.00025960623 -9.529784e-05

exp_avg_sq f4 [1, 64]
000000 ed 8f 1b 2d c4 5d 32 2e 79 f7 5b 30 5d 4b 05 31
       8.842688e-12 4.0555795e-11 8.0023416e-10 1.9396886e-09
000010 97 59 9d 2e 2b d8 9a 2d 66 90 2c 2e 25 46 06 31
       7.155448e-11 1.7603771e-11 3.9236524e-11 1.953944e-09
000020 40 d1 a6 2d 5d a4 d5 2f 25 8e 9f 2f 40 03 1c 2e
       1.896494e-11 3.8861261e-10 2.902293e-10 3.547318e-11
000030 e4 64 9e 2d b0 bc 0c 30 6e b3 02 31 99 99 5d 30
       1.8007325e-11 5.1199844e-10 1.9019484e-09 8.0617607e-10
000040 2b 56 8d 2c de 69 ba 30 3f be 8b 2e 81 fd b5 30
       4.0170276e-12 1.356337e-09 6.354783e-11 1.3241533e-09
000050 f1 64 0d 2f 34 30 77 2d 78 13 3e 2c a6 80 d0 2d
       1.2859737e-10 1.4051028e-11 2.7011431e-12 2.3703994e-11
000060 94 54 21 2d ce 0e c3 2f f5 30 c0 30 fd 91 81 2c
       9.1705706e-12 3.5480813e-10 1.3983753e-09 3.6826085e-12
000070 d6 51 9b 2a f1 98 39 31 94 f9 1a 2c b0 fe 16 31
       2.7590316e-13 2.700798e-09 2.202326e-12 2.1972646e-09
000080 1f 31 05 31 83 19 45 2f e8 15 88 2f 2c 97 51 2e
       1.938197e-09 1.7926109e-10 2.475382e-10 4.7655366e-11
000090 8e 77 f1 2f 07 f2 4a 2f bb 1d a2 2d 42 c4 a3 30
       4.3922593e-10 1.8457778e-10 1.843047e-11 1.1915591e-09
0000a0 e5 7e b8 30 19 cd b3 2d b4 70 70 2d c4 97 15 2f
       1.3423828e-09 2.0441026e-11 1.3667446e-11 1.3605389e-10
0000b0 ea f4 82 2a 87 33 13 31 c8 3b 36 2f a0 0e 45 2d
       2.3262582e-13 2.1420605e-09 1.6574042e-10 1.1201401e-11
0000c0 54 c5 29 30 7b 06 aa 30 68 00 66 2d 2a 14 24 2e
       6.176226e-10 1.237097e-09 1.30740765e-11 3.7307192e-11
0000d0 ea ba e6 2b 28 45 b4 2e 8f 24 59 2e 1e 26 2a 2f
       1.6394362e-12 8.197737e-11 4.9372558e-11 1.5474952e-10
0000e0 77 62 14 2a dd a0 f9 30 f1 5d 87 30 4c b7 da 30
       1.3179202e-13 1.8162855e-09 9.849243e-10 1.5913684e-09
0000f0 96 d4 63 2f 4c 10 a1 30 09 7d 28 31 dd 44 45 2f
       2.0721055e-10 1.1718924e-09 2.4518292e-09 1.7941511e-10
