checkpoints/final_generators.pt (torch, 214681 bytes, 18 tensors)

fc1.weight f4 [64, 128]
00000000: 6f70 93bd 48b2 063e 855a 3f3e a6b8 4f3d
00000010: 8753 3fbe 5ee7 d9bd b862 8cbd 4456 51bc
00000020: 5a8e 2f3d a373 c13c d200 82bc 9db0 15bb
00000030: 090a 47bd 1152 c83d cbbf 8f3d b125 dcbd
00000040: 22c0 0e3d 2f17 ad3c 7353 083e dda7 d5bd
00000050: c147 53bd 4e7e 0ebe 0a1d adbd 8837 09be
00000060: c144 1fbe cbe1 29bc 6783 013e d3ce 283e
00000070: 6b62 1bbe 4100 f4bd ebca dfbc 3f31 0fbe
00000080: b729 cabd 71fa 523d 488c 0ebd b635 2abd
00000090: 6d6c 743d 1879 a3bd a09d fc3d fa30 5d3d
000000a0: d747 c7bd 359e cbbc 6c9f 1f3e ea0e 0ebc
000000b0: 95d3 a1bc e56a 0d3d 9783 e53d 63a8 fb3c
000000c0: 1812 153c e372 74bd 1c41 02be 324c b7bd
000000d0: 65f6 b93c d17d 01be 78d0 7e3d c820 013d
000000e0: ac37 0ebe 61a5 e8bc 9156 bb3d 02fa 0ebe
000000f0: 9ba8 e43c 29dd f43d 94df 893c 8b05 e33d
00000100: 47a9 873d 0911 68bd 6f00 2e3d 82fa eebb
00000110: 81ff 8f3c 5d53 7dbd 1fa0 bfbd 42ea 9c3d
00000120: 9147 d3bd ee71 5d3d 20bc cd3d 0fbd 5fbd
00000130: de69 03be 5fcb 32be 17fe 413d 663a fcbd
00000140: c6de 9cbd 4857 a4bd e831 50bd f132 71bd
00000150: 25b4 4b3c 36b1 213d c420 eebd 2ded 293e
00000160: 34b8 91bc 37cd 003e 8dce 563d a04b bf3d
00000170: 49d2 da3d eb80 d2bb 6f81 a0bd 5647 9f3d
00000180: 08fd 18bd 0dd4 003e 5540 473d c9b1 bebd
00000190: 196f 0cbe 2ffb dabd 165a 1a3e 86a8 f7bd
000001a0: 37a5 2d3e 5901 86bd 35a3 26be 6943 613d
000001b0: a3ef a63d 2729 463b a342 83bd 86f5 be3d
000001c0: 4798 f1bd c33b acbd c0b8 e1bd f1f9 fcbc
000001d0: b950 953d d1f2 4a3d 13ce 083c b0e6 723c
000001e0: 2e8b 573d 70e3 b73d b3c4 82bd d716 36be
000001f0: 0bbd 053e 6d93 573c 23e7 ddbc 41a1 623d
00000200: bec2 aa3b bc8a c73d 8d32 8fbd 7f40 193d
00000210: c9fe 003d 2d5b c13d 3497 ac3d f99b 5abc
00000220: 7e84 443d 4089 083e 7d17 17be 484d cdbc
00000230: 5dec 06be a9a8 973c 19f6 febc 2f37 60bd
00000240: 70e6 883a 2b87 e53d a335 833d 25d8 983d
00000250: f4da a7bd d3d0 923d 1911 063e 99c8 94bc
00000260: 0ebc f53d d04c 293c 0201 9cbc 1650 8cbd
00000270: 0ae1 a0bb 77c2 23bd 594e 12bd 8d4c 8a3d
00000280: f091 3a3d fc89 d53d 67be ba3c 7329 0f3d
00000290: 595a 113e c865 f3bb 9c43 963b ff3a 2c3d
000002a0: 1976 263e 830e b03c 9366 f03d 89d1 1e3d
000002b0: 5a9c 373e e81f b73d 2aac f63c 3c01 0bbe
000002c0: 7eba dabb 89be 273e 6f87 4a3d 4099 1ebd
000002d0: 7618 ae3c a509 a03d d08e cebd 09cc ba3c
000002e0: 6e12 813d affc f0bd 7e18 6ebd c1fa 3abc
000002f0: 1258 303d b8ee 98ba bf65 34bb f457 23be
00000300: e069 e4bb 5e11 46bb eb80 913c 9476 993d
00000310: d2ff 10be c310 34bd b442 d33d 4a88 bd3d
00000320: 2999 c23c 98df 073e 8516 b33d 2cfd 813d
00000330: b501 053e 07cd c53c 6b1d cc3d 25ac 0a3e
00000340: 3502 85bd 6a80 153c 4d00 ad3d 1ed0 cf3d
00000350: 19f0 d2bc 3a3b 5a3d c6c3 2f3d 9b84 c7bd
00000360: 4a11 e5bd b47c bc3d 2f40 2e3d 8452 0e3d
00000370: 9ff3 49bd b56f 3fbe a615 503d bd47 e83c
00000380: 5db0 0939 6fcd 1d3d 3529 ea3c 2954 853a
00000390: 36dc f8bd f27c e33d 55cc fabc 03f3 0f3d
000003a0: 3baa 2c3d 0dfb f73c 183c 083e c812 e0bd
000003b0: 9cc0 54bd e7d7 dc3d e078 84bd edcf 593d
000003c0: 157f 3f3d 618b 39be d968 d53c a7e1 96bd
000003d0: df9a b3bd 6f85 263d 09ba 91bd 8124 11be
000003e0: 6e23 963b ac67 f8bd 081d e13d 969b 003e
000003f0: 400f 313d a493 8c3d 2465 debd def4 e03d
-0.071991794 0.13153946 0.18686874 0.050713204 -0.18684207 -0.10639833 -0.068547666 -0.012776915
0.042860366 0.02361471 -0.015869532 -0.0022840865 -0.048593555 0.09781278 0.070190035 -0.107493766
0.0348512 0.021129219 0.13313083 -0.10432408 -0.0515821 -0.13915369 -0.084528044 -0.1340009
-0.15553571 -0.010368775 0.12647782 0.16485147 -0.15174262 -0.11914111 -0.027318439 -0.1398363
-0.09871238 0.05150837 -0.03480175 -0.04155513 0.059673715 -0.07982081 0.12334752 0.054001786
-0.09730499 -0.024855712 0.15588158 -0.008670548 -0.01975421 0.03452577 0.112067394 0.030719941
0.009098552 -0.059679877 -0.1272015 -0.0895008 0.022700498 -0.12645651 0.06221053 0.031525403
-0.13888425 -0.028399171 0.091473706 -0.13962558 0.027912429 0.119562455 0.016830243 0.110850416
0.06624084 -0.05665687 0.042480882 -0.0072930465 0.017577888 -0.06184708 -0.093567125 0.07661869
-0.103163846 0.05406373 0.100456476 -0.05462366 -0.12833354 -0.17460392 0.04736146 -0.12315826
-0.07659678 -0.0802446 -0.050828844 -0.058886472 0.0124330865 0.039475642 -0.11627343 0.16594382
-0.01778803 0.12578283 0.052443076 0.09340596 0.1068464 -0.0064240596 -0.078371875 0.07777278
-0.037350684 0.12580891 0.048645336 -0.093112536 -0.13714255 -0.10692441 0.15073428 -0.1209269
0.16957556 -0.06543226 -0.16273196 0.054995928 0.08151176 0.003023693 -0.06409194 0.09324174
-0.11796623 -0.08409836 -0.110215664 -0.0308809 0.07290787 0.049547974 0.008349913 0.014825508
0.052622966 0.08978927 -0.06385174 -0.1778215 0.13060395 0.013157708 -0.027087754 0.055329565
0.0052112034 0.09743258 -0.06992064 0.037415024 0.031492982 0.094412185 0.08427277 -0.013342851
0.047977917 0.13333607 -0.14755054 -0.025061265 -0.13176103 0.01851304 -0.031123208 -0.054740127
0.0010444652 0.11207422 0.06406715 0.07463101 -0.08196059 0.07168736 0.1309246 -0.018162059
0.11998759 0.010333255 -0.01904345 -0.06851213 -0.0049096392 -0.039980378 -0.03571925 0.06752882
0.045549333 0.10426709 0.022795869 0.03495164 0.14194621 -0.0074279048 0.0045856964 0.04204845
0.16255988 0.021491295 0.117383145 0.038774047 0.17930737 0.089416325 0.030111391 -0.1357469
-0.0066750636 0.16381277 0.049445566 -0.03872037 0.021251898 0.078143395 -0.10085833 0.02280237
0.06302343 -0.117669456 -0.058128826 -0.011412323 0.04305274 -0.0011667823 -0.0027526466 -0.1595152
-0.006970629 -0.0030222754 0.017761668 0.0749332 -0.14160088 -0.043961298 0.10315457 0.09254511
0.023754673 0.13268888 0.0874453 0.06347117 0.12988932 0.024145616 0.099665485 0.1354223
-0.064945616 0.009124855 0.08447323 0.10147117 -0.025749253 0.05327914 0.042911313 -0.09742089
-0.11184938 0.09203473 0.04254168 0.03474666 -0.0493046 -0.18694957 0.050801896 0.02835452
0.00013131039 0.038525995 0.028584102 0.0010172176 -0.12151377 0.11107816 -0.030615011 0.035143863
0.042154532 0.030271078 0.13304174 -0.10941082 -0.0519415 0.107833676 -0.064683676 0.05317681
0.046752054 -0.18119575 0.026050972 -0.073672585 -0.08769774 0.040654596 -0.071155615 -0.14174081
0.0045818603 -0.12129149 0.109918654 0.12559351 0.043227434 0.06864098 -0.10859135 0.10984205

fc1.bias f4 [64]
00000000: 178d e33d 6704 603d 9c1c b73d cca4 f03c
00000010: f6b1 e23d 5d01 c13c 97a6 093d c1c1 223d
00000020: 2b0b 623d 28e1 f43d bc8d b93d dfc8 ae3d
00000030: e2e0 a93c 871a 053e a05f 9c3d 93b4 133e
00000040: 8dd6 d93c 00ce 133e 87dc e13d 13c6 8a3d
00000050: fac7 9e3d 8bb3 85b9 7307 b83c ab3e 1a3e
00000060: 34bc 0d3d 4810 223e a98f 0e3e 6368 353d
00000070: 4f2a 993d c643 363d 513e 033e 7707 f23d
00000080: f4f1 f03d 629f f73d 196f 003e f46a 04ba
00000090: 95c2 c93d 4cf4 ce3d 9d58 0b3e 4c5c 033e
000000a0: d146 323e 78c2 2e3d 7bc6 743c 56b8 cb3c
000000b0: 1afc 703d 21b1 243e 36e7 fc3d 1dbb 7d3a
000000c0: de87 0b3e e152 db3d 3abe cf3c 087b d13c
000000d0: 65be f13c 25e2 0b3e 10e8 c13d 5f84 5a3d
000000e0: d46a 243d 44bf 7e3d e44b ea3d 2e6b 133e
000000f0: c590 e23d 3a6c 0f3e 9820 c43c 241a d43d
0.11110895 0.0546917 0.08941004 0.029375456 0.110690996 0.02356022 0.033606138 0.03973556
0.05518643 0.11957008 0.09060237 0.08534407 0.020737115 0.129984 0.076354265 0.14424352
0.026591564 0.14434052 0.110283904 0.06776061 0.07752986 -0.00025501507 0.02246449 0.15062968
0.034603313 0.15826523 0.1392199 0.044289004 0.07478773 0.044498228 0.1281674 0.1181783
0.11764899 0.12090947 0.1254238 -0.00050513376 0.09851567 0.1010519 0.13608022 0.12828177
0.17409827 0.04266593 0.0149399 0.024868172 0.058834173 0.16083194 0.123487875 0.0009679066
0.13626048 0.10709167 0.025359262 0.025571361 0.029509732 0.13660486 0.094680905 0.053348895
0.04014094 0.062194124 0.11440256 0.14396355 0.11062769 0.14006129 0.023941323 0.103565484

fc2.weight f4 [1, 64]
00000000: aaac 3abe 8430 303e 099f 19be cb1e 14be
00000010: 423c 3e3e b090 613e 53b8 483e 854f 19be
00000020: 1a11 01be 1f71 da3d 31c3 f13d ec54 103e
00000030: 3c2e 423e ab02 d43d bfe7 efbd 5d81 a0bd
00000040: 3f5a 2f3e cdd3 e8bd f03a 053e 69e5 b4bd
00000050: dfea 2b3e c599 1f3e 2935 dcbd 994b 58be
00000060: 2682 543e 06e5 023e f57b b7bd f303 253e
00000070: 3244 c3bd 549c 61bd d1f5 e6bd 4a55 12be
00000080: d657 24be e1a9 113e 6917 223e 46c4 083e
00000090: 702a 413e 4476 243e a167 40be 241d 0ebe
000000a0: f335 d3bd e834 033e 567b de3d 20f4 0e3e
000000b0: b949 16be c4fd 52be 2533 e73d 2ede 0b3e
000000c0: 4bb0 07be 5d96 3cbe 5fc2 31be 6102 1f3e
000000d0: 582a dabd 46a3 dc3d d222 dd3d 06cf a03d
000000e0: c5e3 f9bd 07a4 27be b502 fcbd f51a 00be
000000f0: 8e1f 123e 2b64 ddbd fcc4 f3bd 15a3 c73d
-0.18229929 0.17206007 -0.15002073 -0.14464872 0.18577674 0.2202785 0.19601564 -0.1497174
-0.1260418 0.106661074 0.11804808 0.14094895 0.1896295 0.103520714 -0.11714124 -0.07837174
0.1712427 -0.11368523 0.13010764 -0.08832819 0.16788815 0.15586002 -0.10752327 -0.21122588
0.20752773 0.12782678 -0.0895919 0.16114788 -0.095344916 -0.055080727 -0.112773545 -0.14290348
-0.16049132 0.1422496 0.15829243 0.13356122 0.18863845 0.1606074 -0.18789531 -0.13878304
-0.10313024 0.12813151 0.10863368 0.13960314 -0.1467656 -0.20604616 0.11289052 0.13658974
-0.13250844 -0.18416734 -0.17359303 0.15528251 -0.10652608 0.107733294 0.10797657 0.078519866
-0.12201647 -0.16371165 -0.12305204 -0.12510283 0.1426985 -0.10810121 -0.11902806 0.09747902

fc1.weight f4 [64, 128]
00000000: 9485 61bd 0f3a 003d c5f7 a7bd 559d 353d
00000010: bc4d 47bb e995 6e3d 2b02 42bd e046 f3bc
00000020: ca7c 98bd 4d25 e23c f317 bb3d a81d 9e3c
00000030: 9b80 9f3c 2fac 3d3d 1cb1 e7bc eda6 d23d
00000040: 56e9 67bc b178 463d e2b9 e1bc 7cf4 2f3b
00000050: fa8d 5c3d ad56 c9ba 3e5a 173c fc28 593d
00000060: 00db 043c b521 37bd 9648 1ebd 4940 7b3d
00000070: 8baf d93c 0a5a 87bd bdce c93d e3de afbc
00000080: cc01 6a3d c65c 94bc 4775 603c 40c9 583d
00000090: 4ab2 b13b b277 1a3d 373f 93bd a756 933d
000000a0: b0e6 663d 73f6 7cbd ff57 37bd 6a43 84bd
000000b0: 2a7c 0dbc 5fcc 413a 2a1b 223b e94a 9d3b
000000c0: 7748 983d de22 1f3d 2b9e 283d fc24 ca3d
000000d0: b5af 35bd c187 6cbc 32e2 3cbc 9ae2 ab3d
000000e0: 3be4 8b3d 187d 9abc ab2f bd3b f51f 8abb
000000f0: dd4a 2abd 86e6 f63c b804 91bd 192f 243d
00000100: ad84 62bc bb4a d7bc 6dd6 633d 80cc 47bc
00000110: 3832 54bd b5b0 eabd 158a a5bc ecea 6bbd
00000120: d8da 5eba 2b50 c9bd f290 54bd b2ed 933b
00000130: 6bfd 84bc cf08 413d fab8 a8bc 54fb e53b
00000140: 7322 f43c 1d95 bc3d 845d fbbc a1de 19bd
00000150: 138f a43c 61af 08bd da2e 993c 37e0 d53c
00000160: 45fe 97bb 133b 523d 0a33 39bd a27c fe3c
00000170: 68db fcbc dd20 e03c 7021 f4ba 838d 97bd
00000180: 1979 babd 38e5 2d3d 463c 00bb 187f a53d
00000190: 03ef 773c b386 c73c 76c6 a93d 219d 743d
000001a0: 42bf 503d 5d26 80bd 8c2b 713d a04b 053d
000001b0: 9d19 2cbd bc27 87bd 0588 9bbd 12bd dd3b
000001c0: bfd5 45bc e3cd 9e3d 4622 33bd 8c84 15bd
000001d0: 2032 713d c0eb 4b3c dd8b c3bc d0c7 30bd
000001e0: 71c5 be3c e501 a4bd b399 adbc f167 d03d
000001f0: d508 20bd adad acbd 8218 3c3d 4f4e 7ebd
00000200: 4e6c 15bd f31e cebd 507c 803d a6bc 1a3e
00000210: 446d 30bc a759 9c3d e4d0 8abc 6f5a 243e
00000220: 9b42 d1bd 9c82 b93d bec0 febd 996f 533d
00000230: 1b9c 74bd 2245 c73d ba6f 513d 4787 2dbe
00000240: 6b8d 463d c28f f83d ae69 ff3d 8ea4 41bd
00000250: 37bb 1c3c cde6 8d3a 0fe4 b03c 3791 cd3d
00000260: a186 bcbd 4ddd 85bc 84c8 a13d da45 e9b9
00000270: 5b7a d8bd b7d3 e6bd 36c9 dd3b b8bf ab3c
00000280: 2509 95bd c39c 1bbe 04bf 16bd 3e23 5a3c
00000290: d474 d53d 80ec 263d ce76 453d 017f a4bd
000002a0: c0ad 02be dd32 93bb 6fae 133e 8383 563d
000002b0: 520b 2abd d3f2 443d 7419 153d 9948 6a3c
000002c0: f40d b73c 48db fabd 903f 08bd 615c b2bc
000002d0: e611 fcbd 2674 0c3d 0ba7 8a3c ccef 99bd
000002e0: 5ba9 37bd 7561 043e d9ec a53d 185c 793b
000002f0: 8c69 b8bd b881 c53c adf8 6a3c 9447 143d
00000300: f3b8 29be cf49 883b fae4 9dbd b733 323c
00000310: 5406 b33a 4038 093e ba78 cbbd d46c 0dba
00000320: d8c3 163d fc06 5bbb d919 a73c c282 f03c
00000330: 636f 0bbe 7943 31be 77f6 0fbe 9b17 02bd
00000340: 82d4 c23d 39e1 0abe effc d3bd d754 053e
00000350: e85f a5bc 7e68 183e 47aa 0cbd 9eee e0bd
00000360: 7da0 ae3c d13f fdbd f519 103e ba63 263e
00000370: 719f bf3d 07ff d83d cccf b93d c2cf 143d
00000380: 6ad4 603d 3b05 013e 2e91 153d 6611 13bd
00000390: b41c 97bd eb50 84bd 6c45 f8bc 4d86 7bbd
000003a0: b09c be3d 27a3 ff3d 58b3 10bd 04e2 473c
000003b0: 90c1 343c db8e 85bc fd00 223d e246 813d
000003c0: e97e e3bd df9a 3c3c 2aca 0ebe 3fc3 c6bd
000003d0: 031d 40bd 197a 59bd 62a2 6cbd f01f 2f3d
000003e0: 5c1a a43d bfdf c03d 6cc0 25bd 4864 f6bd
000003f0: 445f 94bb 418d c5bc 7549 cb3b 9b91 c9bd
-0.05505903 0.03130537 -0.08201555 0.044339497 -0.0030411324 0.058248434 -0.04736535 -0.029696882
-0.074456766 0.027605677 0.09135427 0.01930125 0.019470504 0.046306785 -0.028282695 0.10285745
-0.014154753 0.048454944 -0.027554456 0.0026848605 0.053846337 -0.0015360914 0.009237824 0.0530176
0.008108854 -0.04470988 -0.038643442 0.061340604 0.026572963 -0.066089705 0.09853885 -0.021468585
0.05713062 -0.018110644 0.013699836 0.052926302 0.005422865 0.037711807 -0.07189792 0.07194262
0.056372344 -0.06175847 -0.044761654 -0.06458171 -0.00863556 0.00073928194 0.002473543 0.0048001898
0.074356966 0.03885161 0.041166466 0.098703355 -0.04435702 -0.014436663 -0.011528539 0.0839283
0.06830641 -0.018858477 0.0057735047 -0.0042152354 -0.0415753 0.030139219 -0.07080978 0.04008398
-0.013825578 -0.026280751 0.055624414 -0.012194753 -0.051805705 -0.114594854 -0.020207444 -0.057597086
-0.0008501238 -0.09829744 -0.051896043 0.0045144195 -0.01623412 0.04712754 -0.020596016 0.007018486
0.029801583 0.092081286 -0.03068424 -0.03756583 0.020087754 -0.03337038 0.018699098 0.02610789
-0.0046384656 0.05132587 -0.04521469 0.031065289 -0.03086634 0.02735942 -0.0018625688 -0.07400038
-0.09105129 0.04245493 -0.0019567176 0.08080882 0.015132668 0.024356222 0.082898065 0.059720162
0.050963648 -0.06257317 0.05887942 0.032542825 -0.042016614 -0.065993756 -0.07594303 0.0067669237
-0.012074887 0.077541135 -0.043733858 -0.03650336 0.058885694 0.012446344 -0.023870403 -0.043159306
0.023287507 -0.08008174 -0.021191454 0.10176075 -0.039070923 -0.084315635 0.04592181 -0.0620864
-0.03648024 -0.10064497 0.06273711 0.15111026 -0.010768238 0.07634287 -0.01694531 0.16050123
-0.10217782 0.09058115 -0.124391064 0.0516201 -0.059719186 0.09729983 0.05113194 -0.16946135
0.04847471 0.121367946 0.12471329 -0.047276072 0.00956612 0.001082623 0.021593122 0.10037463
-0.09205366 -0.016340876 0.078995734 -0.00044493267 -0.105702125 -0.1127085 0.006768371 0.020965442
-0.07277135 -0.15196519 -0.03680326 0.013314066 0.10422674 0.040752888 0.048209004 -0.080320366
-0.12761593 -0.0044921474 0.1442201 0.052371513 -0.041514702 0.048083138 0.036401227 0.014299535
0.02234552 -0.12248856 -0.033263743 -0.021772565 -0.12308101 0.034290455 0.016925355 -0.07516441
-0.044839244 0.12927802 0.08101816 0.0038049277 -0.090045065 0.024109706 0.0143415155 0.036201075
-0.16574459 0.0041591893 -0.077096894 0.010876588 0.0013658502 0.13400364 -0.09935136 -0.000539494
0.036807865 -0.003342091 0.020398067 0.029359225 -0.1361671 -0.17310895 -0.14058863 -0.031760793
0.09513189 -0.13562478 -0.10350978 0.13020645 -0.020187333 0.1488361 -0.034342077 -0.109830126
0.021316761 -0.12365688 0.14072402 0.1624898 0.09356583 0.105955176 0.09072837 0.036330946
0.054890074 0.12599652 0.036515407 -0.035905264 -0.073785216 -0.064607464 -0.03030654 -0.061407376
0.093072295 0.12482291 -0.035327286 0.012199882 0.011032477 -0.01630347 0.039551724 0.06312348
-0.111081906 0.0115115335 -0.13944307 -0.09705209 -0.046902668 -0.053094957 -0.057772048 0.042755067
0.0801284 0.09417676 -0.04046671 -0.12030846 -0.004527958 -0.024115207 0.006203825 -0.09842225

fc1.bias f4 [64]
00000000: 2412 313d f2f5 e73d fea0 973b 2df0 92bc
00000010: c920 ea3c 3cb6 7a3d 0ac4 fb3c 08bc 0dbc
00000020: 5b86 f33d baff 213d 11c7 3f3d e2e1 1c3e
00000030: 2f4d 213d 9dd0 8fbd 54e6 1e3e 8a68 92bc
00000040: e2ff 33bd de6c ee3d 2dd3 6c3c 46e2 45bd
00000050: 4629 82bd aef6 f3bc 72d4 a7bd 2395 c33c
00000060: a5a5 89bc 8e63 af3c 4438 2a3d 0e1c 323d
00000070: 0f2e 4d3b 10a7 1a3d bb34 6b3d 43f9 7ebb
00000080: b26e b3bd 163f 11ba 3722 d73d d7cb c23c
00000090: db3b be3c 2ed5 823d 3f80 f33d 0fb2 52bd
000000a0: 051d 0b3e 3c7c a2bb 52f8 c43d 5f37 38bc
000000b0: f54b 1ebd 814f e13d 41f5 d7ba 1776 7f3c
000000c0: c0c4 803c fb9e afbc c28e 0a3e 53b8 ff3d
000000d0: 1d89 f03c ffc4 bebd 9ed7 0bbb 4be8 6c3b
000000e0: ad25 133e 014f 873d 401f b23a b786 e83d
000000f0: 2b40 2abd d0e1 043e 3885 323b e55a 5a3c
0.04323019 0.11326207 0.004627346 -0.01793679 0.028580086 0.06120895 0.030733127 -0.008650787
0.11890861 0.03955052 0.046820704 0.15320542 0.03938025 -0.07022212 0.1551755 -0.017872114
-0.0439452 0.116418585 0.014454645 -0.048311494 -0.063555285 -0.029780712 -0.081948176 0.023874825
-0.016802618 0.021409776 0.041557565 0.043483786 0.003130797 0.03775698 0.057423335 -0.0038905896
-0.08761348 -0.00055407116 0.10504573 0.023778839 0.0232219 0.06388317 0.118896954 -0.05143934
0.13585289 -0.0049586575 0.09617676 -0.01124367 -0.038646657 0.11001492 -0.001647629 0.01559212
0.015718818 -0.021438112 0.1353102 0.12486329 0.029362256 -0.09314918 -0.0021338235 0.00361492
0.14369841 0.06606866 0.0013589635 0.1135382 -0.0415651 0.12976766 0.002724005 0.013327335

fc2.weight f4 [1, 64]
00000000: 6916 11bc 2ac9 cd3d 4073 d5bb e950 1ebd
00000010: ec2b 473e 2bde bb3d 051e 1f3e 693b d0bd
00000020: b6a1 023e 5e88 e1bc 07d6 f4bc a2ae 173e
00000030: ffa6 f93d 0d93 3cbc 0c31 a73d 6d75 c8bd
00000040: 946a 56bd 3be6 e93d 0e40 1b3e a91b 35bd
00000050: 69ee 0cbc 76a7 a8bd 9966 5fbd 9bc5 003e
00000060: ce11 2d3e 7bd9 073e 0ff0 a4bd b06f 2bbd
00000070: e6e6 0c3e 6e1c 3b3e 2de9 5d3e 830a 093e
00000080: b768 fdba c048 093e 973d 433e bbd1 fa3d
00000090: 5cd0 ee3d 40f8 3e3e b651 bb3d 9f18 81bd
000000a0: 0322 ce3d 9368 283e 9e5e 1b3e 6294 7c3d
000000b0: f374 efbc 8294 323e 18b5 503e 7297 f03d
000000c0: a8f2 f83d 8603 81bd 5eb1 283e 5ad4 123e
000000d0: bf12 38bd cb52 22bd 6c87 453e 83b3 adbd
000000e0: eebf a03d 103e f53d 07bc e53d 9bc4 113e
000000f0: f052 f6bc a3a5 0a3e 9038 983c c799 923d
-0.008855441 0.100481346 -0.006513983 -0.03865138 0.19450349 0.091732346 0.15538795 -0.101675816
0.12757 -0.027530845 -0.029887212 0.14812711 0.12190055 -0.011509669 0.08163652 -0.09788022
-0.052347735 0.11420866 0.15161154 -0.044215832 -0.008601763 -0.08235066 -0.054541204 0.1257538
0.16901323 0.13266556 -0.080536 -0.04185456 0.13759956 0.18272564 0.21670981 0.13382916
-0.0019333576 0.13406658 0.19066463 0.12247034 0.11660835 0.18649387 0.091464445 -0.06303524
0.10065081 0.16446142 0.15172812 0.061664946 -0.02923057 0.17439464 0.20381582 0.11747636
0.12155658 -0.062995 0.1647391 0.14338818 -0.044939753 -0.03962974 0.1928994 -0.08481505
0.07849108 0.11974728 0.11217504 0.14235155 -0.030068845 0.13539748 0.018581659 0.07158237

exp_avg f4 [64, 128]
00000000: e8aa ab36 624f 93b6 e157 54b6 753e 81b7
00000010: 0733 9db7 f1d1 15b7 f0fe bbb7 2e16 13b6
00000020: 2c0f 9e37 96bf 07b7 a94c 7737 4419 78b7
00000030: c757 3437 87d5 ef36 8346 f035 82f5 9136
00000040: 42bc 39b7 5aef 8fb5 e664 4c36 aa53 08b6
00000050: 08bd ab36 ddd8 16b8 f164 f235 9a22 7eb7
00000060: cf70 f036 3e22 e236 5436 0c38 49f4 a936
00000070: 0467 9337 ebe9 c7b6 c313 aab6 0938 8cb6
00000080: ce4a f4b7 b42d 7337 5acc a936 8fa7 03b7
00000090: 2cfc b7b6 77ba aeb6 a21d dfb6 04c8 44b6
000000a0: 01df d5b6 31f4 27b7 eec6 3cb7 736f 35b7
000000b0: 4975 8eb5 acf4 9234 2a14 4b37 9269 8136
000000c0: 8573 31b6 ffd1 4cb7 1388 b936 a3f3 7037
000000d0: 83e7 3ab7 f774 4a37 f52a 37b6 b756 2eb7
000000e0: d7f8 2cb7 1bf8 e0b6 b58e 3537 f414 3c37
000000f0: d0f2 8c37 cacc c1b6 d18f d0b7 945a e836
00000100: 4088 6e36 646a 26b7 2350 7d37 6eb5 31b6
00000110: b9f6 14b8 763b e236 9c19 c1b6 58df 4437
00000120: 8ddd 4bb7 000a 00b7 e721 0037 f2ff a1b7
00000130: a839 0cb8 ac5e 3d37 9600 24b7 c7f1 e2b5
00000140: e42c 1737 437b 2db7 7da9 b337 c307 1937
00000150: 6c4e 7337 8673 c5b7 13d6 4bb8 eb72 3537
00000160: 8713 7ab6 ec38 f7b7 27d4 4b37 2f1d 82b6
00000170: 3293 c5b4 ba0d 20b7 6246 10b7 f809 1337
00000180: 273c ea35 7e2d 2137 b91f d037 4469 6236
00000190: 4ad3 b0b7 5590 3bb7 ac0c 4c37 2dc5 beb7
000001a0: 1409 57b6 ec09 c8b7 940f 9c36 a133 19b7
000001b0: 93ba 9236 8abc fc36 3607 d9b4 1b33 4537
000001c0: 1c79 cf35 9a68 5335 4e68 7235 4606 3b37
000001d0: 2a7e 74b6 33ea 5e36 88ed 07b7 09eb fcb6
000001e0: 2982 da34 8f86 ca36 2b84 8935 a579 27b6
000001f0: af29 0637 c41f e536 a32b f237 37be 0ab7
00000200: 2815 19b7 2989 39b6 20c0 4bb6 c070 77b5
00000210: 5fc2 de35 19b0 c636 4674 ab36 0179 b735
00000220: d35c 7eb6 8923 ac36 38bd 0036 3a52 8235
00000230: 838c ccb6 3e0d 3ab6 5962 8536 7d51 f435
00000240: 06d1 0236 b712 d8b5 967d 6ab6 142a ad35
00000250: a0a9 9ab6 4b4d 3135 a71f 51b6 c565 8c36
00000260: 832b 03b6 27f4 10b6 26a6 87b7 d372 12b7
00000270: d30f 09b7 bec8 a0b6 85ad 00b6 3466 97b6
00000280: 177b 23b5 606d 8c35 8328 fd36 f0b1 d436
00000290: 9c7b 9236 c428 0636 ca73 2437 5c6a 1c36
000002a0: f787 2036 1580 2235 d63b 0b36 60bc 3336
000002b0: 9d6f eab4 b0b1 2a34 a2a2 7635 b4ac 06b7
000002c0: 7a70 95b6 f7b5 7f36 bea9 92b6 d052 6036
000002d0: 37a3 fa36 4170 5eb6 4005 2035 0549 f7b5
000002e0: 23a2 34b6 fb5e 13b6 b15b 2fb6 b370 7bb6
000002f0: 9dd2 b0b6 e7ea d036 cf9c 7f36 d9b0 dd36
00000300: ebdf a536 d543 33b6 91cc 4435 8dac 5bb6
00000310: b69e ec34 6c73 b935 1c1e 1237 1c19 beb6
00000320: 501d b536 22d5 4e36 8bb7 e5b4 276d 20b5
00000330: 2015 dcb6 5f9b 9c36 13e2 de36 e5f4 2b36
00000340: 8161 90b5 f2ac 1eb6 fe7d 20b7 31cf 4636
00000350: 542b 9bb6 0615 eb36 4012 1037 fa46 b036
00000360: f61f 38b4 8960 6736 1bb9 1636 1a72 1435
00000370: 918e 8936 c833 c135 07dc 9536 8b24 1b36
00000380: 018e f6b2 cfac 8f36 a430 fa36 6153 d235
00000390: 6dbc c7b5 759f 46b6 0541 46b7 6daf f2b6
000003a0: 6cb6 c036 0d92 2437 9845 c6b5 d3df d735
000003b0: 3f2d 1eb7 1b46 1ab6 8561 32b6 3f97 acb6
000003c0: e603 d5b5 ee2c ceb6 6667 f1b3 8e67 15b6
000003d0: edef bf36 537f ad36 c128 7f36 dee5 0cb5
000003e0: bd28 3c36 807f 1ab6 9912 2836 12c9 0bb6
000003f0: d805 6a36 9164 0d37 9f29 6eb6 2d74 6e36
5.1160932e-06 -4.3901828e-06 -3.1641614e-06 -1.5407082e-05 -1.873962e-05 -8.929973e-06 -2.2410852e-05 -2.1917617e-06
1.8842133e-05 -8.091234e-06 1.4740196e-05 -1.47878345e-05 1.0749273e-05 7.147613e-06 1.7901915e-06 4.3499176e-06
-1.10706915e-05 -1.0723991e-06 3.04571e-06 -2.0314278e-06 5.1182033e-06 -3.5964757e-05 1.8059783e-06 -1.5147636e-05
7.16569e-06 6.739311e-06 3.3429198e-05 5.065031e-06 1.7571736e-05 -5.957894e-06 -5.0686954e-06 -4.1788485e-06
-2.91219e-05 1.449457e-05 5.060382e-06 -7.847221e-06 -5.4831817e-06 -5.2073115e-06 -6.6493676e-06 -2.93227e-06
-6.3738557e-06 -1.0010831e-05 -1.125199e-05 -1.08143895e-05 -1.0613959e-06 2.737264e-07 1.2104438e-05 3.8567896e-06
-2.6442297e-06 -1.2208241e-05 5.5292708e-06 1.4361841e-05 -1.1140367e-05 1.2067371e-05 -2.729413e-06 -1.0391398e-05
-1.0309936e-05 -6.7046035e-06 1.0821667e-05 1.1210552e-05 1.6802369e-05 -5.775689e-06 -2.4862502e-05 6.9246835e-06
3.5544072e-06 -9.919142e-06 1.5098633e-05 -2.6480661e-06 -3.5515728e-05 6.742247e-06 -5.7548295e-06 1.1734512e-05
-1.2151327e-05 -7.631723e-06 7.637288e-06 -1.931188e-05 -3.3432298e-05 1.128732e-05 -9.775298e-06 -1.6908679e-06
9.010753e-06 -1.0340303e-05 2.1417387e-05 9.121318e-06 1.4502188e-05 -2.3538025e-05 -4.8598344e-05 1.0815197e-05
-3.726427e-06 -2.94712e-05 1.21491385e-05 -3.8776993e-06 -3.6801208e-07 -9.539939e-06 -8.599456e-06 8.764204e-06
1.7451865e-06 9.60694e-06 2.4810304e-05 3.3737897e-06 -2.1079224e-05 -1.11796735e-05 1.2162298e-05 -2.2741582e-05
-3.204278e-06 -2.3846478e-05 4.650976e-06 -9.131531e-06 4.372859e-06 7.532134e-06 -4.0424646e-07 1.1754014e-05
1.5457949e-06 7.875584e-07 9.030381e-07 1.1147529e-05 -3.643227e-06 3.32169e-06 -8.101932e-06 -7.537547e-06
4.0700368e-07 6.035734e-06 1.0245761e-06 -2.4955746e-06 7.996728e-06 6.82843e-06 2.8868968e-05 -8.269729e-06
-9.1244365e-06 -2.7646986e-06 -3.0361189e-06 -9.2178743e-07 1.6596858e-06 5.9213603e-06 5.109733e-06 1.3669779e-06
-3.790298e-06 5.1301363e-06 1.9183626e-06 9.709686e-07 -6.0960315e-06 -2.7723868e-06 3.975158e-06 1.8203133e-06
1.9493177e-06 -1.6098701e-06 -3.4941818e-06 1.2901751e-06 -4.6093046e-06 6.6050114e-07 -3.116185e-06 4.1841727e-06
-1.9545848e-06 -2.1599787e-06 -1.6170623e-05 -8.729013e-06 -8.169521e-06 -4.791741e-06 -1.9174488e-06 -4.5120487e-06
-6.090135e-07 1.0462645e-06 7.5447037e-06 6.338807e-06 4.365529e-06 1.9991285e-06 9.802121e-06 2.330772e-06
2.3921e-06 6.0536087e-07 2.0747443e-06 2.6782727e-06 -4.3667106e-07 1.5897126e-07 9.1878803e-07 -8.027233e-06
-4.45364e-06 3.8103879e-06 -4.3708997e-06 3.3426804e-06 7.4695813e-06 -3.3145918e-06 5.9612285e-07 -1.8424186e-06
-2.6916466e-06 -2.1959993e-06 -2.6130404e-06 -3.7467514e-06 -5.2697274e-06 6.2262293e-06 3.8089236e-06 6.606901e-06
4.9434507e-06 -2.6712562e-06 7.3313373e-07 -3.273398e-06 4.4073903e-07 1.3817166e-06 8.7092885e-06 -5.6653644e-06
5.397633e-06 3.0820452e-06 -4.278812e-07 -5.976348e-07 -6.55897e-06 4.66725e-06 6.642434e-06 2.5623533e-06
-1.0757213e-06 -2.3644502e-06 -9.566078e-06 2.96249e-06 -4.624404e-06 7.005993e-06 8.587318e-06 5.2534715e-06
-1.7147963e-07 3.4477873e-06 2.2459487e-06 5.5300336e-07 4.099515e-06 1.4394691e-06 4.4661606e-06 2.311807e-06
-2.8702745e-08 4.2818497e-06 7.456243e-06 1.5670486e-06 -1.4881495e-06 -2.9597115e-06 -1.1816858e-05 -7.2325843e-06
5.7432826e-06 9.809167e-06 -1.4772404e-06 1.608389e-06 -9.428069e-06 -2.2988595e-06 -2.658083e-06 -5.143607e-06
-1.5870871e-06 -6.144509e-06 -1.1241245e-07 -2.2263007e-06 5.7201746e-06 5.1706243e-06 3.8021683e-06 -5.2488565e-07
2.8037896e-06 -2.3022003e-06 2.5044776e-06 -2.0829652e-06 3.4872119e-06 8.42767e-06 -3.548899e-06 3.5532387e-06

exp_avg_sq f4 [64, 128]
00000000: 36cd 332f a988 392e 17c2 2a2f a979 ec2e
00000010: 5dbf a12e a112 062e 2717 3c2f 08cc 5a2d
00000020: 0b0e 962e 572b 8d2d e5e1 b32e 619a fb2d
00000030: 28ea a72f 5372 ca2e 3e1b e72e beaf 4a2e
00000040: 0ac5 572e da04 522e 0a88 012f 44e8 d02d
00000050: 9626 b32d 7ca2 0230 9c5e 9c2e 73ca e12d
00000060: 474e ab2e 5123 142e a7e3 cf2e 13f6 a02e
00000070: 42ce 282f b216 8e2e ff64 572e 02a3 e42e
00000080: 000a 652f 5c8c 9d2d b1c7 1a2f 6e7a 402d
00000090: e92e 142e dd9f 002f 6ae9 112f 5e7d 7b2e
000000a0: 3bfb 042f 67ff e02d a9b8 962e e7e8 6f2e
000000b0: f2a9 292e c111 7d2c 4373 202e 1ca3 d42e
000000c0: 549a 8c2e d068 0e2e 96b7 c42d b174 992e
000000d0: 867f 052f 29e2 3a2e 9b07 532e 8b65 7d2e
000000e0: 8813 802f 80de bb2d 81b7 c12d a549 a42e
000000f0: ec15 062e 31b3 c02d 7f78 df2e 0038 4c2e
00000100: 4332 d62e 194c 122d ee66 1d2e fee3 4a2d
00000110: 0585 3a2f c6f0 442e 1c95 d02e 72f8 c72d
00000120: c772 952e 56ac 302e 076b 062e df67 392e
00000130: e46d 3630 66ed 312e 8c1e 072e 4f90 bd2e
00000140: dd60 262e 1c9c a92e eb49 9a2e 0cec 2c2f
00000150: 1455 9e2e 8672 232f c32d b42f 4120 242f
00000160: ade5 f42d 93f7 0c2f 43ac 892e 0d87 bb2d
00000170: 0c07 8e2d 2e40 392e 2a72 f82e 11f4 622e
00000180: 5bb4 8e2c cea5 da2d 05a2 312f 2199 8f2e
00000190: bf13 212f 8e92 842e 6468 182f 63b7 f62e
000001a0: 7e2e a42e 3c30 df2e df80 9e2e 1dcd 6f2f
000001b0: 85e2 852e cd2a e22d 89e8 312d e3b3 942e
000001c0: a74b 902e a382 fc2e b7c2 0a2f 3715 b82e
000001d0: d66d 112e 7a48 4b2e b7a7 252e 9e33 b62d
000001e0: 8380 3d2d 1279 4f2f bd17 902d 493f 462e
000001f0: df84 8c2e 4ce1 d92e 4ef1 2c2e e698 872e
00000200: 5502 c52e af74 002d 3a12 a42e cfff 052f
00000210: a8c6 592e 2c2a 012e 099e 1f2f e22b c62d
00000220: f508 5f2e 6870 e72d f36c 5c2e fefa 572d
00000230: 6570 df2e 4ab1 862e c747 0e2e 5518 7e2e
00000240: 99e2 5d2e 5b16 702e e8c5 002f 2718 d42c
00000250: 4fd2 972d 498b 4b2e 7a8e 192d 93d4 272e
00000260: cbdd dd2d 7bd0 492d 5554 0c2f 8a7d 942e
00000270: 1644 0f2e 4bab 902e ff7d 992d e955 7c2e
00000280: b0c0 462e a651 772d 1214 0b2f fa02 c62d
00000290: ab3b ed2d d251 782f 35c3 332e 9373 852e
000002a0: f151 9e2e c892 a82d 176d 332e 71c2 6a2e
000002b0: 30a7 b12e 4eab fc2c 9b8c fa2d 8da0 2f2f
000002c0: 54d3 af2e a3aa d52d f060 152d 7968 6d2e
000002d0: 0c34 d22e ce8f 932d 3a6f 312e 7620 3b2d
000002e0: 6df2 962e 33df a72d 22df 062d 802f 1f2d
000002f0: 4c8e 0d2e cdda 582e dc2c 742f 92eb db2d
00000300: faee 342f 2012 012d 4bfa f42d 1d93 112d
00000310: 6787 662d ccc3 192e 3e00 852e 87d2 b12d
00000320: 2b62 782e b46a 3a2e 6e41 c12d 907d a02d
00000330: 08e9 7e2e e6d1 862d cb9e ef2d 0630 b92e
00000340: 1df3 8f2d cfe6 9f2d bbda 462e 7917 132f
00000350: 0f4d 122e 251f 7b2e 60db f82e 3a6a e72d
00000360: b600 322e 4fc6 6e2e da74 1a2e 7173 a32c
00000370: f3a2 542d ee20 ea2d 7c5a 1e2f 538c a62d
00000380: efb4 742c bb89 262d 794b 282f 4838 e42d
00000390: 7411 602e 629d 962d e28f 9f2e 518a b42e
000003a0: 7fdc 332e 6bdf a92e 4f9f 202e d143 e62d
000003b0: 575e 012e 2077 b42d a50f 642c 1ff7 b82e
000003c0: 1167 fd2d 9665 222f 77bd 402c 0168 e62e
000003d0: a7bb 302e 2639 172d f356 6a2e 1776 ed2c
000003e0: 9e57 b52d 9a53 f72d 4cee 102e 8664 c32d
000003f0: fd95 b22d 559d b62e fd21 f12d 8327 b82e
1.6352861e-10 4.218551e-11 1.5530364e-10 1.0753649e-10 7.355425e-11 3.048462e-11 1.7106726e-10 1.2437169e-11
6.823705e-11 1.6049091e-11 8.1801045e-11 2.8603954e-11 3.05435e-10 9.2062045e-11 1.0509503e-10 4.6085573e-11
4.9060346e-11 4.775278e-11 1.1780812e-10 2.3750009e-11 2.036708e-11 4.752463e-10 7.110865e-11 2.5669444e-11
7.7900845e-11 3.368267e-11 9.453709e-11 7.319669e-11 1.5352788e-10 6.461444e-11 4.8975043e-11 1.03971956e-10
2.0830981e-10 1.7911166e-11 1.4077163e-10 1.0941121e-11 3.369297e-11 1.1698327e-10 1.3270599e-10 5.718214e-11
1.2094585e-10 2.5579273e-11 6.8540125e-11 5.4549167e-11 3.8577093e-11 3.5963318e-12 3.648216e-11 9.669618e-11
6.393877e-11 3.2380154e-11 2.2364149e-11 6.978363e-11 1.2141585e-10 4.2492374e-11 4.79826e-11 5.7615728e-11
2.3296942e-10 2.1358249e-11 2.2023052e-11 7.4709385e-11 3.0487543e-11 2.190745e-11 1.016227e-10 4.6433968e-11
9.7405216e-11 8.316036e-12 3.5789087e-11 1.1532995e-11 1.696386e-10 4.477909e-11 9.485232e-11 2.2734013e-11
6.796124e-11 4.0170832e-11 3.0563132e-11 4.2156386e-11 6.636738e-10 4.0455993e-11 3.0722577e-11 8.620359e-11
3.7830062e-11 7.712961e-11 7.01624e-11 1.572717e-10 7.200121e-11 1.486545e-10 3.2774325e-10 1.4927172e-10
2.7841585e-11 1.2820882e-10 6.2606385e-11 2.1319413e-11 1.614666e-11 4.2121133e-11 1.1298014e-10 5.1603225e-11
4.0559062e-12 2.4857363e-11 1.6155617e-10 6.530088e-11 1.464988e-10 6.0286984e-11 1.3861406e-10 1.1219361e-10
7.466115e-11 1.0149434e-10 7.2079e-11 2.1809794e-10 6.088378e-11 2.5712233e-11 1.0112918e-11 6.762215e-11
6.5618004e-11 1.1482839e-10 1.2620203e-10 8.37112e-11 3.3066737e-11 4.6221228e-11 3.7665617e-11 2.0713927e-11
1.07719415e-11 1.8869553e-10 1.6381447e-11 4.5076196e-11 6.3900656e-11 9.908038e-11 3.9322594e-11 6.1662495e-11
8.958937e-11 7.301867e-12 7.461094e-11 1.2187161e-10 4.951653e-11 2.936866e-11 1.4517111e-10 2.2529482e-11
5.0712285e-11 2.6311578e-11 5.0118975e-11 1.22770665e-11 1.0160831e-10 6.1251074e-11 3.2350813e-11 5.7774525e-11
5.045084e-11 5.4589538e-11 1.1711843e-10 6.028084e-12 1.7260108e-11 4.6280566e-11 8.728679e-12 3.8160208e-11
2.5223287e-11 1.1471819e-11 1.2762887e-10 6.752561e-11 3.2574908e-11 6.5787896e-11 1.745004e-11 5.737447e-11
4.519113e-11 1.4058454e-11 1.2649107e-10 2.2511316e-11 2.6970278e-11 2.2584537e-10 4.0873267e-11 6.06867e-11
7.199564e-11 1.9164573e-11 4.079678e-11 5.337814e-11 8.0787266e-11 7.1812894e-12 2.848415e-11 1.5973196e-10
7.995618e-11 2.4291074e-11 8.491194e-12 5.398035e-11 9.55894e-11 1.6775827e-11 4.034393e-11 1.0636927e-11
6.864274e-11 1.9084822e-11 7.6665636e-12 9.048651e-12 3.2186073e-11 4.9307048e-11 2.2207608e-10 2.5002032e-11
1.6455806e-10 7.336826e-12 2.785074e-11 8.2749614e-12 1.3104052e-11 3.4962075e-11 6.048183e-11 2.0216063e-11
5.6475862e-11 4.2386275e-11 2.1970616e-11 1.8245655e-11 5.7959887e-11 1.532725e-11 2.7241672e-11 8.421357e-11
1.6365182e-11 1.8178707e-11 4.521426e-11 1.3377911e-10 3.3265e-11 5.7098454e-11 1.1316703e-10 2.6308834e-11
4.0473146e-11 5.4291068e-11 3.511933e-11 4.645555e-12 1.2086987e-11 2.6617344e-11 1.4402163e-10 1.8934332e-11
3.4774924e-12 9.46659e-12 1.5306324e-10 2.5945593e-11 5.0947205e-11 1.7122918e-11 7.2560416e-11 8.210022e-11
4.0895728e-11 7.724917e-11 3.6521283e-11 2.617809e-11 2.9414995e-11 2.0516533e-11 3.2409433e-12 8.411249e-11
2.880854e-11 1.4769905e-10 2.7390015e-12 1.0477664e-10 4.0184436e-11 8.596046e-12 5.3282666e-11 6.7490557e-12
2.0616227e-11 2.8117775e-11 3.295346e-11 2.2213575e-11 2.0302865e-11 8.3043496e-11 2.7413622e-11 8.37437e-11

exp_avg f4 [64]
00000000: 817f 0738 6e99 a137 d880 bc37 686b 7f38
00000010: 854a 9137 d616 58b8 1cd5 afb7 cf28 3638
00000020: 7113 0e38 8e0e a036 9b1d 6937 5b5a 4c37
00000030: babb d7b7 ded7 1eb7 87c5 0a38 0f05 5c37
00000040: e640 ffb6 9a9f d937 0ab7 d4b5 2171 9f37
00000050: dc20 8b37 f5cf 27b8 d57b 1c38 8979 f637
00000060: 5628 80b8 c0f5 b1b6 84b6 4138 2281 ddb7
00000070: 3eb7 0c38 f774 4f37 1572 b437 99ef a738
00000080: cb58 9338 ede4 1ab8 6e35 5937 7be0 b337
00000090: df5f c835 276b 18b7 e45c 2338 1178 ee35
000000a0: 43f5 4b38 1d76 1fb6 2e9c 23b6 abe5 4e37
000000b0: 78a0 94b7 e221 9138 c767 39b8 7b4f aeb7
000000c0: 6450 2338 3ea1 f637 a53e 5038 9862 9bb7
000000d0: 80b2 0e38 a083 10b7 2e18 f4b6 ece1 0337
000000e0: 9201 2537 0629 d937 c66a b138 f28f 7137
000000f0: 3408 7837 bd53 c337 6171 2e38 b002 2137
3.2305255e-05 1.9264142e-05 2.2471344e-05 6.0896768e-05 1.7320048e-05 -5.151968e-05 -2.0960862e-05 4.3430187e-05
3.3873544e-05 4.770066e-06 1.3894775e-05 1.2180385e-05 -2.5717414e-05 -9.467794e-06 3.3085726e-05 1.31142e-05
-7.6071474e-06 2.5942736e-05 -1.5848502e-06 1.9006957e-05 1.6585393e-05 -4.0009578e-05 3.7308626e-05 2.938208e-05
-6.111029e-05 -5.30362e-06 4.6184767e-05 -2.6405385e-05 3.354926e-05 1.23653945e-05 2.1510796e-05 8.007809e-05
7.026045e-05 -3.6929665e-05 1.2946648e-05 2.1442995e-05 1.4929063e-06 -9.084854e-06 3.894874e-05 1.7767326e-06
4.862739e-05 -2.3761597e-06 -2.4379801e-06 1.2332031e-05 -1.7717699e-05 6.92045e-05 -4.4204087e-05 -2.0779427e-05
3.8937098e-05 2.940057e-05 4.9649407e-05 -1.8523351e-05 3.402168e-05 -8.613715e-06 -7.2745815e-06 7.86081e-06
9.835132e-06 2.5887519e-05 8.459906e-05 1.4398234e-05 1.4783862e-05 2.3284805e-05 4.1590425e-05 9.5969735e-06

exp_avg_sq f4 [64]
00000000: e078 8c31 03d6 9d30 a180 5f31 f053 ff30
00000010: 9026 4a31 24fe 4f30 71d6 0131 6801 1131
00000020: 2fcb 7930 dbcd 2f30 2d97 9830 5dca ad30
00000030: d583 0531 17d0 4430 7354 e430 d90d 0130
00000040: 3640 d62f 057c c230 7128 a530 abdd 3930
00000050: 73af 2231 f84d eb30 394d 2630 114b d431
00000060: 13c6 1e30 b78e b930 df6e 1f30 63d4 c12f
00000070: fa4d 6e30 8eee 7f2f ab63 9f30 a081 2f31
00000080: 6471 5931 8ddc ea30 af05 1831 4bd4 a930
00000090: da41 3531 62d4 2031 9676 9231 7c99 2531
000000a0: 36fa 8230 29b7 3830 2250 fd2f 12a7 ab30
000000b0: df5c 3530 f509 c831 18c3 5d30 116f 0630
000000c0: 4116 0c31 f7bc 9131 4de5 7e31 2e35 ed30
000000d0: 0bb7 f02f fa5d 7130 7fcc 5430 c1c7 ca2f
000000e0: aba1 ea2f 892b 7431 cd41 d930 b917 da30
000000f0: 9bb7 d930 32ca 9f30 72cc ae30 5f33 4430
4.088278e-09 1.1484079e-09 3.2523888e-09 1.8577548e-09 2.941679e-09 7.5667317e-10 1.8893866e-09 2.1101076e-09
9.0874414e-10 6.395717e-10 1.1102422e-09 1.2644922e-09 1.9428985e-09 7.16001e-10 1.6613185e-09 4.6949605e-10
3.8971998e-10 1.4150606e-09 1.2016824e-09 6.7617617e-10 2.3673834e-09 1.712066e-09 6.050019e-10 6.178546e-09
5.7761546e-10 1.3501084e-09 5.800142e-10 3.5257405e-10 8.6694707e-10 2.3276867e-10 1.15971e-09 2.5539535e-09
3.1642111e-09 1.7088425e-09 2.2122142e-09 1.2356706e-09 2.6376399e-09 2.340379e-09 4.262641e-09 2.4097906e-09
9.529859e-10 6.7199096e-10 4.607737e-10 1.2489372e-09 6.5979394e-10 5.821898e-09 8.0676577e-10 4.890675e-10
2.0385331e-09 4.2415382e-09 3.7092207e-09 1.7259134e-09 4.3785806e-10 8.780884e-10 7.7415757e-10 3.688552e-10
4.2679224e-10 3.553142e-09 1.580753e-09 1.586833e-09 1.5841012e-09 1.162624e-09 1.2718273e-09 7.137739e-10

exp_avg f4 [1, 64]
00000000: 33a7 a9b9 403e b638 a1ea e9b8 04db 50b9
00000010: b7fe 7c37 028f f538 b293 2f38 f30f 1cb9
00000020: 0fc6 b9b9 b381 ee37 6c1a b338 95ae 3338
00000030: fdb2 dd37 5413 3538 4b4c 82b9 ecb8 64b9
00000040: 0ff9 8338 34b8 4eb9 364b 0d39 9e5f 88b9
00000050: 2d3f 9038 4828 0cb7 8e97 a3b9 f67a 8db9
00000060: 46ce 8e38 750e fa38 a51a 54b9 f7ee 9537
00000070: a05b a2b9 04e4 76b9 e40d 46b9 10c9 b8b9
00000080: 23f3 a4b9 1322 2038 69d4 9fb5 9122 9b38
00000090: 5f65 0538 13da 0e38 aa5f 95b9 2022 8ab9
000000a0: 50b7 97b9 a647 7fb8 5434 b638 657d 4538
000000b0: 5448 0839 7c50 44b9 4764 7638 58b8 98b7
000000c0: 8113 36b9 3fae 9db9 a4db 8ab9 ab72 19b8
000000d0: 61d3 d4b8 c992 7e38 4813 9137 c1d2 f838
000000e0: dcb5 7337 e6a4 86b9 7143 a5b9 f028 30b9
000000f0: 8834 bf37 da8b 2eb9 59bf 4cb9 8860 ed37
-0.00032358765 8.690031e-05 -0.00011154009 -0.00019918015 1.5079676e-05 0.00011709148 4.1860803e-05 -0.00014883261
-0.00035433515 2.8432207e-05 8.5403066e-05 4.2839518e-05 2.64286e-05 4.3171764e-05 -0.00024852375 -0.00021812663
6.2929576e-05 -0.00019714312 0.00013474826 -0.00026011182 6.8782225e-05 -8.354029e-06 -0.000312027 -0.0002698523
6.809509e-05 0.00011923622 -0.00020227821 1.787346e-05 -0.00030967314 -0.0002354533 -0.00018887926 -0.00035245018
-0.0003146167 3.8178707e-05 -1.1908243e-06 7.3974144e-05 3.180408e-05 3.4058536e-05 -0.0002849077 -0.00026346836
-0.00028937543 -6.0863465e-05 8.688183e-05 4.7085243e-05 0.00012996915 -0.00018722 5.874436e-05 -1.8205654e-05
-0.00017364138 -0.00030075197 -0.00026485056 -3.6584835e-05 -0.0001014832 6.0695023e-05 1.7294326e-05 0.000118648175
1.4526271e-05 -0.0002568133 -0.000315215 -0.00016799918 2.2793436e-05 -0.00016646032 -0.00019526239 2.8297552e-05

exp_avg_sq f4 [1, 64]
00000000: b5ac 5933 4d8a 9332 8513 ad32 c2ab b132
00000010: 41a9 bc32 981b 5232 03fa bc32 650a 9832
00000020: 4369 be32 5cd8 4233 7281 2f33 7e5c 8832
00000030: 2ac8 8932 2978 7433 56e7 9232 81c0 d932
00000040: 9df1 e031 4de2 a332 765a bd32 1061 e132
00000050: 60cb 0933 1da9 8932 3572 9232 a5a6 7433
00000060: 5736 3732 06e4 4633 e342 0b33 9c13 a831
00000070: ab59 6e32 0c90 6432 4086 6a33 8977 1033
00000080: a74e f332 616a 1433 ce4f 0b33 c024 ab32
00000090: 3214 4933 2e11 0833 59da 4033 4f9f 8c32
000000a0: f3d7 5e33 2f74 9a32 670f 1d32 cb17 e032
000000b0: 9653 ca32 798a 5433 d2b5 0733 a07a 3d32
000000c0: 9d2d cb32 b454 d232 50eb c132 984f a732
000000d0: 00ca be31 5a8e bb32 4cc5 8832 9927 0433
000000e0: 9878 3832 0cc8 a732 8008 b432 532a a732
000000f0: ac37 2233 6b0b 9632 5c27 6332 9214 1f33
5.0681326e-08 1.7175944e-08 2.0148727e-08 2.0683618e-08 2.1963048e-08 1.2229883e-08 2.1999773e-08 1.7699856e-08
2.2166779e-08 4.5365923e-08 4.0863092e-08 1.5874544e-08 1.6039923e-08 5.6919962e-08 1.7101836e-08 2.5349665e-08
6.5467263e-09 1.9078607e-08 2.2043633e-08 2.6237586e-08 3.2082767e-08 1.6025803e-08 1.7048572e-08 5.696224e-08
1.0664357e-08 4.6307854e-08 3.2424293e-08 4.891673e-09 1.3873811e-08 1.3304099e-08 5.460447e-08 3.363633e-08
2.832469e-08 3.4555686e-08 3.243604e-08 1.9923732e-08 4.6817327e-08 3.1680592e-08 4.490207e-08 1.637059e-08
5.1884808e-08 1.7980794e-08 9.142105e-09 2.6087852e-08 2.3553905e-08 4.9486037e-08 3.15975e-08 1.102913e-08
2.3653053e-08 2.4485736e-08 2.2575165e-08 1.9477554e-08 5.5526925e-09 2.18344e-08 1.5922204e-08 3.076966e-08
1.07376295e-08 1.953233e-08 2.0958623e-08 1.9460606e-08 3.7769198e-08 1.746749e-08 1.3222088e-08 3.703878e-08

exp_avg f4 [64, 128]
00000000: e380 41b7 66c2 7bb6 7003 f036 6cb7 c5b6
00000010: 6e43 2735 6358 51b7 d7ec cb37 7165 14b7
00000020: 011b 3cb5 720b 58b7 d157 5f37 495e 40b7
00000030: f74d feb6 7e9a 57b7 cc8c 9f36 f616 4b36
00000040: 26ff da35 6e7c 28b7 6314 57b7 41db 8a35
00000050: 9b0f 6336 aeb8 21b7 b07b 4536 70c4 33b7
00000060: 5ab4 b7b6 d29f e336 de9b 9937 2ff4 a237
00000070: 7022 7136 4bc5 9736 87d6 1ab7 67cb 6237
00000080: a66a 9737 56be 1437 8a73 ecb7 8718 e235
00000090: 5805 fbb6 5a41 17b8 a99a a0b6 063e 8db5
000000a0: af50 35b6 6490 9d36 b0a5 1fb7 3ec8 9237
000000b0: 5c61 7c37 c139 97b6 3839 b9b5 fe89 9436
000000c0: 8646 b136 e611 34b6 32f5 e3b6 6309 6bb6
000000d0: 4b44 c9b5 3f2a acb6 0178 9eb7 e642 7eb5
000000e0: 9260 a6b7 4d43 6a35 03c7 00b6 e9e3 36b6
000000f0: 0578 f2b6 04ec 50b7 acbf 90b7 096f 35b6
00000100: 7638 2237 6ae1 7eb5 dc60 71b7 3aa4 32b3
00000110: 0bfc c2b6 567d 9bb7 0b3c 7eb7 628a 4236
00000120: df9e 1bb6 5e33 3eb6 bdc0 8ab7 4744 9d36
00000130: 03dc d5b4 8592 da36 d6e7 14b5 02f2 0636
00000140: 8360 3337 e577 ac37 8116 08b7 b841 fcb7
00000150: 6250 8e37 5e04 14b7 7f6c 0138 862c 40b7
00000160: c7e8 15b5 8363 98b7 7582 8db5 72ea 33b6
00000170: e18e 19b7 a152 efb6 a68c 30b7 7cde 4736
00000180: 74a4 82b6 c46a 56b6 5bfa 41b5 1b55 1737
00000190: d00d 9935 78c8 85b5 4056 0237 8a97 1c37
000001a0: 64fc 2bb7 daed efb6 2855 81b5 4544 12b7
000001b0: 5297 adb5 5727 0eb6 4238 4ab5 caea ccb7
000001c0: 3d95 78b7 a811 1f37 4fe0 e535 9aaa 2237
000001d0: 7ed7 80b7 11d0 5036 5d3f 4037 2581 8b36
000001e0: 17f1 06b7 e8bc 2a37 9774 37b7 5629 e9b6
000001f0: 51d1 3736 1d9a 18b7 38fb 3137 83af 8d37
00000200: 9615 dcb9 be17 193a ffbf 933a 7dce 0139
00000210: ddd1 96b9 3ac9 4539 b853 7ab9 c9c0 efb8
00000220: 990f e239 f56f 2cb8 cb68 e9b8 2dae 2c38
00000230: d009 ebb8 7a05 493a 02d0 bfb9 d59c 093a
00000240: b313 3eb9 d3e8 033a db7b 973a 8a36 1237
00000250: a01c 18b8 3530 5fba f366 7db9 c126 103a
00000260: b9be a639 bf8d 96b7 70d7 c839 93fb 0539
00000270: be35 7138 c74e b3b8 a488 7337 456b b5b9
00000280: 3b35 563a 082b 9739 41ae 9fb8 789d e0b7
00000290: 808c db39 1e5c e3b9 74c3 3639 a5ef 5139
000002a0: d425 75b9 0c0c dbb7 b9d5 bab8 9bb1 8cba
000002b0: 0f1d 9bb9 a21f 1239 1b52 f238 f7b4 1439
000002c0: 07bc 0eb9 a554 d938 2291 80b9 6a82 f9b9
000002d0: c94b 72b9 869b 0739 04a3 8f39 4682 04ba
000002e0: 4e8e 0eb9 4959 ac39 b709 8638 6ab5 d038
000002f0: 350a 723a 86bf 0fb9 338c b0b9 4fe6 263a
00000300: 21ff ce39 5511 ccb6 15ac 09ba 601f 9439
00000310: 01ac 7d39 bd0d c5b8 d6b4 ef39 52d0 1339
00000320: 17cc 8db9 24e4 3539 ce51 d139 1d89 56b9
00000330: 71d7 30b8 c69c 74b9 c19f 2c39 5869 c337
00000340: d5ee fdb8 b51d a0b9 1138 9339 1314 ddb9
00000350: 11ce a6b9 bcf7 8639 0067 85b8 9cb7 1a39
00000360: 8fb5 0c3a 51b5 523a c4bb f538 2f4e 9937
00000370: 6263 9838 66db 2eb9 9f96 abb7 64a1 0739
00000380: fd5f a237 bfa8 e138 a809 c0ba e2f5 96b9
00000390: 36b9 8ab9 e1af cc38 5d61 1239 dc4a 33b9
000003a0: 3cae 603a 2a81 d4b8 d3e0 a6b9 6d2d 0238
000003b0: e42d f5b8 6c93 1a39 f4a4 26b9 823e a939
000003c0: 6659 a8b9 3622 6db9 3d1c f636 3271 a2b8
000003d0: 41fb 89b8 e5a0 8c39 735e 0d3a d621 55b8
000003e0: 126f bc38 8d5b bcb9 d994 8939 0cc1 ff39
000003f0: 258e 48b9 103a 6a39 310a 9638 a4ed 4739
-1.1533705e-05 -3.751507e-06 7.1529576e-06 -5.8924106e-06 6.231047e-07 -1.247795e-05 2.4309773e-05 -8.845106e-06
-7.0074753e-07 -1.2877268e-05 1.3312282e-05 -1.1466044e-05 -7.578866e-06 -1.2850969e-05 4.75496e-06 3.0262722e-06
1.6316524e-06 -1.0042551e-05 -1.2819745e-05 1.0345613e-06 3.383472e-06 -9.639347e-06 2.9427283e-06 -1.0714968e-05
-5.4748207e-06 6.7837327e-06 1.8311603e-05 1.9425612e-05 3.5931844e-06 4.5231186e-06 -9.229064e-06 1.3518008e-05
1.8050265e-05 8.8658035e-06 -2.8187194e-05 1.684545e-06 -7.481005e-06 -3.606207e-05 -4.7863764e-06 -1.052337e-06
-2.7018066e-06 4.695774e-06 -9.515716e-06 1.7497801e-05 1.5043039e-05 -4.506874e-06 -1.3800227e-06 4.426808e-06
5.283221e-06 -2.6832508e-06 -6.7936717e-06 -3.5023193e-06 -1.4995543e-06 -5.1309175e-06 -1.8890949e-05 -9.4719724e-07
-1.9833711e-05 8.726973e-07 -1.9189326e-06 -2.7252775e-06 -7.226134e-06 -1.2452718e-05 -1.7255392e-05 -2.7035733e-06
9.669098e-06 -9.4950394e-07 -1.4387271e-05 -4.1593218e-08 -5.810992e-06 -1.8535804e-05 -1.515356e-05 2.8988802e-06
-2.3189275e-06 -2.8342106e-06 -1.6540633e-05 4.686913e-06 -3.983442e-07 6.5139634e-06 -5.547166e-07 2.0108423e-06
1.0691702e-05 2.0559828e-05 -8.111471e-06 -3.0071344e-05 1.696515e-05 -8.822504e-06 3.085704e-05 -1.1454458e-05
-5.584556e-07 -1.816615e-05 -1.0543287e-06 -2.6809544e-06 -9.152777e-06 -7.1323743e-06 -1.0523165e-05 2.9782814e-06
-3.893447e-06 -3.195063e-06 -7.226242e-07 9.0201165e-06 1.1403408e-06 -9.967616e-07 7.7686855e-06 9.3336075e-06
-1.02511585e-05 -7.1504446e-06 -9.636033e-07 -8.718173e-06 -1.2933544e-06 -2.1182548e-06 -7.533273e-07 -2.4428027e-05
-1.4816699e-05 9.481249e-06 1.7127112e-06 9.695674e-06 -1.5359135e-05 3.1115526e-06 1.1458845e-05 4.157557e-06
-8.0431555e-06 1.0176773e-05 -1.0934796e-05 -6.9487533e-06 2.7390963e-06 -9.095788e-06 1.0608514e-05 1.6890239e-05
-0.00041977753 0.00058400247 0.0011272429 0.00012379322 -0.0002876659 0.00018862347 -0.00023873046 -0.00011432317
0.000431177 -4.1112264e-05 -0.00011129825 4.117021e-05 -0.00011207501 0.00076683576 -0.00036585337 0.0005249505
-0.0001812715 0.0005031947 0.0011557298 8.7149765e-06 -3.6266283e-05 -0.00085139583 -0.00024166312 0.0005498939
0.00031804087 -1.79474e-05 0.00038307486 0.00012777587 5.750893e-05 -8.5500586e-05 1.4515743e-05 -0.00034602932
0.0008171384 0.00028833025 -7.614168e-05 -2.6776208e-05 0.00041875616 -0.00043365447 0.00017429685 0.00020021068
-0.00023379113 -2.6112444e-05 -8.90898e-05 -0.0010734083 -0.00029585554 0.00013935429 0.000115547526 0.00014181795
-0.00013612221 0.000103631326 -0.00024522195 -0.00047590147 -0.0002310715 0.0001293254 0.00027396542 -0.00050548126
-0.00013595188 0.0003287292 6.3914275e-05 9.952004e-05 0.00092330883 -0.00013708891 -0.00033673792 0.0006366716
0.00039481468 -6.0816915e-06 -0.00052517775 0.00028252136 0.00024192037 -9.396251e-05 0.00045720366 0.00014096618
-0.00027045675 0.00017346494 0.00039924536 -0.00020459709 -4.2162315e-05 -0.00023328056 0.00016462711 2.3294866e-05
-0.00012108466 -0.00030539712 0.00028079798 -0.0004216736 -0.0003181552 0.00025743048 -6.3611194e-05 0.00014754984
0.00053676305 0.00080378825 0.000117174844 1.8275428e-05 7.266436e-05 -0.00016675665 -2.0454927e-05 0.00012934726
1.9356603e-05 0.000107602675 -0.0014651315 -0.00028793426 -0.00026459404 9.760238e-05 0.00013959916 -0.00017098658
0.0008570885 -0.000101330064 -0.00031829494 3.103672e-05 -0.00011691058 0.00014741503 -0.00015892443 0.00032280764
-0.00032110064 -0.00022614826 7.3346587e-06 -7.745846e-05 -6.579469e-05 0.00026822757 0.0005392797 -5.081467e-05
8.985227e-05 -0.00035926365 0.00026241576 0.0004878122 -0.0001912644 0.00022337609 7.154456e-05 0.00019066647
